results/checkpoint_solved.pth (torch_old, 427107 bytes, 23 tensors)

fc1.weight f4 [256, 24]
000000 b4 61 93 bd f5 09 8a 3d 1f f2 ad 3d e3 c7 55 3e
       -0.0719637 0.067401804 0.084934466 0.20877032
000010 96 6e 1f be 51 f9 0d 3d 40 01 ae bd 25 1d 9c 3d
       -0.15569529 0.034661595 -0.08496332 0.076227464
000020 11 80 17 be c0 ab 28 be 6b 62 e1 3d 7f 95 66 bd
       -0.14794947 -0.16471767 0.110051 -0.056294914
000030 c1 10 1c 3e 8e db d4 3d e8 33 17 be 8d dd 1f 3e
       0.15240766 0.10393439 -0.14765894 0.15611859
000040 e1 c0 66 be 8a 16 f9 bd 9f 8e 54 bd 82 d2 dd bd
       -0.22534515 -0.12162502 -0.051893827 -0.10831167
000050 87 eb 35 be 5f 78 17 3d 5b 5e 22 be 09 9f 5a 3e
       -0.17765628 0.03698003 -0.15856306 0.2134973
000060 4d d7 fc bc 4d eb 72 bd 8f ec 2c be 1b 8e 2a 3d
       -0.030864382 -0.05930643 -0.16887115 0.04163943
000070 33 9f ea 3d 00 79 d0 3d fe 67 2b 3e 24 3a 9d bd
       0.11456146 0.10179329 0.16738889 -0.07677105
000080 71 37 ff 3d 33 ea 61 3e 73 e9 22 bd fb 46 d7 3d
       0.124617465 0.22061996 -0.039773416 0.10511585
000090 29 bb 50 3d 25 89 95 3e 9d 88 cd 3c 44 4a 99 bd
       0.05095974 0.29206195 0.025089556 -0.07484868
0000a0 3b 72 32 3e b4 24 08 be a5 47 79 bb 80 47 22 bb
       0.17426388 -0.13295251 -0.0038037088 -0.0024761856
0000b0 cc be 67 bd b6 00 4e 3e b5 b8 c5 bb bb 32 0e be
       -0.056578442 0.20117459 -0.0060339817 -0.1388654
0000c0 96 c9 8f bd f3 c4 3a be 12 b3 73 3d 1f 00 ce 3d
       -0.07020871 -0.18239193 0.059496947 0.10058617
0000d0 c1 31 4c bd a4 ea 9d be 7f 2b 99 bd b0 82 04 3e
       -0.049852137 -0.3084308 -0.07478999 0.12940478
0000e0 f9 99 19 be 44 22 8f bd bc f9 25 3e 92 b1 7a bd
       -0.15000142 -0.069889575 0.16208547 -0.0612045
0000f0 43 62 60 3e d9 0c 31 bc 66 a6 a6 3c a4 b2 3f 3e
       0.21912484 -0.010806286 0.020343017 0.1872049
000100 03 91 b5 bd 6f 71 f7 bd da b5 07 bd ff a8 60 3d
       -0.088655494 -0.120821826 -0.03313241 0.054848667
000110 2d 67 7c 3e d2 bc 82 be 89 6f 89 3c 02 18 29 bd
       0.24648733 -0.25534683 0.016776817 -0.04128266
000120 51 15 22 be 0e e3 bc 3e c0 67 9f 3d 44 92 e3 3d
       -0.15828444 0.3689198 0.077834606 0.11111882
000130 79 dc c1 3d ce db 2b be 4c ba a0 bd 61 33 95 3d
       0.0946588 -0.16783068 -0.07848033 0.072851904
000140 48 74 e7 3d b5 2e 6d 3e 12 4b c6 bd 40 b9 a6 3d
       0.11301476 0.23162349 -0.09682287 0.081408024
000150 8a de 06 be 64 c2 8f be c5 8d a8 3d 36 1a 39 3e
       -0.1317083 -0.28077996 0.082301654 0.18076405
000160 8a 77 a5 bd cb 07 0f 3d 69 ea 06 3e b3 bb dd bd
       -0.08079441 0.03491954 0.13175358 -0.108268164
000170 55 3f d3 bc e1 ee 88 be b7 b0 ff bd 30 1d d8 bd
       -0.025787035 -0.2674475 -0.124848776 -0.10552442
000180 59 b2 6b bc b7 36 15 3d 2f 60 b0 bd c1 af 29 be
       -0.014385783 0.036429133 -0.086120956 -0.16570951
000190 3e 7a 20 be 24 84 68 be 32 13 2d bc f7 f6 8b 3d
       -0.15671632 -0.22706658 -0.010563659 0.06834214
0001a0 1a 6a 86 bc 9b 98 d4 bd 5c 54 d8 3d 91 6f 55 3d
       -0.016408015 -0.1038067 0.10562965 0.05210835
0001b0 f3 51 e3 bd 74 09 65 be 64 bf 86 3a e7 b3 f9 3d
       -0.11099615 -0.22366887 0.0010280428 0.12192517
0001c0 01 dc 30 3e 35 c1 1c 3e b4 cf 86 3d 54 72 05 3e
       0.17271425 0.15308078 0.06582585 0.13031894
0001d0 4e 5c 94 be ac 96 7c 3e 7e 55 cf bd a7 99 85 bc
       -0.28976673 0.24666852 -0.10123728 -0.016308619
0001e0 c5 3b 2b be d1 bc c3 bc f7 19 eb 3d 6a 87 a7 bd
       -0.16722019 -0.023893746 0.11479562 -0.08180125
0001f0 fa 43 26 be 41 f4 17 be fb aa 6d bd 7e c5 16 be
       -0.16236869 -0.14839269 -0.058024388 -0.14723775
000200 07 5c d3 bc 2c f8 8c bd 86 bc 0e 3e 55 6d 1f bd
       -0.025800718 -0.068832725 0.13939103 -0.038922627
000210 be 07 0b 3e 16 3c 13 3d b7 94 79 3e 73 65 88 be
       0.13577172 0.035945974 0.24373136 -0.266399
000220 a8 3b 7a bd b8 ef 03 3e 1b 21 46 3d d1 11 98 3b
       -0.06109205 0.12884414 0.048371416 0.0046407958
000230 eb 85 07 3d ce 4b 3d 3d 8b 0c fa 3c bf b5 82 3d
       0.0330867 0.04621487 0.03052356 0.063823216
000240 3c 4f 81 be 77 dd 60 3e 70 9b c1 bc a5 61 df bc
       -0.25255764 0.21959482 -0.023633689 -0.02726824
000250 fc ce 04 3c 51 82 78 bd 68 28 20 bd 0a 2f 28 be
       0.00810599 -0.060671154 -0.039101034 -0.16424194
000260 46 94 80 3c ab a0 69 3d 56 50 26 bd 21 ac 1b be
       0.015695702 0.05703799 -0.040603958 -0.1520238
000270 00 5a 27 be 20 f5 42 be 95 2a 25 be cf 16 3e 3e
       -0.16342926 -0.1903882 -0.16129525 0.18563388
000280 34 69 97 be cb d4 27 bd c5 81 f8 3d 65 75 fa bd
       -0.2957245 -0.04097442 0.121341266 -0.122294225
000290 d6 69 83 3c 63 03 a6 3d ad ba ea bd 5b 5c c5 bd
       0.016041677 0.08106115 -0.11461387 -0.09636756
0002a0 50 78 16 3e e8 66 54 be ce ae 0f 3e f8 f7 0e 3e
       0.14694333 -0.2074238 0.14031526 0.1396178
0002b0 76 a3 6a 3e b8 9d 88 3e 44 18 14 be 3c 36 28 3e
       0.22913918 0.2668283 -0.14462382 0.16426939
0002c0 bc 7c 4e 3d 87 29 66 be 20 1f 20 3d 24 5e a3 bd
       0.050411925 -0.22476779 0.039092183 -0.0797694
0002d0 f8 f4 39 3d 13 b3 10 3e 7d ab 8f 3d 1a 2c 2b 3d
       0.045399636 0.14130811 0.07015131 0.041790105
0002e0 e7 8a c0 3d 6b 36 6d be b8 b4 80 3d db 35 4c bb
       0.094014935 -0.2316529 0.06284469 -0.003116003
0002f0 49 14 f0 3d a8 74 75 bd bd f8 e2 3d dc 2b 2f 3d
       0.11722619 -0.059925705 0.11082599 0.042766437
000300 14 f4 11 be 75 1d 41 3e dd bf f0 bb 04 eb 12 be
       -0.14253265 0.18858893 -0.0073470906 -0.14347464
000310 9f 2b fa 3d 5f bb 0d 3d d0 a0 92 3c 07 e4 9a 3d
       0.12215351 0.03460252 0.017898947 0.07563024
000320 7d 35 8d 3d 28 0a b0 3e 7a de 0e 3e f6 08 0f 3e
       0.06894968 0.3438275 0.13952056 0.13968262
000330 c6 ee 02 3e ab af 50 bd 41 81 1f be 17 a8 5b be
       0.12786397 -0.05094878 -0.1557665 -0.2145084
000340 10 20 a6 3d b7 a4 6a 3c 68 d5 ca 3d 0b 7e 91 be
       0.08111584 0.014321498 0.09903985 -0.28416476
000350 3c a2 86 be 50 a3 0e be 2f d7 9a bd de bb 6b 3c
       -0.2629565 -0.13929486 -0.07560574 0.014388053
000360 72 45 be bd b9 d2 1d 3d 34 99 2b bc b4 44 cd bd
       -0.092905894 0.03853104 -0.010473538 -0.1002287
000370 96 75 4c be f3 c7 22 be ac ed 49 3c 16 b1 97 3d
       -0.1996673 -0.15896587 0.012324732 0.07406823
000380 2e 52 b2 3d c4 6a e3 3d d2 dc 3b bd eb 8c 11 be
       0.08707081 0.11104348 -0.045864888 -0.14213912
000390 cb 7f 28 3e 24 ff 23 be 05 4c 16 3d 9e 44 17 3e
       0.16454999 -0.16015297 0.03669359 0.14772269
0003a0 38 49 72 bd b9 79 d2 bd 1c 40 11 be 56 b9 83 bd
       -0.059151858 -0.10277123 -0.14184612 -0.064318344
0003b0 5c 91 ac 3e 13 93 b7 bc 1b 59 19 3e bc 8b 33 3d
       0.3370465 -0.022408998 0.14975397 0.043834433
0003c0 5c 2b 06 bd e2 0d 60 be 66 f5 4a bc f3 8a 09 be
       -0.032756194 -0.21880296 -0.012387609 -0.13431911
0003d0 c5 29 fb bd ea c9 77 be f0 4f 05 3e 58 77 33 be
       -0.12263826 -0.24198118 0.13018775 -0.17525995
0003e0 d1 a2 9e bd cb b6 6f 3d 48 f4 46 bd 2d 31 69 3e
       -0.077458985 0.058523934 -0.04857281 0.22772665
0003f0 81 f1 04 3e 7b 6f 9a 3c f4 59 b6 bc e3 c1 ee 3d
       0.12982751 0.018851986 -0.02225969 0.11658075

fc1.bias f4 [256]
000000 55 60 dd 3d 19 c9 8a be c1 36 17 3e a2 b5 0c be
       0.108093895 -0.2710655 0.1476698 -0.13741162
000010 45 3d 14 3e ab 10 42 3e dc 70 c6 3d bf e7 98 bd
       0.14476497 0.18951671 0.09689495 -0.07466077
000020 e4 20 76 bd 40 39 ee 3d db 35 34 be a0 c9 60 3e
       -0.06008996 0.11632013 -0.17598669 0.21951914
000030 46 2f 2b 3c 8d 51 f6 bd 61 eb 23 bd 59 b6 7d 3c
       0.010448283 -0.12027273 -0.040019397 0.01548537
000040 0a 82 e9 3d ba 81 14 be cc 99 d5 bd b4 8d 58 3b
       0.11401756 -0.14502612 -0.10429725 0.0033043446
000050 39 32 d7 3d 72 33 df bd 30 06 05 be 80 85 60 bd
       0.10507626 -0.10898484 -0.12990642 -0.054814816
000060 c6 d1 05 3d 39 3a 07 3e 6f 46 00 3e d3 0d 17 3e
       0.03267076 0.13205804 0.12526868 0.14751367
000070 4a 4b 51 be cf de c5 3d a4 ab 44 be 6d 00 0a be
       -0.20438877 0.09661638 -0.192061 -0.13476725
000080 43 d2 18 be cc 75 81 3e f5 ea 3f 3d 86 30 0e be
       -0.14923958 0.25285184 0.04685493 -0.13885698
000090 ac e9 b8 be 56 01 c1 3d 58 fc 4a 3e e4 ab d7 bd
       -0.36115777 0.09424083 0.19822824 -0.105308324
0000a0 98 8e d5 3d a9 fd 9a 3d 88 03 cd bd 0f f6 b1 3c
       0.10427588 0.07567913 -0.10010439 0.021723775
0000b0 65 1c 28 bd 05 8b 6d bd 57 47 c4 bd 09 32 0f 3e
       -0.041042704 -0.057993907 -0.095839195 0.1398393
0000c0 9c 8c fe 3d b3 a8 30 3e c8 b4 13 bd 7e 52 3e 3e
       0.12429163 0.17251854 -0.03606108 0.18586156
0000d0 cd e7 96 bd 7c 52 19 bd 50 d9 55 3e 48 c7 4b 3d
       -0.07368431 -0.03743218 0.2088368 0.049750596
0000e0 d2 72 a1 bc 25 4f 61 bd 36 c0 50 bc 59 72 97 3c
       -0.01970807 -0.05500712 -0.012741139 0.018487142
0000f0 0d 02 2a be dd 9e 5b 3d f5 47 c0 bd 1e d8 4c be
       -0.16602345 0.0536183 -0.09388725 -0.20004317
000100 b7 ff 40 3d 80 0a 64 be 90 24 3d be 35 0f 49 3d
       0.04711887 -0.2226963 -0.18470979 0.04908677
000110 71 18 b2 bc 78 a8 a8 bd 3b 77 45 be af 68 cc bd
       -0.02174017 -0.08235258 -0.19283764 -0.09980904
000120 7b dd 5a be 66 a0 32 be 75 5b 5f be 3a 44 86 bb
       -0.2137355 -0.17444 -0.21812232 -0.0040974887
000130 c3 23 b4 3d 79 2f 67 be 54 74 4f be 24 62 71 3d
       0.087958835 -0.22576703 -0.2025922 0.058931485
000140 f6 a0 68 be 23 ac 46 3d 98 02 a9 3d 88 23 87 bd
       -0.22717652 0.048504006 0.08252448 -0.06598574
000150 5a 2c e7 bc 62 44 d3 bc fe 2f 54 be cf 24 a7 3b
       -0.02821939 -0.025789443 -0.20721433 0.0051008235
000160 10 ae 42 3d 02 cf 06 3c 59 5d 46 3e fe 42 77 3e
       0.04752928 0.008228065 0.19371547 0.24146649
000170 5c 08 0e bd 4f 49 62 3d 7f 03 89 3e de ba d4 bd
       -0.03467594 0.055245694 0.2676048 -0.103872046
000180 93 dc 4e be ff f8 d0 bc ce 55 f6 bb 0c 1d 60 39
       -0.2020133 -0.025509356 -0.007517553 0.00021373125
000190 18 86 9c 3d 76 15 41 3e d1 b3 8c bd 12 83 0d 3d
       0.07642764 0.18855843 -0.06870235 0.034548827
0001a0 52 a8 47 3d 84 7e 30 3e 27 fc 6e be fd fb 96 3d
       0.048744507 0.17235762 -0.23338376 0.07372282
0001b0 1e e8 e6 3d 2c 87 77 be 24 5a 87 bd 9b 91 8c bd
       0.112747416 -0.24172658 -0.0660899 -0.068637095
0001c0 c0 6f 53 bc a3 85 c3 bd f7 a5 af be a9 b9 4b 3e
       -0.012905061 -0.095469736 -0.3430631 0.19895042
0001d0 b5 fb cf 3d a2 69 2e 3d 78 41 30 be 73 a4 a0 3c
       0.10155431 0.042581208 -0.17212474 0.019609665
0001e0 f5 0e 6e 3d e7 b3 40 3e a8 56 0e be 16 84 2d 3e
       0.058119733 0.18818627 -0.13900244 0.16944918
0001f0 09 5a 52 3d d0 ec 98 38 df f4 aa 3d 61 2e 7e 3c
       0.051355395 7.2920346e-05 0.08347487 0.015513987
000200 cd 0d 0f 3e 64 ff 86 3d 94 2b d5 3d ea 89 48 be
       0.13970108 0.06591681 0.104087025 -0.1958386
000210 34 bc 08 3e 27 82 29 be 1d e4 27 3e db 62 ca 3d
       0.13353044 -0.16553555 0.16395612 0.098821364
000220 9f 02 0e be ac 1c d8 bd 02 56 9b 3c 3c 46 6c bc
       -0.13868187 -0.10552344 0.01896191 -0.014421042
000230 44 7f 74 be 71 26 02 3e f0 08 15 be 7a 76 9a 3d
       -0.23876673 0.12709977 -0.1455419 0.07542129
000240 33 23 f8 3c 5e 85 3b be 21 a1 94 3d 48 d9 eb bd
       0.030290222 -0.18312594 0.072572954 -0.115160525
000250 de 88 98 3d db f5 32 bd cd aa 44 3e 27 68 3e be
       0.0744798 -0.043691497 0.1920578 -0.18594418
000260 e1 03 30 3e 42 0f 98 be 82 76 4e 3e 5c 96 28 be
       0.1718898 -0.2969914 0.20162395 -0.16463608
000270 bf 3f 10 3d a2 d5 e5 bd 91 a9 65 be fc 83 64 3e
       0.035217043 -0.11222388 -0.22427966 0.22315973
000280 b3 92 4b 3d 58 48 27 3e c9 78 91 3d 7d 46 e8 bc
       0.04970045 0.1633619 0.07103116 -0.028353924
000290 6f bf ce bd 00 07 42 be 42 00 b2 bb 5f 15 2d 3e
       -0.10095107 -0.18947983 -0.0054321596 0.16902684
0002a0 8e 8a 8f bd 10 26 4e be 2d 28 66 3d 80 f7 65 3e
       -0.07008849 -0.20131707 0.05619066 0.22457695
0002b0 23 50 b0 3d 1c 9a fd bd a0 73 76 3e df b9 70 3e
       0.08609035 -0.1238291 0.24067545 0.23508404
0002c0 6f a8 8a bc e6 e9 b9 3c 9c c1 f4 bb 7b e0 03 3e
       -0.016926019 0.02269454 -0.007469369 0.12878601
0002d0 52 ff 3b 3e 46 7b 60 3e a4 06 06 3e 2e 7d 42 be
       0.18359116 0.21922025 0.1308847 -0.18993065
0002e0 e6 02 3e 3e d7 0e cb 3a 76 00 86 3e ed 3e 5f 3d
       0.18555793 0.0015492094 0.26172227 0.05450337
0002f0 90 9a 1b be ce c9 0b 3c db be 28 3e 5c bd 85 3d
       -0.1519568 0.008532001 0.16479056 0.06530258
000300 03 af 93 bd 16 69 11 bd 2a d6 f7 3c 78 8b 04 be
       -0.07211115 -0.03550061 0.030253489 -0.12943828
000310 f9 64 91 be 7d ab 40 bd c2 dc 7c be 1b ab 14 be
       -0.2839735 -0.047038544 -0.24693587 -0.14518397
000320 2c 16 20 3e 4e 0a 15 be 83 90 19 3e c8 6e b8 bd
       0.15633458 -0.14554712 0.14996533 -0.09005505
000330 d4 c7 88 be a8 50 84 3d 4e be 53 3d 4d e8 5a 3b
       -0.26714957 0.064606965 0.05169516 0.0033402622
000340 1f f2 48 3e b5 a3 61 3d fb 41 1d be c9 0f 64 3a
       0.19623612 0.055087764 -0.15357201 0.0008699862
000350 f6 a0 55 3d 03 35 0e be 30 4e dd 3c 89 a5 df 3d
       0.052155457 -0.1388741 0.027014822 0.10920245
000360 83 b8 06 be 07 28 44 bb cc 29 8d 3d 49 e5 b0 3c
       -0.13156323 -0.0029931085 0.06892738 0.021593707
000370 af 62 5e 3d e3 77 66 3d cb f5 be bc 43 41 43 3d
       0.05429333 0.056266677 -0.023310563 0.04766966
000380 93 ca d7 bd ef f5 05 bd a3 8c 96 bd 01 67 b9 bd
       -0.10536685 -0.032705244 -0.07351043 -0.090528496
000390 b9 14 3d be 4f 58 87 3e 2b 33 47 bd c6 ac 76 3e
       -0.18464936 0.26434562 -0.048632782 0.24089345
0003a0 a8 4f 0e 3e eb fc 1a 3e 4a 2a ba bc ed 49 74 bc
       0.13897574 0.15135543 -0.022725243 -0.014910203
0003b0 67 49 aa bd ea 6e 76 be b0 5a a3 ba dc ff 32 3e
       -0.08314782 -0.24065748 -0.001246294 0.17480415
0003c0 61 13 03 be 94 ec c4 bd 4b f8 91 be ed a4 af bc
       -0.12800361 -0.09615436 -0.28509745 -0.021440947
0003d0 0f 45 a7 bd 89 e5 96 3e 4d 84 a7 3d 5b 34 5f bd
       -0.08167469 0.29471996 0.08179531 -0.05449329
0003e0 3c 81 97 bc f9 39 31 bd 96 40 a3 bd 7c 95 c5 bd
       -0.018494241 -0.043268178 -0.07971303 -0.096476525
0003f0 9f 5e 24 3d 3d 09 a8 bc f0 06 32 3d 00 20 55 be
       0.0401293 -0.020512218 0.043463647 -0.20812988

bn1.weight f4 [256]
000000 18 60 0d 3f e0 91 6c 3e 62 7c 2e 3f 81 24 54 3f
       0.5522475 0.23102522 0.68158543 0.828682
000010 43 96 1c 3f 41 31 39 3f 35 29 b7 3e 10 32 2f 3f
       0.6116678 0.7234078 0.35773626 0.68435764
000020 93 bb 1f 3f 34 be 15 3f 76 ee 17 3e 8c 5b 40 3f
       0.6239559 0.5849335 0.1483706 0.7513969
000030 9d 05 26 3f d4 97 3b 3f 1d a5 ea 3e 29 35 98 3e
       0.64852315 0.73278546 0.45829096 0.29728058
000040 ba 41 25 3f 98 20 57 3e f5 d6 12 3f 18 0f 0a 3f
       0.64553416 0.21008527 0.5735925 0.5392928
000050 ff 2b df 3e 6b a9 59 3f 49 db 3d 3e df 18 ae 3d
       0.43588254 0.85024136 0.18540682 0.085008375
000060 14 e4 97 3d 08 cc 44 3c 52 db b3 3e 0f e5 b1 3e
       0.07416549 0.0120115355 0.35128266 0.3474507
000070 31 54 9b 3e a1 4c 27 3f 28 a0 b7 3e 8a 85 cc 3e
       0.3033767 0.653513 0.35864377 0.39945632
000080 23 6c 52 3e a6 0c 65 3f 50 32 09 3e ca 1f 17 3f
       0.20549063 0.89472425 0.13398099 0.5903288
000090 d3 53 e6 3e 2f 50 74 3e 93 4e 70 3e 22 95 6c 3f
       0.44985828 0.23858713 0.23467474 0.9241506
0000a0 28 ef c7 3e 2d 5c 40 3f 0c d7 67 3f 83 0e df 3e
       0.3904965 0.7514065 0.9056251 0.4356576
0000b0 08 01 35 3f 07 2b 20 3f cc 2d 52 3f 5d ce 7b 3e
       0.707047 0.62565655 0.8210113 0.2459044
0000c0 73 10 18 3f 00 ce e8 3e e6 70 77 3f 4e c1 3c 3f
       0.594001 0.45469666 0.96656644 0.7373246
0000d0 32 a4 01 3f 4c 59 ad 3e 23 16 cd 3e d8 3f b2 3e
       0.5064117 0.3385719 0.4005595 0.34814334
0000e0 a0 5f 9b 3e de 4b ad 3e 9b 38 27 3f 0b 17 2f 3f
       0.30346394 0.33846945 0.6532075 0.68394536
0000f0 c9 bf 61 3e a9 ce 2f 3d f5 8e 0a 3f c4 28 98 3d
       0.22045816 0.042921696 0.54124385 0.074296504
000100 b1 e9 da 3e 7f 50 eb 3e 72 ff 73 3e ce 83 b9 3e
       0.42756417 0.4595985 0.23827913 0.36233371
000110 88 48 ff 3e 75 2e 4c 3f cd b0 15 3f e8 a1 25 3f
       0.49860024 0.7975839 0.584729 0.64700174
000120 ce c5 4e 3e da 96 2d 3e cc c0 19 3f 3c 73 e0 3d
       0.20192644 0.16952077 0.6005981 0.10959479
000130 46 77 f6 3e a9 d6 92 3e 41 71 2f 3f b0 09 51 3e
       0.48137873 0.28679398 0.68532187 0.20413852
000140 40 d0 37 3d 4b 28 31 3f e4 07 db 3e f7 04 4d 3e
       0.044876337 0.6920211 0.42779458 0.20021425
000150 e6 69 17 3f ff 4d 1b 3f 8b ac 54 3e 5e cb 25 3f
       0.59145963 0.6066589 0.20768945 0.6476344
000160 00 f9 f4 3e 28 47 58 3f 78 3c fa 3d 47 7c 06 3f
       0.47846222 0.84483576 0.12218565 0.5253338
000170 58 5a 21 3f 2d 04 2c 3f 8c ca c5 3e 4b 4f 9e 3e
       0.6302848 0.6719387 0.38631094 0.3091987
000180 ae 9c 3b 3f 54 87 95 3e 5f 01 02 3f 70 03 1e 3f
       0.7328595 0.2920481 0.5078334 0.61723995
000190 b8 2d 84 3e 68 f9 3a 3d e6 61 5d 3f 24 9e 06 3f
       0.2581613 0.04564801 0.86477506 0.52585053
0001a0 07 0d 3e 3f f8 7c 62 3d 5f f4 0f 3f f5 64 33 3e
       0.7423863 0.05529496 0.56232256 0.17518981
0001b0 c8 cc 5a 3f 2f ce d3 bc 81 d7 03 3f 57 25 1b 3f
       0.8546872 -0.025855152 0.5150071 0.6060385
0001c0 56 e4 88 3e b2 00 24 3f e6 89 8a 3e cc d8 1a 3f
       0.26736706 0.6406356 0.27058333 0.60487056
0001d0 00 b7 f6 3e 9d eb 0d 3f d7 47 19 3f a2 df bd 3e
       0.48186493 0.5543764 0.59875244 0.3708468
0001e0 5d 67 b2 3e 5a 31 48 3f 33 6f c3 3e 02 c1 51 3f
       0.34844485 0.78200305 0.38170776 0.8193513
0001f0 f8 e4 5d 3d 88 37 e2 3d 2c 71 ef bc c1 80 6d 3e
       0.05417344 0.11045748 -0.02922877 0.23193647
000200 6d fd 3f 3f 7b f7 d3 3e 1c e4 ce 3e 4b a0 da 3e
       0.7499607 0.4139975 0.4040841 0.4270042
000210 25 64 bb 3e bb ba f7 3e 2b 43 75 3e 83 a8 5a 3e
       0.36599842 0.48384652 0.23951404 0.21353345
000220 51 38 86 3e 1c e1 03 3f ad 4d 21 3f a1 7d 9f 3e
       0.2621484 0.51515365 0.6300915 0.31150535
000230 d4 c7 54 3e f4 f4 d8 3e 73 4a 02 3f e8 64 1d 3f
       0.20779353 0.42374384 0.5089485 0.61482096
000240 5d 97 37 3f 59 96 fa 3e 1e 90 0b 3f 75 1f 43 3e
       0.7171534 0.4894283 0.5451678 0.19054969
000250 1e d4 11 3f df a6 eb 3e f1 93 48 bc 24 01 9f 3e
       0.5696429 0.4602575 -0.012242303 0.31055558
000260 28 be cd 3e 2e 98 d7 3e db 5e c8 3d ce df 4c 3e
       0.4018414 0.4210829 0.09783717 0.2000725
000270 b1 fc e4 3e e3 6c dc 3e 4b 4e d0 3e 80 5f 2e 3f
       0.44724038 0.43051824 0.40684733 0.6811447
000280 27 15 1e 3f 4a 03 30 3f 02 f3 3c 3f a9 b2 92 3e
       0.61751026 0.6875502 0.738083 0.28651932
000290 c7 8d 1e 3f 0f ae 16 3b df be bb 3e 03 4c 51 3f
       0.61935085 0.002299193 0.3666906 0.8175661
0002a0 e0 7e 82 3e 89 66 a3 3e 3a 96 48 3f 3b ec 0f 3f
       0.25487423 0.31914166 0.7835423 0.56219834
0002b0 b2 a0 59 3f ab 14 f4 3e 54 ad ca 3e 4d 23 1f 3f
       0.85010827 0.47672018 0.39585364 0.6216324
0002c0 57 ed 76 3f cc e4 2b 3f 52 19 c9 3e 2c 3f 54 3f
       0.964559 0.6714599 0.3927713 0.8290889
0002d0 f5 9f f6 3d 17 3a 51 3f 9b e6 a3 3e b4 b4 25 3f
       0.12042228 0.81729263 0.32011876 0.64728856
0002e0 9d d0 78 3f 1f 77 15 3f 93 b8 0f 3f d9 48 7f 3e
       0.9719332 0.5838489 0.5614101 0.24930133
0002f0 c0 a7 0f 3f 2c 3c 0d 3e 6e 5f ea 3e b2 90 37 3f
       0.5611534 0.13792485 0.45775932 0.7170516
000300 ee c8 c6 3e da 95 10 3e e0 78 5d 3e fd e6 0a 3f
       0.38825172 0.14119664 0.21628141 0.5425871
000310 71 b6 c1 3e 66 75 de 3e 86 94 45 3f 69 76 82 3e
       0.37834504 0.43448943 0.77179754 0.25480965
000320 ff ae 07 3f c4 21 9d 3e 1b c2 ef 3e 47 1a 0d 3f
       0.530014 0.30689824 0.46827778 0.5511822
000330 a7 d9 77 3e 4b ff da 3e bd f5 71 3f 78 c9 ce 3e
       0.24204122 0.42772898 0.9451559 0.40388083
000340 54 c6 ce 3d 55 19 2e 3e 30 05 1e 3e 3f ee 27 3d
       0.10096422 0.17001851 0.15431666 0.040998694
000350 07 d7 ff 3e 84 fe 1b 3f f7 69 88 3e 72 ca bc 3d
       0.4996874 0.60935235 0.26643345 0.09218301
000360 7f 30 94 3e 4f 0d 52 3f ae 69 29 3f 38 15 0c 3f
       0.2894325 0.8205156 0.6617688 0.5471988
000370 81 a9 7b 3e 31 bc 32 3f 00 50 a3 3e 75 fe ff 3e
       0.2457638 0.6981841 0.31896973 0.49998823
000380 89 5d 48 3e 4f 50 a4 3e 18 bf f2 3e 8a d4 00 3f
       0.19566931 0.3209252 0.47411418 0.5032431
000390 1d 3d 4f 3f 75 48 26 3f c5 48 24 3f 6a a4 40 3f
       0.80952626 0.6495431 0.6417354 0.75250876
0003a0 7c ff 00 3f 71 f5 55 3f ac 9d 2d 3e 96 3e 20 3f
       0.5038984 0.8357764 0.16954678 0.625955
0003b0 af 54 40 3f d9 f8 02 3f 13 94 96 3d 1f 59 5b 3f
       0.75129217 0.5116096 0.07352462 0.85682863
0003c0 38 ab f4 3e 11 60 be 3e 5f 9c 2e 3e 7a c7 4b 3f
       0.4778688 0.37182668 0.17051838 0.7960125
0003d0 ed 9b 41 3f 80 5e 92 3e cb 94 c1 3e d4 a1 93 3e
       0.7562855 0.28587723 0.37808833 0.28834403
0003e0 c9 bf ed 3d 54 a0 40 3e 19 95 22 3e 34 80 09 3f
       0.11608846 0.1881116 0.15877189 0.5371125
0003f0 aa 6b af 3e 12 14 1c 3f 4d 1c 69 3e b9 43 44 3f
       0.3426183 0.60968125 0.22764702 0.76665837

bn1.bias f4 [256]
000000 13 b1 83 bd 37 98 aa bd 78 71 a2 bd cc 17 0b 3e
       -0.064302586 -0.08329814 -0.07931799 0.13583297
000010 14 94 41 3e e7 91 23 3e d3 a9 e7 bd c9 79 7c 3d
       0.18904144 0.15973626 -0.11311688 0.06163958
000020 82 bb 4b bc 7d 8f 48 3e 82 cf 97 3c 59 a0 18 bd
       -0.012434842 0.19585986 0.018531565 -0.037262294
000030 c0 8e af 3d 1c 1b 97 3d 7b 09 3f 3d 49 62 0c bd
       0.08572149 0.073782176 0.0466399 -0.03427342
000040 d4 3f 2f 3e 18 85 28 3c 1c eb e0 3d b4 44 26 3e
       0.17114192 0.010285638 0.109823436 0.16237146
000050 40 0a 04 be 4b b6 c7 3b 76 83 d9 3d f7 bb 93 3e
       -0.12894535 0.006094729 0.10620777 0.28854343
000060 57 27 2f be 7a 12 84 be 82 ca 66 3e 13 53 6a 3d
       -0.1710485 -0.25795346 0.22538188 0.057208132
000070 73 a0 cb bc 82 6a 30 3d 20 e8 32 3e 3a 48 b1 3d
       -0.024856782 0.043070324 0.17471361 0.08656354
000080 d8 16 44 be b9 4c 6b 3d de 10 66 3e 2e 0d 3a be
       -0.19149339 0.057446215 0.22467372 -0.1816909
000090 3f 06 b0 3d f4 f5 6a 3e 43 75 31 3e be 64 01 bd
       0.08594941 0.22945386 0.17329888 -0.031590216
0000a0 a3 54 3e be e0 6b d1 bd 31 9d a2 3b aa c4 e5 3d
       -0.18586974 -0.10225654 0.0049625863 0.11219151
0000b0 52 e1 3b 3e 61 22 8a 3d 83 af 3d 3c c9 b5 e5 bd
       0.18347672 0.067448385 0.01157749 -0.112163134
0000c0 81 7a e5 3c 96 c4 f9 bd 3b 2f b2 3d 81 80 18 3e
       0.028012516 -0.12195699 0.08700415 0.1489277
0000d0 94 49 05 be eb 2a 46 3e 32 d5 ac bc 78 89 52 bd
       -0.13016349 0.1935231 -0.021097753 -0.05140063
0000e0 3c 53 b7 bc 79 5a 6f bd af 5c ac bd 7c 3f aa 3c
       -0.022378556 -0.05843589 -0.084161155 0.020782225
0000f0 ee f3 8d 3d 4a 07 96 3d d1 91 c1 bc 45 84 a1 3e
       0.069312915 0.07325609 -0.023629101 0.31546226
000100 a3 83 ea 3d 3c 55 90 3d 0c 16 35 3e b1 27 1a bd
       0.11450889 0.07047507 0.17684191 -0.03763551
000110 61 ad 11 bd 4d d7 ed bd ed d3 ad 3d a7 64 55 3e
       -0.035565738 -0.11613331 0.08487687 0.20839177
000120 39 2a 3c bc 1a ca 80 bc 2f 66 97 3d 58 a6 4a be
       -0.011484676 -0.01572137 0.07392537 -0.19790018
000130 72 4f c9 3d e8 37 60 be de c2 1e 3c 01 82 2c 3e
       0.09829606 -0.21896327 0.009690015 0.16846468
000140 c8 cf f0 bd d5 f4 78 bb 1e 2d 0d bb 2f 6a 1a 3e
       -0.11758381 -0.0037987728 -0.0021541785 0.15079568
000150 9d 78 9d 3d 66 9a 45 bd 3b 36 87 3d 9b cf 07 3d
       0.07689021 -0.04824295 0.066021405 0.033156972
000160 62 8e 04 3e 38 ff 4a be d7 7d bb bc a2 a0 dc bd
       0.1294494 -0.1982392 -0.022887154 -0.10772826
000170 e6 d8 02 be 3c bf d0 3d e6 fb 6d bd ae 13 65 3d
       -0.12778053 0.10192725 -0.058101557 0.05592697
000180 20 16 fe 3d 25 d4 7e 3e a6 59 3c 3e 7b 70 d2 bd
       0.12406564 0.24885614 0.18393573 -0.1027536
000190 86 d1 ec 3d ab e4 52 be b6 ee 3e 3e ad 16 13 3e
       0.11563401 -0.20595042 0.18645748 0.14364119
0001a0 1c 2a ac bc 08 7b 86 3e 8a 25 83 3e a9 53 4d be
       -0.021016173 0.2626574 0.25614578 -0.20051445
0001b0 f4 b4 04 be c0 aa 85 3e 01 90 10 bd 6a 41 47 3e
       -0.12959653 0.26106834 -0.035293583 0.19458547
0001c0 c9 79 d2 3c 08 68 72 3d 31 96 2a 3e 48 3a 16 be
       0.025692837 0.059181243 0.16658856 -0.1467067
0001d0 d6 29 90 bd 97 09 93 3d af 42 64 3d fc 2b 82 bd
       -0.070392296 0.071795635 0.055727657 -0.063560456
0001e0 76 fb ba 3d 04 81 e4 3d 61 b1 14 be 89 01 c1 3d
       0.091299936 0.1115742 -0.1452079 0.09424121
0001f0 65 78 a7 be e4 37 3b be 55 85 a8 3e 16 a0 68 be
       -0.3270904 -0.1828304 0.32914224 -0.22717318
000200 4a 05 e4 3d 3b e7 f8 bd a7 6d b3 bd 4c 45 e7 bc
       0.11133821 -0.12153479 -0.08761149 -0.028231286
000210 43 8d 1a 3e 66 38 15 3c 50 ba 7d 3d 07 87 c6 bc
       0.1509295 0.009107685 0.06194526 -0.024234308
000220 25 6e 07 be b2 ae a9 3d 6d 07 b3 3d 1c c9 b2 3c
       -0.1322561 0.082852736 0.08741651 0.021824412
000230 fd 7e 2c 3e 10 86 86 3d 93 83 21 3e db 73 61 3d
       0.16845317 0.06568539 0.15772848 0.05504213
000240 d2 b9 9e 3b 7a 07 84 3c 2c b0 7b 3d ed 72 2e 3c
       0.004843929 0.016116846 0.061447307 0.010647518
000250 b2 fa 2b 3d 0f f9 3f 3e 12 0c 71 be 0e 96 e5 bd
       0.04198713 0.18747352 -0.2353976 -0.11210261
000260 53 64 65 3d 8c eb 0c 3e 1f 0d 0f 3e fb cc 8e 3d
       0.05600388 0.13761729 0.13969849 0.06972691
000270 21 22 28 be 68 e6 04 bd cd eb 50 bc c9 ee d6 3b
       -0.16419269 -0.032446295 -0.012751532 0.006559227
000280 46 7e 64 3d 33 43 f6 bd 92 53 b7 3c bc fb 8d bc
       0.055784486 -0.12024536 0.022378717 -0.01733195
000290 eb f0 e8 3c 41 b4 99 3e c9 39 d5 3d e7 b4 56 3b
       0.028435191 0.30020335 0.10411412 0.0032761635
0002a0 f1 40 05 3e 9c 81 31 3e 1c 20 bb b9 5c 67 e7 bd
       0.13013054 0.17334598 -0.00035691343 -0.11299011
0002b0 56 4a 32 3d 13 c5 8c bd 34 24 be bd d3 72 2c 3e
       0.043527924 -0.068735264 -0.09284249 0.16840677
0002c0 ad 5f cd 3d 73 9d 6e 3e 5a 84 33 3d 07 8d 1f 3d
       0.10028014 0.2330225 0.043827392 0.038952854
0002d0 1c a1 48 be 42 ec f3 bb ea cc 38 bc f4 3f c4 bd
       -0.19592708 -0.0074439356 -0.011279324 -0.095825106
0002e0 5c b6 09 3e 73 f3 cc 3c 35 b4 b5 3d 80 57 17 bc
       0.13448471 0.02501843 0.088722624 -0.00923717
0002f0 4c fb 8f 3d 42 fc 1b be 62 14 01 3e 75 f8 d7 3d
       0.07030353 -0.15232947 0.12605432 0.10545436
000300 02 57 f0 3d 72 e6 05 be 30 98 d3 bd 49 34 3a bd
       0.117353454 -0.13076189 -0.10331762 -0.04546002
000310 fa 3c e7 3d b4 53 22 bd 1d b9 ef 3c ac cc 0e be
       0.11290927 -0.039630607 0.029263074 -0.13945264
000320 b1 71 6e 3e 37 31 28 3e 98 84 79 bd ae de 3f be
       0.23285557 0.16425024 -0.060917467 -0.1873729
000330 d4 e4 05 3e aa 39 9e 3c 6d c6 34 3d 60 30 3c 3d
       0.13075572 0.019314606 0.044134546 0.04594457
000340 8f 53 68 3e 3d 59 dc 3c 0e ac 25 be 1f e7 b5 3e
       0.22688125 0.02689802 -0.16178915 0.35527894
000350 de d1 95 3d 8c 19 6f 3d 16 e2 26 3e 61 80 a9 3e
       0.073154196 0.058373973 0.16297182 0.33105758
000360 ac 45 55 3e 56 60 4f 3e 1b f5 16 3e dd b9 e0 bd
       0.20827359 0.20251593 0.14741938 -0.109729506
000370 43 0c 80 3b 6d d2 aa bd 81 72 60 3d 10 64 90 3e
       0.0039077117 -0.08340917 0.0547967 0.28201342
000380 d2 9f 8c bd 09 88 0e 3e 5e 88 8b 3d 0e 8b 90 3d
       -0.06866421 0.13919081 0.06813119 0.070577726
000390 ce db 55 3c 9a 09 a8 bd 09 97 ae 3d a9 69 c9 3c
       0.013052894 -0.08204956 0.085249014 0.024586516
0003a0 63 f4 20 3d 3a bc 1a 3e 65 ef 76 3d bf 02 05 bc
       0.039295565 0.15110865 0.0602869 -0.0081183305
0003b0 e6 af 51 3d 2b c9 bd 3b 43 a7 6e be 0f 85 c7 3d
       0.05119314 0.0057918034 -0.23305993 0.09742176
0003c0 07 57 17 3e d1 04 99 3e 45 8f 88 3e dc bb 19 bd
       0.14779292 0.29886487 0.26671806 -0.037532672
0003d0 89 84 5b bd d5 1f 01 3e db ab 2f 3e e7 b2 ff bd
       -0.053593192 0.12609799 0.17155401 -0.12485295
0003e0 77 d8 12 3d f1 7c fc bd ce 2b 21 bd 7d 30 84 bd
       0.03585097 -0.12328518 -0.039348416 -0.06454561
0003f0 99 1a e7 3d e3 7f d9 3c f0 54 ca 3c 32 5f 2e bc
       0.1128437 0.026550239 0.024698704 -0.0106428135

bn1.running_mean f4 [256]
000000 9c 7d 8b 40 bf e2 b4 3e fb d8 14 40 ec cb 69 3e
       4.359083 0.35329244 2.3257434 0.22831696
000010 eb 9f 62 3f 19 a0 8e 40 84 6b 78 40 b2 82 d0 3f
       0.88525265 4.457043 3.8815622 1.6289885
000020 2c fc b4 3e 96 d9 24 3f c7 41 46 40 40 ef 4d 3f
       0.35348642 0.6439451 3.0977647 0.8044319
000030 1f 97 85 3f 96 11 22 3f 7a a9 04 40 53 c6 a9 3f
       1.0436743 0.63308084 2.072844 1.3263649
000040 e8 16 96 3f 2f d5 a5 3f 5b 48 25 3e 1d 99 f9 3e
       1.172574 1.2955683 0.16140883 0.4874963
000050 18 7d a5 3f 6f 89 20 3f aa eb 65 3f e3 73 51 40
       1.29288 0.6270971 0.8981272 3.2726982
000060 05 d8 0e 3f c7 f4 42 40 e0 8f 4b 3d 37 9e 4d 40
       0.5579837 3.04619 0.049697757 3.2127817
000070 e3 4e 91 3f b7 b2 e8 3f 78 20 ef 3e e5 ad 13 3f
       1.1352199 1.817954 0.4670446 0.57687217
000080 8a 00 a8 3e d2 38 83 3e 7d 00 b1 3f 6c 8b 48 3f
       0.3281291 0.25629288 1.3828274 0.7833774
000090 30 b0 8c 3f a6 52 7e 3f 1d c7 f7 3f 0c 94 b3 3e
       1.0991268 0.9934486 1.935764 0.35073888
0000a0 a4 05 5e 3f 0a ed 40 3f 1b 38 4f 40 17 95 69 3f
       0.86727357 0.7536169 3.2377994 0.9124312
0000b0 46 90 1c 3f 10 65 1e 3f 6a 7f 1e 40 ce 38 cd 3f
       0.61157644 0.6187296 2.4765267 1.603296
0000c0 cc eb af 3f d5 04 7b 40 8c 72 da 3e aa a8 07 40
       1.3743834 3.92217 0.42665517 2.1196694
0000d0 31 8f 39 40 52 46 bc 3e e0 fc 12 40 fd 1f 77 40
       2.8993647 0.367724 2.2966843 3.8613274
0000e0 d2 a7 8b 3e b1 21 e1 3f 4a 32 1c 40 19 f1 78 40
       0.27276474 1.7588407 2.4405694 3.8897154
0000f0 b5 ca 0d 40 78 99 35 40 38 b0 55 40 28 c1 02 40
       2.2154973 2.837492 3.3388805 2.0430393
000100 8e d1 96 3f 01 15 7a 3f 4a 45 3c 3f bb a5 b8 3f
       1.1782701 0.976883 0.73543227 1.4425577
000110 9e 7a e7 3f 7a 9d af 3f 25 42 f4 3f 5d 66 e9 3f
       1.8084295 1.3719933 1.9082686 1.8234364
000120 74 b9 ce 3f 22 df ba 3f 12 9f a8 3d 6c b1 27 3f
       1.6150346 1.4599345 0.08233465 0.655051
000130 d8 6d 36 40 41 ff e6 3e 6c 45 4b 3e ae 65 ac 3f
       2.8504543 0.45116618 0.19850701 1.346853
000140 50 4d eb 3c 7a 29 43 3f ed fe 45 3f c6 22 98 3f
       0.028723389 0.76235163 0.7734211 1.1885612
000150 d2 cf 23 40 33 cf dc 3f 3d 94 c3 3e 2f e6 60 3e
       2.5595593 1.7250732 0.38199034 0.21962808
000160 de eb 07 40 90 67 ee 3e 76 77 1d 40 e1 87 a5 40
       2.1237712 0.46563387 2.4604163 5.172837
000170 1d bc 59 40 df e0 32 3f da 68 19 40 b7 4b d3 3e
       3.4021065 0.69874376 2.3970246 0.41268703
000180 6b b3 95 3f 15 d5 44 40 00 db 14 40 00 74 03 40
       1.1695379 3.0755055 2.3258667 2.053955
000190 09 d1 63 40 cb e3 fe 3f f7 a8 79 40 06 a6 e1 3f
       3.5596335 1.9913267 3.9009378 1.7628791
0001a0 48 7f 15 40 dd ab 42 40 93 b1 eb 3d 78 98 05 40
       2.3358936 3.0417397 0.11508479 2.087431
0001b0 c7 6f e1 3f f9 c6 b3 3d 0a 7a 17 40 d7 14 be 3f
       1.7612237 0.087781854 2.3668237 1.485011
0001c0 f2 c2 a9 3f f1 7d 55 40 91 38 4e 3e 89 d7 b3 40
       1.3262618 3.3358119 0.20138766 5.6200604
0001d0 d4 1c 48 3f 26 af f8 3f 8a f1 ab 3e c8 ef 73 3f
       0.7816899 1.9428451 0.33582717 0.9528775
0001e0 07 bf 62 40 04 be f0 3f 98 b3 f0 3e 7f 23 56 3f
       3.5429094 1.8807988 0.4701202 0.8364791
0001f0 3d 4e 85 3f 07 f6 85 3e 69 94 86 40 96 ff 85 40
       1.0414501 0.26164266 4.2056165 4.1874495
000200 39 85 69 40 92 1b c7 40 00 a3 ac 3f ec 23 81 3e
       3.6487563 6.2221155 1.3487244 0.2522272
000210 37 0f 92 3f 97 73 4a 3f 8c c6 e3 3f 4a 8f 69 3f
       1.1410893 0.79082626 1.7794967 0.91234267
000220 16 ba 59 3c 57 3f 0e 3f b3 66 b7 3f c3 f3 7a 3f
       0.013288995 0.555654 1.4328216 0.980282
000230 4c d9 af 3f b5 ae 1b 40 81 4f 82 40 24 30 69 3e
       1.3738189 2.4325383 4.072205 0.2277227
000240 03 cd 97 40 72 25 51 3f f8 e8 93 40 27 90 c1 3e
       4.743776 0.8169776 4.6221886 0.37805292
000250 0b 90 d6 3f cd 2c 7f 3d 19 3c 78 40 e5 9c 99 3c
       1.6762708 0.062298585 3.878668 0.018751571
000260 6d 64 c3 3e 77 79 29 3f 76 5b e0 3f 86 75 1b 3f
       0.38162556 0.66200966 1.7527912 0.607262
000270 0d f7 0d 3f 5e 70 b1 3f af 8b a1 3e 70 14 2e 40
       0.55455095 1.3862417 0.31551883 2.7199974
000280 c2 51 50 40 d2 6c d8 3f e3 27 05 3f 57 43 74 3f
       3.25499 1.6908209 0.5201399 0.9541525
000290 12 0f 47 3d be e2 44 40 36 9e 79 3f cc d7 a6 40
       0.048598357 3.0763392 0.97507036 5.2138424
0002a0 36 6d 7a 3d 68 b2 06 3f ac ab 6a 40 de e6 9f 40
       0.061139308 0.52615976 3.666728 4.996932
0002b0 9d 21 60 3f 49 bc 77 40 24 1c a6 40 c7 1a 1f 40
       0.8755129 3.870867 5.190935 2.4860094
0002c0 c3 06 88 3e ad 69 4d 40 5c 2f 23 40 2d 6e 0d 40
       0.2656766 3.209575 2.5497656 2.2098496
0002d0 fb 8e aa 3f bf 11 9f 40 7d ef 37 3f 23 30 95 3f
       1.3324884 4.9709163 0.71849805 1.1655315
0002e0 ea 88 15 40 fb b4 46 3e 1c 38 00 40 97 a6 41 40
       2.3364816 0.19404976 2.0034246 3.0257928
0002f0 68 71 d8 3e 50 4b a0 3e 83 12 6e 40 c3 c0 c2 3f
       0.42274022 0.3130746 3.7198799 1.5215076
000300 96 64 83 40 5e f5 94 40 74 cd 45 3e 63 84 af 3f
       4.1060286 4.654952 0.19316655 1.3712276
000310 ae b8 26 3f e4 e4 08 40 6b 9a ac 3f 9d fa 82 40
       0.6512555 2.1389704 1.3484625 4.0930924
000320 2c b4 dd 3f 3c ee 8c 3e e4 73 66 40 43 9f 5f 40
       1.7320609 0.27525508 3.6008234 3.4940956
000330 92 91 ad 3f dd d9 ee 3e 00 52 8f 3e 31 8c ba 3e
       1.356005 0.46650591 0.2799225 0.36435083
000340 9c c3 2b 40 d2 81 45 40 85 46 32 3e 8a fd 6a 3f
       2.683814 3.0860486 0.17409714 0.9179312
000350 0b 2b 25 40 0c 76 0d 40 5b 05 84 3f 1d f8 da 3f
       2.5807521 2.21033 1.0314134 1.7106968
000360 ba 85 7a 3f 8b a9 0e 40 31 98 9a 3f 91 69 45 3f
       0.978603 2.229098 1.2077695 0.77114207
000370 04 0f 88 3f 48 56 71 40 dc e9 69 3e 7f ed 30 40
       1.0629582 3.7708912 0.22843117 2.7644956
000380 98 a7 bc 3f c7 60 59 40 ea f5 57 3f 8f 9b ef 3f
       1.4738646 3.3965318 0.8435961 1.8719348
000390 f5 12 5a 3f 38 2b d7 3d 2e 7e be 3f 77 2f 9a 40
       0.85185176 0.1050629 1.4882257 4.818294
0003a0 43 55 95 40 08 a2 61 3f 9b 50 bb 3e d2 56 b4 3e
       4.666658 0.88137865 0.36584935 0.3522249
0003b0 6e 46 fe 3f 60 0f 0c 3f 97 8d f3 3e 05 27 36 3f
       1.9865243 0.5471096 0.47568962 0.7115329
0003c0 ca d0 03 3f fc 7e b1 3d 6c dd f9 3e 3b b2 bc 3f
       0.5149046 0.086667985 0.48801744 1.4741892
0003d0 ec 62 7c 3f 57 6f e6 3f 78 74 9c 3f a2 c6 89 3e
       0.9858844 1.8002728 1.2223043 0.26909357
0003e0 51 cc 9e 3f e1 2a 86 3f 93 a4 ef 3d b4 26 d9 3f
       1.2406102 1.0481836 0.11701312 1.6964936
0003f0 03 ae 44 40 92 9a 2a 40 fc 35 46 3f 39 0b 26 40
       3.0731208 2.6656842 0.77426124 2.594435

bn1.running_var f4 [256]
000000 c8 b5 39 41 b6 5d ec 3e c9 20 cf 40 63 f7 ac 3e
       11.60688 0.46165246 6.472752 0.3378249
000010 01 1d 1b 40 db fa bc 41 69 dd 19 41 ce 59 02 41
       2.4236453 23.622488 9.616555 8.146925
000020 d7 62 00 3f c5 17 83 3f 9c a0 95 40 ea ea fe 3f
       0.5015082 1.0241629 4.6758556 1.991544
000030 ad fb bf 40 90 e4 00 3f 99 2a 1a 41 7f c5 8b 40
       5.999472 0.5034876 9.6354 4.3678584
000040 e7 b0 f8 3f ba ef a1 40 a2 0e bc 3e 4d 2a b5 3f
       1.9428986 5.0605135 0.36729914 1.4153534
000050 35 94 1c 40 94 31 90 3f c9 bb eb 3f 2c a5 24 41
       2.4465458 1.126513 1.8416682 10.290325
000060 a5 8b eb 3f 25 18 56 41 a5 6c 97 3d c2 62 0f 41
       1.8401991 13.380895 0.07393769 8.961611
000070 0c fa 0e 40 e8 26 59 41 18 07 79 3f 4f 7d be 3f
       2.2340117 13.571999 0.9727645 1.4881991
000080 47 6c a8 3f 52 a3 ad 3e de e6 08 41 73 3b 8c 3f
       1.3158044 0.33913666 8.556364 1.0955642
000090 fd 12 9b 3f d9 a9 80 40 ac 78 4a 41 0c 9e d5 3e
       1.211517 4.0207334 12.654461 0.41722143
0000a0 17 94 42 40 b1 06 87 3e 34 03 16 40 e7 26 51 40
       3.0402887 0.26372293 2.3439455 3.2679994
0000b0 7a f1 57 3f 97 9e 2a 40 f5 9e 8c 40 12 5c eb 40
       0.8435284 2.6659296 4.394404 7.354989
0000c0 11 9b c3 40 3f 49 ac 41 71 4e c2 3e c1 ae 84 41
       6.112679 21.535765 0.3795047 16.58533
0000d0 f8 c3 de 40 6c 58 63 3f ff e9 82 40 9a 3d 29 42
       6.961422 0.88806796 4.091064 42.310158
0000e0 48 a7 2e 3f da 6a 19 41 55 35 38 41 85 17 8c 41
       0.68224 9.588587 11.5130205 17.511484
0000f0 c2 ee 4e 41 c1 11 26 41 53 bd 6d 41 f5 5b 88 41
       12.9332905 10.379334 14.858722 17.0449
000100 8b 1e e6 3f aa 67 26 40 55 28 ef 3f 84 b7 22 41
       1.7978071 2.6000772 1.8684183 10.169804
000110 f5 57 f4 40 25 07 84 40 3b e6 ad 40 ab 1c 9e 40
       7.635737 4.125872 5.4343543 4.9409995
000120 51 d5 ea 3f 72 ae ee 40 23 67 b5 3d 7d 88 43 40
       1.8346349 7.4587946 0.088575624 3.0552056
000130 aa 31 22 41 8a b8 e4 3f 7f d2 b4 3e c6 c3 35 40
       10.137125 1.7868817 0.35316846 2.840074
000140 cc 5b 18 3d 38 2a 8c 3f ae bb 0d 40 68 87 dd 40
       0.03719692 1.0950384 2.21458 6.922779
000150 08 15 6d 41 c8 b5 04 41 f8 ea 1f 3f b0 cf 1c 3e
       14.817635 8.29438 0.6246791 0.15313601
000160 68 f2 70 41 1e da 14 3e b4 7f 93 41 eb bf bd 41
       15.059181 0.1453633 18.437355 23.71871
000170 7c 85 b1 41 87 33 bb 3f a6 c0 10 41 b4 28 ad 3f
       22.190178 1.46251 9.047033 1.3528047
000180 bb 3e c2 40 a4 1e 29 41 03 1a 56 41 37 a3 9d 41
       6.0701575 10.569981 13.3813505 19.704695
000190 20 d2 95 41 cf d9 17 41 cf d3 c6 40 d2 fe 1e 41
       18.7276 9.490676 6.2133555 9.937212
0001a0 52 a3 8e 41 37 06 02 41 5e 7c 32 3e a1 7c 93 40
       17.829746 8.126517 0.17430255 4.6089635
0001b0 ed 47 38 41 ba 11 86 3e c3 63 61 41 e9 f7 86 40
       11.51756 0.261854 14.086856 4.2177625
0001c0 f0 1e 3e 40 eb 7c 0a 41 61 86 11 3f 8f 11 92 41
       2.9706383 8.655498 0.5684567 18.258574
0001d0 24 d6 79 3f b2 fc 9e 40 02 65 24 3f 03 26 2e 40
       0.9759238 4.9683466 0.64216626 2.72107
0001e0 9a 24 65 41 9c e5 12 41 b4 f2 d6 3d e2 bc 66 3f
       14.321436 9.181057 0.10495511 0.9013196
0001f0 e3 84 71 40 31 0b 29 3f 10 58 68 41 96 22 15 41
       3.7737358 0.660327 14.5215 9.320944
000200 74 53 15 41 b3 d0 5e 41 6a 49 85 40 05 2d 51 3f
       9.332874 13.925952 4.1652117 0.8170932
000210 e7 7d 63 40 e2 a2 d1 3f 16 d3 72 41 85 9c 5d 40
       3.5545595 1.6377833 15.176535 3.4626782
000220 43 dd 40 3c 64 58 b3 3f 12 27 f1 40 91 c4 88 3f
       0.011771503 1.401135 7.5360193 1.0684987
000230 85 31 8a 40 bd b5 ef 40 f9 4f 33 42 83 03 85 3e
       4.318545 7.490935 44.8281 0.25979242
000240 fc 07 82 41 cd af 09 40 72 3c 37 41 cc 49 b6 3f
       16.253899 2.151355 11.452257 1.4241271
000250 e8 70 3e 3f 02 3e 2b 3e cf 0a 93 41 47 dc 76 3c
       0.7439103 0.16722873 18.380278 0.015067167
000260 25 07 75 3f ef 6e 97 3f a6 0b a8 40 97 5e dd 3f
       0.95714027 1.1830729 5.251422 1.7294492
000270 73 de 75 3e d0 09 c4 40 7c 30 83 3f e6 29 55 41
       0.24010639 6.126198 1.0249171 13.322729
000280 c4 22 30 41 27 ce 9d 40 83 9d 48 3f 08 f8 49 40
       11.008488 4.931415 0.78365344 3.1557636
000290 4b 09 a3 3d 76 d7 6d 41 92 00 0f 40 3d 8d 51 42
       0.07960757 14.865103 2.2344098 52.387928
0002a0 d6 b6 cd 3d 63 67 8f 3f 36 af 83 41 50 a1 c1 41
       0.10044639 1.1203426 16.460552 24.203766
0002b0 79 35 b7 3f f5 d3 80 41 93 c7 6a 40 29 92 2c 41
       1.4313194 16.103495 3.668431 10.785684
0002c0 9e 33 a9 3e 8c 87 08 41 31 76 6d 41 ee d8 93 40
       0.33047193 8.5330925 14.841355 4.6202307
0002d0 1d 10 58 40 ca c0 5b 40 a8 e4 a4 3f 8f 68 ce 40
       3.3759835 3.433642 1.288228 6.4502635
0002e0 d7 88 c5 40 5e 3d c8 3e 0d bc bb 40 63 f4 b8 40
       6.172954 0.3910932 5.8667054 5.7798324
0002f0 1e 0d 2a 3f 50 19 82 3f 8b 55 80 41 6c 03 16 40
       0.66426265 1.0163975 16.041769 2.3439589
000300 70 bf aa 41 df 4e 8b 41 ce 0a f3 3e 91 6f f0 40
       21.343475 17.413511 0.4746918 7.513619
000310 05 6e a0 3f ba ec 3b 41 80 54 87 3f 02 86 d6 40
       1.2533575 11.745295 1.0572662 6.7038584
000320 4d 36 a5 40 0f 50 4f 3f 02 fd c5 40 d9 71 fb 40
       5.1628785 0.80981535 6.1871347 7.8576474
000330 81 f5 85 40 9f 3f 3e 3f 06 09 05 3e 7b c4 09 3f
       4.1862187 0.7431583 0.12991723 0.5381543
000340 b7 32 aa 40 69 2c 3f 41 44 2c d6 3e 68 53 49 40
       5.318691 11.948342 0.41830647 3.1457157
000350 34 a5 c0 40 da f0 cf 40 49 a6 18 40 04 9c 9f 40
       6.0201664 6.498151 2.3851492 4.987795
000360 70 b7 44 40 77 71 eb 40 7d 39 dc 3f 18 d7 09 40
       3.0736961 7.3576007 1.7205044 2.1537533
000370 a2 a4 f2 3f 93 ee 5d 41 1c e7 b1 3e e2 9c 3f 41
       1.8956492 13.870746 0.34746635 11.975801
000380 6a 7b e3 40 66 77 83 41 e6 29 f9 3f da e0 01 41
       7.108815 16.4333 1.9465911 8.117395
000390 c7 20 84 3f f8 f8 5e 3e 74 fd bd 40 35 54 98 41
       1.0322503 0.21774662 5.937189 19.041117
0003a0 67 df d7 41 b7 7d 66 40 50 74 79 3f 28 45 0f 3f
       26.984083 3.601423 0.97443104 0.559649
0003b0 6f 39 c3 40 d4 69 d8 3f ee c4 a3 3f 95 f4 ca 3f
       6.100761 1.6907296 1.2794473 1.585589
0003c0 eb ad 49 3f 27 fa e9 3d e7 7b 93 3f 7c ec 43 41
       0.78781 0.11424666 1.1522187 12.245235
0003d0 b5 3d 39 40 5e ee 95 40 78 54 ab 40 7a 58 04 3f
       2.8943913 4.6853476 5.354061 0.51697505
0003e0 c9 aa a9 40 67 b2 74 40 f3 be 6a 3e d4 ee 17 41
       5.302098 3.8233888 0.22924404 9.495808
0003f0 fb 5b 85 41 bf 45 7a 40 60 b6 c3 3f bc e0 f9 3f
       16.669912 3.910507 1.5290031 1.9521708

fc2.weight f4 [128, 256]
000000 d6 20 07 3d f9 25 c1 3d 0e 67 12 bd 17 c0 ad bd
       0.0329903 0.09431071 -0.03574281 -0.08483904
000010 c8 88 0f bd aa eb ef 3c 54 33 d5 3d af cb 50 3d
       -0.035042554 0.029287178 0.10410181 0.050975498
000020 26 69 be ba dc 65 d9 bd 4b f5 66 3c 04 f7 06 bb
       -0.0014527186 -0.10615131 0.014096568 -0.002059401
000030 9f 07 46 bd 44 85 3e 3d ec 9a bb 3c 4e ae f6 3b
       -0.04834711 0.04651381 0.022901021 0.007528103
000040 61 8c b7 bc c1 58 97 bb 16 3c f9 3d 2f 66 09 bd
       -0.022405805 -0.0046187346 0.121696636 -0.033544715
000050 78 3e 2e bd 88 60 10 3d a6 66 84 bb 5a 07 4e bd
       -0.042540044 0.03524831 -0.004040557 -0.05029998
000060 b6 dc 95 3d 43 d0 7b 3d ec 82 c1 bd cd 4d 82 bd
       0.07317488 0.06147791 -0.094487995 -0.063624956
000070 24 ac 5a 3b 18 78 b1 3b 12 cb 92 bd 10 a2 28 bd
       0.0033366764 0.0054159276 -0.07167639 -0.04117018
000080 bd 0f 42 3d f8 77 85 3d 88 9b d5 bd 69 c4 0e 3d
       0.04737829 0.06517023 -0.10430056 0.03485528
000090 56 78 d7 3d 67 ac 11 be b9 ed d2 bc 36 25 24 3d
       0.10520999 -0.14225923 -0.02574812 0.04007455
0000a0 af 45 b0 3a 41 c0 8a 3d 56 e0 82 3c fa 3d ab 3c
       0.0013448502 0.06774951 0.015976112 0.020903576
0000b0 d1 38 f4 bc 31 d4 01 bc 8c 83 ec 3b c6 22 b2 bc
       -0.029812248 -0.0079241255 0.00721783 -0.021745097
0000c0 44 fc 1b 3d 66 5c 6e bc a3 c5 f3 bc 68 99 0f 3d
       0.038082376 -0.014548397 -0.029757326 0.03505841
0000d0 73 26 cf bb 6e 0e 54 bd 34 bf f7 3c e1 e7 37 3c
       -0.006321722 -0.051771574 0.03024254 0.011224718
0000e0 84 b9 32 bd 42 a6 32 bc ad 40 50 3c 33 74 b9 3c
       -0.043633953 -0.010903897 0.012710732 0.022638416
0000f0 fc 3c 5e bd 69 43 96 3c 91 7b d5 3c fe 1f c8 bd
       -0.054257378 0.01834269 0.026059898 -0.09771727
000100 bb da 4d 3c f1 15 98 bb f1 fe da bc 10 db ea bc
       0.012564356 -0.0046412875 -0.026732894 -0.02866891
000110 1d bd 08 3d 02 44 c1 bb 45 19 76 bd 55 19 cc 3c
       0.033383477 -0.0058979997 -0.060082693 0.024914423
000120 6d 5f 37 b9 1f ee f8 bc 0f db 31 bd 67 83 d8 3c
       -0.00017487789 -0.030386982 -0.0434218 0.026429845
000130 c8 2e 61 bc 05 2a 1d 3d dd 45 5f bc d3 8d 0f be
       -0.013744064 0.03837015 -0.013627497 -0.14018945
000140 47 c2 ae 3d f1 36 bf 3c 4d 75 a9 ba b7 e0 44 be
       0.08533149 0.023341628 -0.0012928635 -0.19226347
000150 56 2a 42 3d e0 eb 80 3d 48 a6 60 bd c1 81 eb 3c
       0.047403656 0.062949896 -0.05484608 0.028748395
000160 2f 43 af bd 0d 47 f4 bd a2 a9 72 3c da 73 62 3d
       -0.08557736 -0.11927614 0.014810951 0.055286266
000170 4c 07 39 3d ae 09 7d bc ac fd fa bc ad d6 13 bd
       0.045172974 -0.015444202 -0.030638538 -0.036093403
000180 30 c0 27 bc aa 27 b7 bd f8 2a cb 3c 23 03 63 3d
       -0.010238692 -0.08943112 0.024800763 0.055422913
000190 de e6 91 bd 6c bb 16 3e d9 d2 77 bc 36 99 c9 3c
       -0.071241125 0.14719933 -0.015125954 0.02460919
0001a0 0c 57 f7 bc 69 5d 6b bd 05 9e d2 bc 9c d4 c9 3d
       -0.030192874 -0.05746213 -0.025710115 0.09855005
0001b0 86 29 8e ba bb 1b 74 bd a7 67 ce 3b c9 b9 a0 bc
       -0.0010846115 -0.05959676 0.0062989774 -0.01961984
0001c0 a7 37 92 bc e6 55 11 bd c7 7f 20 be 36 33 73 3c
       -0.017848803 -0.03548231 -0.15673743 0.014843753
0001d0 5f d9 d1 bd e2 df 8b b9 a0 71 81 3d 57 83 33 bc
       -0.10246538 -0.00026678952 0.063205004 -0.010956607
0001e0 64 59 cd bd 52 0e 37 bd e4 fe 88 3c 79 58 5d 3c
       -0.100268155 -0.04469139 0.016723104 0.013509863
0001f0 05 c8 be 3d 89 46 b1 3c 11 6e ec bd 01 02 fb 3d
       0.093154944 0.02164008 -0.11544431 0.122562416
000200 b9 e4 d7 bc 07 74 82 3d f3 0e 67 3c 01 66 d5 3b
       -0.02635418 0.06369787 0.014102685 0.006512404
000210 1c 40 7e 3d ae 82 f8 ba 1c ee 10 bd 10 fc 73 3d
       0.06207286 -0.0018959844 -0.03538333 0.059566557
000220 59 18 53 3b 35 cb e3 bc f2 93 16 bd cb ed 1a bd
       0.0032210557 -0.027806858 -0.036762185 -0.037824433
000230 26 13 1e bd db 1f 25 3d bf 76 48 bd 03 04 83 bd
       -0.03859248 0.040313583 -0.04894137 -0.063972495
000240 16 98 92 3d 37 fa 80 3d c0 39 8a bb a8 0f b4 bd
       0.07157914 0.06297725 -0.00421831 -0.08792049
000250 cf 36 ab 3d 0a 8b ac bd 28 d6 3a 3e 20 7a 59 bb
       0.08360063 -0.08424957 0.18245757 -0.0033184364
000260 93 5d 2d 3c 28 ad 22 bd fe 8a b2 bd c9 96 82 bd
       0.010581392 -0.039715916 -0.08717917 -0.06376416
000270 b4 d5 2e 3d 0d 12 6b 3d da 7e 53 3c 50 3a 96 bc
       0.042684272 0.05739026 0.012908662 -0.018338352
000280 59 80 4b bc 43 7f 15 3d 7a 12 14 3d ab f9 33 bd
       -0.012420737 0.03649832 0.036150433 -0.043939274
000290 47 63 7a 3d f8 68 4e bd f4 74 9f 3d 25 93 ff bc
       0.061129835 -0.050393075 0.07785979 -0.031198094
0002a0 db 39 b3 3c 66 12 06 3d eb eb 55 bc 89 f6 1e 3d
       0.021878174 0.03273239 -0.0130567355 0.038809333
0002b0 a3 df 3d bd 6c d4 0b 3d ee 29 9c 3a bf f0 e3 bc
       -0.046355855 0.03413813 0.0011914351 -0.027824758
0002c0 ec 69 76 bd 02 4f 14 3d 47 8f 76 3b 4c f4 d5 3a
       -0.06015961 0.03620816 0.003762202 0.0016323416
0002d0 c7 b9 a0 3b 35 b6 ee 3a b8 03 38 bd b9 3e 06 3d
       0.004904959 0.0018212261 -0.04492542 0.03277466
0002e0 81 03 55 3b 3d 33 b3 3c 25 da 12 bd c7 8a 9f 3d
       0.003250331 0.021875018 -0.03585257 0.077901416
0002f0 5e 61 8d ba 87 db 90 3d 51 10 27 bd 7e 18 36 bd
       -0.0010786464 0.070731215 -0.040787045 -0.04445695
000300 07 45 a3 bd 98 9d 35 3d cf 7d f4 3d 44 ba 0c 3d
       -0.0797215 0.044339746 0.119380586 0.034357324
000310 31 d6 49 bb 0f 45 80 3b 4c 54 ea 3c 7f e2 ea 3d
       -0.0030797834 0.0039144824 0.028604649 0.11468982
000320 7b 35 2d bc a2 57 1c be 69 52 59 3d 39 02 d0 3c
       -0.010571833 -0.15267804 0.053057108 0.025391685
000330 62 e9 01 bd 0d 83 11 bd c3 2a bd bc 84 de ce 3c
       -0.03171671 -0.03552537 -0.02309168 0.025252588
000340 18 9f 88 bd 72 12 ba 3c 53 29 01 3e 31 09 f0 bd
       -0.0667097 0.022713874 0.1261342 -0.11720503
000350 75 2a 26 bd eb 16 bc 3c 8f 08 61 bd c9 1f b3 bd
       -0.040567834 0.022960147 -0.054939803 -0.08746297
000360 cf fc 26 be 40 fd 9b bc 39 18 80 bb 5f 4e ac 3c
       -0.16307376 -0.019041657 -0.0039091376 0.021033464
000370 21 01 e4 bd 44 65 8c 3c 62 4c 81 3d 2a 3d 56 bd
       -0.11133028 0.017138131 0.06313397 -0.052304424
000380 91 d8 55 3d 45 d2 86 bb f1 ab c8 bb 25 be 32 3c
       0.052208487 -0.0041144216 -0.0061240126 0.010909592
000390 b9 c5 4d 3c a4 43 68 bd 51 9c a3 bc a2 59 2a 3c
       0.012559348 -0.056705132 -0.019971998 0.010397347
0003a0 1b 81 26 3d 04 d3 e5 3c b2 cf e4 bc ee ae ea bb
       0.04065047 0.028054722 -0.027931068 -0.0071619665
0003b0 b8 44 93 3d 04 45 13 bd 99 27 e4 3d 04 76 3f bd
       0.071908414 -0.03595449 0.11140365 -0.046743408
0003c0 59 75 21 3c e0 c7 95 be fc 85 26 be 54 9b 1f 3a
       0.009854638 -0.29254055 -0.16262048 0.00060885143
0003d0 32 81 99 3c 2b 3c 68 bd dd 27 e7 bd 16 8a c8 3c
       0.018738363 -0.056698006 -0.112869 0.024479907
0003e0 78 17 6d 3d e6 e3 6e 3c 50 c6 04 3d cd ad 3b 3b
       0.05788371 0.014580702 0.032415688 0.002863753
0003f0 16 f5 a4 3b e3 cb 97 3d ac 30 32 bd 14 9a 2c 3d
       0.0050340993 0.07411935 -0.04350345 0.042139128
