results/checkpoint_critic.pth (torch_old, 164254 bytes, 9 tensors)

fc1.weight f4 [256, 24]
-0.16750711 -0.831911 0.045739703 0.14062926 0.2754094 -0.31937099 -0.049684342 -0.029268468
-0.14489856 -1.0901941 -0.16448359 0.18493311 -0.32486826 -0.32657444 0.10867731 -0.07277823
-0.07570578 -1.1160247 -0.15652077 0.46747643 -0.56545264 -1.3246031 0.083580524 0.36080793
0.09555728 0.17462212 -0.04695929 0.21286093 0.40951076 -0.64757663 0.09568205 0.549123
0.294933 0.43838927 0.4067197 -0.50491935 0.33031636 -0.22599989 0.37182903 -0.4400564
0.14905916 0.30367553 -0.1419908 0.04923343 0.49270606 0.48061222 0.02998854 0.047003005
-0.17256263 0.71505815 0.015095124 -0.48750538 0.30742905 0.03608914 -0.12251791 -0.62179023
0.6188887 0.6295244 0.1147498 -0.005290002 0.25460112 0.28584433 0.22250928 -0.14703372
1.4426652 0.4249514 -0.057150465 -0.10630091 0.596829 0.2695887 -0.024829697 -0.05639174
0.25364563 -0.09761467 0.25412017 -0.44717807 0.43350747 -0.43178278 -0.15075 -0.60349256
0.41539904 0.05790786 0.15114018 -0.5583341 0.37523082 -0.9108451 -0.10114389 -0.37920496
0.41987956 0.06464311 -0.356377 0.33001137 -0.10969191 -0.50924814 -0.25926742 0.07341094
-0.08150285 -0.07266898 0.1325264 -0.22668003 -0.41864082 0.18876831 -0.07391347 -0.15112352
0.04263116 -0.005823322 -0.55077684 0.3172741 -0.14696936 0.21193965 -0.626521 0.21266836
0.11404145 0.24380955 0.19985384 0.17351301 0.02764905 -0.006579737 0.21606746 0.0064489176
-0.44900545 -0.5744544 0.038799766 0.12720984 -0.18136653 -0.6552851 -0.01887827 -0.045611165
-0.3184325 -0.14052783 0.0027924872 -0.11789723 -0.2714209 0.38687354 0.0058467803 -0.013555631
-0.7570483 -0.1755972 0.09843384 0.015437428 0.061180968 1.5089102 -0.09546142 -0.0024100905
0.14730948 -0.0124984 0.12311732 -0.08277314 -0.4085171 -0.28164703 -0.13642614 -0.09824066
-0.030025009 0.35364962 0.06687777 -0.164053 -0.79114944 -0.77149916 -0.08246547 -0.28474206
0.7197329 0.056368288 -0.097950324 -0.18539621 -0.7954674 -0.5274271 0.08166887 -0.42135048
0.2724548 0.35104096 -0.20925952 0.40565807 0.4233718 0.022111723 0.15356253 0.12071724
0.22855085 0.31987718 -0.13227747 0.4630704 0.7952683 0.08855005 -0.017016185 0.494128
0.2480085 0.39415485 -0.24310736 0.36624524 0.47192514 0.23808819 -0.26846963 0.41422862
0.326969 -0.1375114 -0.0011555012 0.016914507 0.20418216 -0.18044987 0.001962263 0.042158928
0.31317154 -0.25796852 0.15867606 0.2555648 1.46254 -0.095117435 -0.07452114 -0.039720103
0.017315356 -0.536259 -0.0032537358 -0.021158116 0.068975165 -0.3931464 0.015027406 -0.19580407
0.5196447 -0.8771525 -0.06266977 -0.27026471 -0.15624608 -0.76092535 -0.29991174 -0.24746557
0.5202817 -0.6468697 0.09936278 0.26489338 -0.029973838 -0.1400036 -0.21552223 0.3474562
0.53935367 -0.795737 -0.02817297 -0.8399733 0.08877266 0.4045999 -0.08900998 -0.5483794
0.12229765 0.1753917 -0.019865537 -0.03876922 -0.3447706 -0.56053716 -0.016519884 0.10380529
-0.21464624 0.10901429 -0.00077254337 -0.15505004 0.34800962 -1.7076949 -0.052825037 -0.12873533
00000000: fc86 2bbe 1ff8 54bf 8e59 3b3d 1e01 103e
00000010: 7602 8d3e 9884 a3be cf81 4bbd 6dc4 efbc
00000020: 4a60 14be 7b8b 8bbf 636e 28be 1b5f 3d3e
00000030: 2255 a6be c434 a7be 3692 de3d c10c 95bd
00000040: a20b 9bbd e6d9 8ebf fb46 20be 1259 ef3e
00000050: 81c1 10bf 988c a9bf 442c ab3d d1bb b83e
00000060: 89b3 c33d 24d0 323e 6258 40bd 37f8 593e
00000070: 65ab d13e 95c7 25bf f3f4 c33d 5393 0c3f
00000080: 7501 973e 8f74 e03e 913d d03e 6542 01bf
00000090: 3a1f a93e 846c 67be 6060 be3e 134f e1be
000000a0: f7a2 183e 5c7b 9b3e 0966 11be fea8 493d
000000b0: f843 fc3e ce12 f63e 87aa f53c 3986 403d
000000c0: 42b4 30be 0d0e 373f 8a51 773c 4e9a f9be
000000d0: 5767 9d3e 35d2 133d acea fabd a52d 1fbf
000000e0: 7d6f 1e3f 8328 213f f101 eb3d c157 adbb
000000f0: 145b 823e 305a 923e 79d9 633e 0290 16be
00000100: 41a9 b83f 3b93 d93e 9b16 6abd 4bb4 d9bd
00000110: c9c9 183f 8807 8a3e a667 cbbc 06fb 66bd
00000120: d7dd 813e 33ea c7bd 0a1c 823e 86f4 e4be
00000130: b1f4 dd3e a212 ddbe 355e 1abe 7d7e 1abf
00000140: 2faf d43e cb30 6d3d 7ec4 1a3e fcee 0ebf
00000150: 411e c03e 252d 69bf 8724 cfbd 2727 c2be
00000160: 74fa d63e 9b63 843d 0c77 b6be 40f7 a83e
00000170: 27a6 e0bd 165e 02bf b3be 84be 7a58 963d
00000180: f7ea a6bd 79d3 94bd 00b5 073e cf1e 68be
00000190: 1758 d6be 7b4c 413e f25f 97bd 20c0 1abe
000001a0: 039e 2e3d 91d1 bebb b6ff 0cbf c071 a23e
000001b0: 237f 16be b506 593e ae63 20bf bcc5 593e
000001c0: 908e e93d 36a9 793e 7ca6 4c3e 65ad 313e
000001d0: 4380 e23c d69a d7bb ca40 5d3e 7151 d33b
000001e0: 0be4 e5be 720f 13bf 81ec 1e3d 4c43 023e
000001f0: 26b8 39be c4c0 27bf 9aa6 9abc c6d2 3abd
00000200: 9609 a3be 87e6 0fbe 2902 373b 1a74 f1bd
00000210: aef7 8abe 4a14 c63e 5996 bf3b 7018 5ebc
00000220: ebcd 41bf c1cf 33be ae97 c93d 44ed 7c3c
00000230: e598 7a3d f823 c13f 4781 c3bd 9cf2 1dbb
00000240: 4cd8 163e 17c6 4cbc ef24 fc3d f784 a9bd
00000250: 2729 d1be 0a34 90be 4bb3 0bbe 6632 c9bd
00000260: 02f7 f5bc 9011 b53e 36f7 883d 82fd 27be
00000270: c588 4abf f880 45bf a8e3 a8bd b6c9 91be
00000280: 6a40 383f 6fe2 663d 2e9a c8bd 81d8 3dbe
00000290: c0a3 4bbf 7605 07bf 0242 a73d 40bb d7be
000002a0: 327f 8b3e a4bb b33e 2148 56be 6ab2 cf3e
000002b0: 30c4 d83e a523 b53c 7f3f 1d3e 9a3a f73d
000002c0: 3c09 6a3e f1c6 a33e bf73 07be 9017 ed3e
000002d0: b496 4b3f bb59 b53d 8765 8bbc 58fe fc3e
000002e0: f1f5 7d3e aace c93e 23f1 78be 7f84 bb3e
000002f0: 2ca0 f13e 64cd 733e da74 89be c615 d43e
00000300: 7b68 a73e cacf 0cbe 3074 97ba 4b90 8a3c
00000310: 2115 513e dac7 38be 4f99 003b d7ae 2c3d
00000320: 0558 a03e 7314 84be fa7b 223e 64d9 823e
00000330: 8334 bb3f eecc c2bd 8a9e 98bd 8cb1 22bd
00000340: efd8 8d3c 4548 09bf a13c 55bb c953 adbc
00000350: da42 8d3d 7c4a c9be 8235 763c dd80 48be
00000360: 6f07 053f 118d 60bf 0259 80bd 2360 8abe
00000370: f9fe 1fbe 01cc 42bf 088e 99be 9d67 7dbe
00000380: 2e31 053f 4199 25bf b77e cb3d 1ba0 873e
00000390: b28b f5bc 1b5d 0fbe dcb1 5cbe c7e5 b13e
000003a0: 1513 0a3f 6cb5 4bbf 00cb e6bc 7d08 57bf
000003b0: 71ce b53d b827 cf3e dd4a b6bd 9862 0cbf
000003c0: 3177 fa3d e299 333e 0dbd a2bc 79cc 1ebd
000003d0: c685 b0be 5d7f 0fbf b554 87bc de97 d43d
000003e0: 39cc 5bbe e242 df3d 8284 4aba 70c5 1ebe
000003f0: 512e b23e bf95 dabf 115f 58bd 32d3 03be

fc1.bias f4 [256]
-0.2205038 -0.44136623 -0.3076319 0.03577128 0.07191374 -0.1611045 0.24791095 -0.6560653
-0.3246499 0.31916508 -0.41571963 -0.29224068 -1.5042943 -0.14627708 -0.01726589 -0.46086583
0.6374991 0.17689615 -0.3182144 -0.24079463 -0.5186006 -0.45154932 -0.12589557 -0.5925671
-0.16778126 -0.52628976 -0.21574652 -0.3756123 -0.7868473 -0.29720047 -0.2801439 -0.75408995
-0.503252 -0.09585158 -0.17228433 -0.4307332 -0.2992589 -0.87627906 0.24766897 -0.090858564
0.20102525 -0.62772596 -0.14536747 -0.3802067 -0.38115406 -0.037106812 -0.17201631 -0.0990178
-0.8020575 -0.24205725 0.24543758 -0.50496584 -0.931891 -0.9875977 -0.109293334 -0.7162088
-0.32452136 0.16041768 0.107527226 -0.60993177 -0.26117262 -0.70270306 -0.019880258 0.6879449
-0.5521525 0.40409577 -0.20311908 0.38204178 -0.19103876 -0.07598396 -1.2483577 -1.1581866
-0.33461028 -0.010926886 -0.8701894 -0.5781705 0.2308189 -0.13787824 -0.93889636 -0.53837997
0.6887451 0.52276236 -0.3207135 0.23263173 -0.08795709 -0.23900728 -0.3449611 0.013605478
-1.0071465 -0.2545371 -0.23171179 -0.07272137 -0.61242 0.0011162355 -0.26397908 -0.26729575
-0.62698287 -0.659151 -1.1990235 0.09333831 -0.49656424 0.40214774 -1.170333 -0.9807981
-0.45809177 0.2867313 -0.24255407 -0.4637143 -1.0393673 0.78566664 -0.0519579 -0.98143995
-0.2814603 -0.48748198 -0.39473945 0.30145633 -0.022591146 -0.016267456 -1.0216331 -0.23566042
-0.17356569 -0.077138916 -0.43959576 -0.92063814 0.025933921 0.42503837 0.4174511 -0.12649083
-0.09832384 -0.7604197 0.0075585423 -1.0367131 0.4063234 -0.7965124 0.4217198 -1.0016187
-1.246422 -1.1125306 0.12118232 -0.7446494 -0.021115195 -0.31066972 -0.43587136 -0.45667753
-0.61359376 -0.38131407 -1.0552254 -0.21471785 0.04566991 -0.8613196 0.34818816 -0.24163121
0.6260327 -0.33497176 -0.24187255 -0.61844736 -0.26498953 -1.3739543 -0.77800703 0.14022021
-0.36021385 -0.052373506 -0.63530093 -0.40270287 -0.5103498 -0.25256032 -0.14958222 -0.5135184
-0.42286643 -0.589247 0.16107118 -0.55995023 -0.51357293 -0.46851194 -0.062083684 0.5479095
-0.29462796 -0.8264826 0.0417807 0.1721632 -0.24206324 0.22563183 -0.19823852 0.35631138
-1.5966535 0.11651829 -0.9124756 -0.008527553 -0.17040627 -0.7889591 0.058144484 -0.38247317
-0.9246348 -0.7398241 -0.36946884 -0.13111082 -0.14356159 0.2528459 -0.8675559 0.06621999
-0.0112287905 -0.8559658 -0.73224044 0.19669126 0.011443917 -0.204087 -1.1512727 -0.09452184
-0.4583494 -0.16988397 -0.2594779 -0.17859623 -0.8589145 -1.5899651 -0.8395151 0.15452665
-0.3978272 -0.7907958 -0.20180474 -0.4504911 -0.08245951 -0.744503 -0.55394536 -0.51104563
-0.17041059 0.08655966 -1.007953 -0.16199106 -0.60139084 0.4738852 -0.5155163 0.23905921
-0.49406886 -0.08218002 -0.5226799 -0.66206974 -0.76886785 -0.70198214 0.12109102 -0.87519485
-0.19933653 -0.5487362 -0.56990874 0.044248644 -0.7250194 -0.09675998 -0.11995854 -0.17758062
-0.18930237 0.00016410857 -0.46013212 -0.6837678 -0.37489283 -0.9149115 -0.24928245 -0.35026854
00000000: c0cb 61be c1fa e1be ee81 9dbe e884 123d
00000010: 8347 933d 94f8 24be 5edc 7d3e e5f3 27bf
00000020: 8338 a6be 9b69 a33e 34d9 d4be 92a0 95be
00000030: b78c c0bf a9c9 15be 3271 8dbc 9bf6 ebbe
00000040: 2433 233f 4424 353e ffec a2be de92 76be
00000050: 02c3 04bf 7931 e7be c5ea 00be 7ab2 17bf
00000060: dace 2bbe edba 06bf a8ec 5cbe 4150 c0be
00000070: d36e 49bf a92a 98be 056f 8fbe 0a0c 41bf
00000080: 20d5 00bf d54d c4bd 4e6b 30be 1089 dcbe
00000090: 7638 99be d353 60bf ef9c 7d3e 0e14 babd
000000a0: 90d9 4d3e a6b2 20bf 36db 14be 74aa c2be
000000b0: a026 c3be 50fd 17bd 0b25 30be d8c9 cabd
000000c0: a453 4dbf dbdd 77be fd53 7b3e 7145 01bf
000000d0: 6990 6ebf 34d3 7cbf 2fd5 dfbd 7659 37bf
000000e0: aa27 a6be 8844 243e 3c37 dc3d 7d24 1cbf
000000f0: 6bb8 85be 59e4 33bf ecdb a2bc 281d 303f
00000100: de59 0dbf a4e5 ce3e 73fe 4fbe fb9a c33e
00000110: aa9f 43be 7a9d 9bbd 2fca 9fbf 753f 94bf
00000120: 0a52 abbe af06 33bc bcc4 5ebf fb02 14bf
00000130: ca5b 6c3e f42f 0dbe 835b 70bf 45d3 09bf
00000140: 9951 303f c1d3 053f 8f34 a4be 0337 6e3e
00000150: d922 b4bd 53be 74be be9e b0be 83e9 5e3c
00000160: 2dea 80bf b052 82be db45 6dbe f1ee 94bd
00000170: 8fc7 1cbf a64e 923a 4428 87be fdda 88be
00000180: f381 20bf 1fbe 28bf 9a79 99bf 2828 bf3d
00000190: ab3d febe 4fe6 cd3e 79cd 95bf 9615 7bbf
000001a0: 018b eabe 72ce 923e 1860 78be f66b edbe
000001b0: fd09 85bf 7321 493f cfd1 54bd a63f 7bbf
000001c0: 901b 90be 3d97 f9be 4a1b cabe 7c58 9a3e
000001d0: 1111 b9bc 5443 85bc e0c4 82bf f750 71be
000001e0: 34bb 31be 02fb 9dbd b212 e1be f1ae 6bbf
000001f0: 6073 d43c a19e d93e 27bc d53e d086 01be
00000200: 025e c9bd deaa 42bf a6ad f73b 04b3 84bf
00000210: 9f09 d03e 3de8 4bbf a8eb d73e 0b35 80bf
00000220: c28a 9fbf 6767 8ebf 702e f83d 58a1 3ebf
00000230: c6f9 acbc 1a10 9fbe 882a dfbe a3d1 e9be
00000240: 7b14 1dbf 993b c3be a011 87bf ffde 5bbe
00000250: 5f10 3b3d 717f 5cbf b845 b23e 2c6e 77be
00000260: ae43 203f 6b81 abbe 70ad 77be 9152 1ebf
00000270: b5ac 87be bcdd afbf 782b 47bf e395 0f3e
00000280: f36d b8be 9a85 56bd 15a3 22bf 122f cebe
00000290: 49a6 02bf 964f 81be 152c 19be f175 03bf
000002a0: f381 d8be e4d8 16bf d8ef 243e e658 0fbf
000002b0: 8479 03bf cce0 efbe 764b 7ebd cc43 0c3f
000002c0: 7ad9 96be 5d94 53bf 3d22 2b3d 8d4b 303e
000002d0: 6ddf 77be 080c 673e 0aff 4abe 726e b63e
000002e0: 245f ccbf 24a1 ee3d 0098 69bf 26b7 0bbc
000002f0: fb7e 2ebe 39f9 49bf e928 6e3d 86d3 c3be
00000300: deb4 6cbf 1d65 3dbf 052b bdbe ea41 06be
00000310: cf01 13be 0575 813e 2518 5ebf 599e 873d
00000320: f6f8 37bc 9320 5bbf 1c74 3bbf 6f69 493e
00000330: 447f 3b3c 2ffc 50be e75c 93bf ab94 c1bd
00000340: c6ac eabe 10f6 2dbe 4ada 84be eee1 36be
00000350: d2e1 5bbf fa83 cbbf 76ea 56bf 3c3c 1e3e
00000360: 02b0 cbbe 9871 4abf e7a5 4ebe c5a6 e6be
00000370: 88e0 a8bd c097 3ebf 5dcf 0dbf e3d3 02bf
00000380: 1d80 2ebe 3146 b13d 9b04 81bf fce0 25be
00000390: c0f4 19bf 15a1 f23e e0f8 03bf f0cb 743e
000003a0: 98f6 fcbe 004e a8bd 5ace 05bf 677d 29bf
000003b0: 86d4 44bf 1ab5 33bf 92fe f73d c50c 60bf
000003c0: e01e 4cbe fa79 0cbf 8ae5 11bf 113e 353d
000003d0: df9a 39bf 192a c6bd d3ac f5bd b2d7 35be
000003e0: 7bd8 41be 8f14 2c39 7096 ebbe 680b 2fbf
000003f0: f4f1 bfbe a437 6abf e643 7fbe 6656 b3be

bn1.weight f4 [256]
0.1606406 0.10398411 0.16007 0.09343624 -0.0012057888 0.43772188 0.17346962 0.19130896
0.15462351 0.07466717 0.3165635 0.1544619 0.19672468 0.12283842 -0.0016871246 0.13614194
0.2386676 0.06747697 0.16996907 0.097163774 0.05006254 0.063428916 0.057537794 0.037872184
-0.072899416 0.083357014 0.07648483 0.046764765 0.124947295 1.0547425 -0.25731426 0.28838924
0.095813036 0.05732713 0.023237534 0.013789046 -0.0013619253 0.076206565 0.12990692 0.27414724
0.03743662 0.24783328 0.15630259 0.063782856 0.45055506 0.30993515 0.011660205 0.18953077
0.044123 0.0014801851 0.10623396 0.3722008 0.19345088 0.17233872 0.03443718 0.16854393
0.27890655 0.06920714 0.21415374 0.40270358 0.108503714 0.13989644 0.5824073 0.5176191
0.9180779 0.1661536 0.6746689 0.15933116 0.22969042 0.12083073 0.060243405 1.117831
0.046594467 0.07136067 0.08859286 0.2310395 0.062279165 0.37123004 0.06531969 0.03938548
0.3525064 0.11730135 0.16078788 0.07009729 0.064635515 0.060371026 0.18815541 0.15709278
0.0464639 0.00047223506 0.070127964 0.17516482 0.08921324 0.21215108 0.0024560825 0.13832583
1.1019051 0.43375513 0.6163293 1.008686 0.15923004 0.03124104 0.38413656 0.30245832
0.3777669 0.088358216 0.06789147 0.11822827 1.02775 0.1415632 0.09349871 0.1697644
0.07616165 -0.0041747643 0.30687636 0.38855535 0.020071564 0.08834461 0.07647559 0.16455278
0.1045302 0.07191462 0.08221044 0.55000246 0.12326715 -0.23649962 0.14052756 0.009288242
0.09481225 0.09681005 -0.0033217105 0.19402537 0.1692575 0.065104686 0.10705362 0.4656019
0.099140726 0.7610404 0.052182324 0.0351343 0.15163197 0.05244486 0.20697612 -0.10617305
0.09917665 0.10381533 0.23784895 0.13239756 0.008623298 0.113451555 0.09627222 0.0066403127
0.096843794 0.07667522 0.27391547 0.083208494 0.14938617 0.2855517 0.05181533 0.4910066
0.0042302585 0.083185226 0.07581534 0.00014663467 0.05848631 -0.052185323 0.0011698584 0.0740989
0.118690476 0.020396158 0.07476052 0.08920882 0.12702267 0.06921815 0.068470895 0.089574546
0.078882344 0.4265452 0.07873771 0.14518802 0.08080663 0.07178623 0.16626045 0.25434142
0.4361034 0.2174238 0.17818965 0.12414651 0.120275624 -0.22400309 0.098514274 0.016942134
0.118541345 0.055287715 -0.08696499 0.26905462 0.05691457 1.021323 0.03811106 -0.0049500726
0.26856697 0.11276571 0.09520152 0.34170315 0.09683843 0.13593149 0.09673399 0.0893787
0.08256267 -0.018743077 0.12942496 0.11535573 0.8302458 0.44503403 0.1324899 -0.094011225
0.5499479 0.8054664 0.16924264 0.0054331874 0.19333962 0.22121103 0.50625014 0.071641944
0.29230365 0.2566183 0.06063093 0.45256495 0.4767867 0.15276712 0.073219515 0.058142614
0.055072557 0.14176409 0.10010577 0.21824957 0.19037473 0.87138057 -0.063797764 0.09272398
-0.05442102 0.45702383 0.12542531 0.06693738 0.113355055 0.052753787 0.061327107 0.06858295
0.23952454 0.37374926 0.17352414 0.21510196 0.17443849 0.46601656 0.35645998 0.119148776
00000000: f87e 243e 9ff5 d43d 64e9 233e 805b bf3d
00000010: 8f0b 9eba 151d e03e 05a2 313e 7fe6 433e
00000020: a055 1e3e 1aeb 983d 9c14 a23e 432b 1e3e
00000030: 3272 493e b692 fb3d 8222 ddba cb68 0b3e
00000040: 4865 743e 5e31 8a3d 5f0c 2e3e cdfd c63d
00000050: 610e 4d3d 05e7 813d c0ac 6b3d dd1f 1b3d
00000060: 4a4c 95bd 15b7 aa3d 14a4 9c3d 698c 3f3d
00000070: 5ee4 ff3d cd01 873f b2be 83be c1a7 933e
00000080: a039 c43d dacf 6a3d a45c be3c 73eb 613c
00000090: a182 b2ba 3012 9c3d 5206 053e 075d 8c3e
000000a0: 2457 193d 02c8 7d3e c90d 203e 96a0 823d
000000b0: 27af e63e d2af 9e3e 720a 3f3c 5b14 423e
000000c0: 52ba 343d c502 c23a 3191 d93d 1a91 be3e
000000d0: fd17 463e 9079 303e 000e 0d3d c896 2c3e
000000e0: d7cc 8e3e 79bc 8d3d 1e4b 5b3e 2a2f ce3e
000000f0: 3237 de3d 0341 0f3e a518 153f af82 043f
00000100: 2707 6b3f 2b24 2a3e 1ab7 2c3f b527 233e
00000110: f733 6b3e 1a76 f73d cac1 763d 1615 8f3f
00000120: d7d9 3e3d 8b25 923d 2c70 b53d 9e95 6c3e
00000130: 7018 7f3d dd11 be3e 54c6 853d ab52 213d
00000140: b87b b43e b13b f03d 94a5 243e 2b8f 8f3d
00000150: a05f 843d 9c47 773d d0ab 403e eedc 203e
00000160: ee50 3e3d 5196 f739 409f 8f3d 685e 333e
00000170: 6eb5 b63d 223e 593e 3af6 203b 49a5 0d3e
00000180: 3a0b 8d3f 2715 de3e c2c7 1d3f 9f1c 813f
00000190: 330d 233e 36ed ff3c 8cad c43e d1db 9a3e
000001a0: aa6a c13e 27f5 b43d af0a 8b3d aa21 f23d
000001b0: 508d 833f f2f5 103e 407c bf3d b8d6 2d3e
000001c0: a4fa 9b3d 76cc 88bb e61e 9d3e baf0 c63e
000001d0: 1f6d a43c 05ee b43d 3c9f 9c3d 8680 283e
000001e0: ee13 d63d f947 933d f25d a83d f6cc 0c3f
000001f0: 7d73 fc3d f52c 72be 75e6 0f3e b62d 183c
00000200: ed2c c23d 5944 c63d 0eb1 59bb 96ae 463e
00000210: d751 2d3e 9b55 853d ee3e db3d 5f63 ee3e
00000220: 4b0a cb3d 8bd3 423f 22bd 553d fce8 0f3d
00000230: 6945 1b3e 6cd0 563d 8cf1 533e 4271 d9bd
00000240: 211d cb3d 229d d43d ad8e 733e 3a93 073e
00000250: bc48 0d3c 4a59 e83d 5f2a c53d fb96 d93b
00000260: 0a56 c63d e607 9d3d a63e 8c3e 3769 aa3d
00000270: b0f8 183e d533 923e 503c 543d 3865 fb3e
00000280: fb9d 8a3b 045d aa3d 1345 9b3d f2c1 1939
00000290: 578f 6f3d 47c0 55bd ef55 993a 2ac1 973d
000002a0: fe13 f33d d815 a73c 0b1c 993d 1db3 b63d
000002b0: 3b12 023e 3fc2 8d3d 783a 8c3d dc72 b73d
000002c0: 118d a13d 2264 da3e 3d41 a13d 2bac 143e
000002d0: f27d a53d a904 933d 2e40 2a3e 0a39 823e
000002e0: f248 df3e 58a4 5e3e 5977 363e 8740 fe3d
000002f0: 1153 f63d 1161 65be dac1 c93d 3bca 8a3c
00000300: cec5 f23d 5f75 623d b31a b2bd 87c1 893e
00000310: 411f 693d b6ba 823f 581a 1c3d 3834 a2bb
00000320: 9c81 893e b5f1 e63d 04f9 c23d b7f3 ae3e
00000330: 3a53 c63d a031 0b3e 781c c63d 2e0c b73d
00000340: 9e16 a93d 158b 99bc fa87 043e a03f ec3d
00000350: fd8a 543f 80db e33e 6fab 073e f588 c0bd
00000360: 63c9 0c3f 0c33 4e3f f14d 2d3e e108 b23b
00000370: d2fa 453e 2585 623e 9c99 013f 03b9 923d
00000380: d3a8 953e 7963 833e 2358 783d 98b6 e73e
00000390: 631d f43e fc6e 1c3e 1df4 953d f326 6e3d
000003a0: c393 613d 9b2a 113e 4104 cd3d d17c 5f3e
000003b0: 98f1 423e cc12 5f3f 67a8 82bd 12e6 bd3d
000003c0: 93e8 5ebd 07ff e93e 7e6f 003e 7716 893d
000003d0: b226 e83d 5b14 583d 2232 7b3d 3875 8c3d
000003e0: ec45 753e 105c bf3e 50b0 313e b043 5c3e
000003f0: 01a0 323e b999 ee3e ec81 b63e 4604 f43d

bn1.bias f4 [256]
0.02959275 0.0474742 0.04996639 0.023547549 0.00018418953 -0.048376404 -0.09924475 0.083566
0.0784439 -0.0017987518 0.06664539 0.042760596 0.12341622 0.027998816 -0.0011198524 0.018487176
0.07660295 0.010020813 0.08280357 0.03920166 0.011350482 -0.0014783563 -0.038098652 0.011133678
-0.016950939 0.011670385 -0.16645196 0.027735965 0.048814133 0.3769164 -0.054351404 0.080216534
0.038434543 0.010410159 -0.012855331 0.003936184 8.692851e-05 0.030800749 0.044443462 0.09499206
0.0009705123 -0.09019444 0.02717411 -0.007202067 0.06902389 0.087979764 0.006953594 0.09278475
0.0008444974 0.0020500708 0.033857442 0.13362993 0.062249377 0.030028572 0.016787795 0.08051967
0.07506438 0.0017039448 0.05724547 -0.09647108 0.012995167 0.031895086 0.20501326 -0.03130039
0.3246165 0.043723226 0.113752626 0.045504224 0.07327577 0.022889322 -0.015453477 0.29484025
0.024675373 -0.025555737 0.10991636 0.13296802 0.008012771 0.13243353 0.014760064 -0.1056723
0.027846212 0.016729623 0.14153855 0.0110720415 0.011273242 0.004112543 0.05609237 0.03180471
-0.003963566 -0.0013198844 0.003846779 0.076510705 0.0018326906 0.1301362 0.0005590751 0.094368055
0.22268222 0.16747239 0.4663985 0.35876435 -0.0021110347 0.0999011 0.32380113 0.09699235
0.19972293 0.028045438 0.008150537 -0.027046658 0.23272295 0.07247367 0.00066441897 0.06927621
0.04629864 0.0016234237 0.21097864 0.17239332 0.0067076953 -0.0050931806 0.013496302 0.035882484
0.069121145 0.031053973 0.023604611 0.18852217 -0.1896804 0.17185184 0.123713374 -0.0018690227
0.044495948 0.005644829 0.0015389466 -0.07787514 0.09131564 0.050647736 0.022669196 0.35058004
-0.009391686 0.20919336 0.018865485 -0.0065810434 0.097432874 -0.0006777378 0.17587289 -0.011706707
0.067551054 0.008238559 0.078262255 0.07169578 0.0031685664 0.046770323 0.050248217 0.00032965632
0.02404686 -0.0881543 0.11236297 0.012273103 0.012955486 0.15833081 -2.8297523e-05 0.42524263
0.00083425286 -0.008458973 0.017316923 0.0011964003 -0.000675464 -0.04635342 0.0020406402 -0.0040885513
0.059652742 0.005161834 0.006666868 0.055577114 0.03388116 0.0073399823 0.0036110159 0.021059528
0.02813491 0.31137568 0.023962993 0.039526626 0.010175131 0.021596426 0.020390343 0.07594788
0.25181395 0.108587265 0.029205972 0.02132386 0.03173221 -0.039693896 0.007799519 0.0073152618
0.15835044 -0.008339552 -0.0076515735 0.07802206 0.011194165 0.24639717 0.011116456 -0.001953266
0.15915571 0.13735227 0.016879275 -0.15079162 0.010402441 0.039402995 0.019568337 0.027642945
0.008344508 -0.0018621847 0.0016032718 0.06536993 0.33243737 0.2748187 0.13896126 -0.0803948
0.29247695 0.16898613 0.1127037 -0.00076569937 0.1129566 0.00012687626 0.41967526 0.0014498825
0.11447153 0.13656831 -0.012078596 0.17331323 0.19629674 -0.012452711 -0.012552833 0.021255637
0.004497557 0.00742641 0.026097974 0.07074076 0.06466739 0.3139613 0.15779492 0.018062256
0.0036091227 0.1166722 0.12021584 -0.010889773 0.007776104 -0.059899736 0.011584297 -0.021148227
0.06279336 0.053036503 0.12366328 0.010929917 0.05357708 0.1651256 0.11930612 0.033071555
00000000: 7f6c f23c 4f74 423d 8fa9 4c3d cae6 c03c
00000010: 0023 4139 5626 46bd d540 cbbd a724 ab3d
00000020: 32a7 a03d 18c4 ebba 617d 883d bc25 2f3d
00000030: a5c1 fc3d c65d e53c 03c8 92ba 6b72 973c
00000040: 02e2 9c3d 562e 243c eb94 a93d eb91 203d
00000050: 5ff7 393c 68c5 c1ba 550d 1cbd 086a 363c
00000060: b2dc 8abc 2435 3f3c 6272 2abe 8936 e33c
00000070: 54f1 473d 30fb c03e 949f 5ebd 9148 a43d
00000080: 8a6d 1d3d 5f8f 2a3c 2b9f 52bc 1bfb 803b
00000090: 634d b638 da51 fc3c 590a 363d 328b c23d
000000a0: fa69 7e3a ddb7 b8bd 3d9c de3c 51ff ebbb
000000b0: 665c 8d3d bc2e b43d f9da e33b ee05 be3d
000000c0: 4361 5d3a 7b5a 063b 1aae 0a3d 49d6 083e
000000d0: 34f9 7e3d 7bfe f53c 8f86 893c 7fe7 a43d
000000e0: 5bbb 993d e656 df3a 3a7a 6a3d a192 c5bd
000000f0: aee9 543c 6ca4 023d ffee 513e d634 00bd
00000100: 2234 a63e 2017 333d 23f7 e83d a362 3a3d
00000110: 9b11 963d 6382 bb3c 9530 7dbc 4df5 963e
00000120: 0224 ca3c 445a d1bc d41b e13d c528 083e
00000130: ff47 033c a89c 073e 32d4 713c b86a d8bd
00000140: bd1d e43c 900c 893c 7bef 103e 8267 353c
00000150: 67b3 383c 83c2 863b 1dc1 653d a845 023d
00000160: cde0 81bb f9ff acba 3e1a 7c3b a5b1 9c3d
00000170: e436 f03a 6d42 053e e58e 123a 0a44 c13d
00000180: cf06 643e e27d 2b3e c9cb ee3e f6af b73e
00000190: 4959 0abb f398 cc3d 43c9 a53e eda3 c63d
000001a0: 2b84 4c3e 8cbf e53c d489 053c f490 ddbc
000001b0: ed4e 6e3e 136d 943d 672c 2e3a b0e0 8d3d
000001c0: a5a3 3d3d 0fc9 d43a c90a 583e e087 303e
000001d0: 3acc db3b b2e4 a6bb 981f 5d3c 83f9 123d
000001e0: 638f 8d3d e764 fe3c 755e c13c f50b 413e
000001f0: 943b 42be eef9 2f3e 705d fd3d fff9 f4ba
00000200: 6241 363d 42f8 b83b 7bb6 c93a 007d 9fbd
00000210: b203 bb3d 0074 4f3d c0b4 b93c 3a7f b33e
00000220: 96df 19bc c936 563e ca8b 9a3c cba5 d7bb
00000230: e38a c73d 37aa 31ba 0618 343e 7dcd 3fbc
00000240: 3558 8a3d 05fb 063c f647 a03d 3dd5 923d
00000250: b9a7 4f3b 3d92 3f3d 13d1 4d3d b9d5 ac39
00000260: ecfd c43c 3e8a b4bd 8f1e e63d 2015 493c
00000270: 3f43 543c 7921 223e 7860 edb7 67b9 d93e
00000280: c3b1 5a3a 8197 0abc 38dc 8d3c 88d0 9c3a
00000290: 9f11 31ba 15dd 3dbd 43bc 053b 41f9 85bb
000002a0: 6f56 743d 9a24 a93b be75 da3b d4a4 633d
000002b0: f9c6 0a3d 3c84 f03b cba6 6c3b 0885 ac3c
000002c0: 2f7b e63c a26c 9f3e 0a4e c43c ace6 213d
000002d0: 98b5 263c fdea b03c a609 a73c 908a 9b3d
000002e0: c2ed 803e 0063 de3d 5d41 ef3c 60af ae3c
000002f0: a2f9 013d 1196 22bd 1c93 ff3b ddb4 ef3b
00000300: 9e26 223e 9ea2 08bc 0dba fabb 08ca 9f3d
00000310: bb67 373c 8a4f 7c3e cc21 363c 5e02 00bb
00000320: b7f9 223e 13a6 0c3e 6846 8a3c 1e69 1abe
00000330: 006f 2a3c 0965 213d c74d a03c 7573 e23c
00000340: 67b7 083c 8d14 f4ba e024 d23a abe0 853d
00000350: 3b35 aa3e 09b5 8c3e dc4b 0e3e 07a6 a4bd
00000360: 8abf 953e b30a 2d3e 33d1 e63d 37b9 48ba
00000370: ca55 e73d 160a 0539 addf d63e fc09 be3a
00000380: 0d70 ea3d 90d8 0b3e 4ee5 45bc 0679 313e
00000390: 0302 493e 7506 4cbc 66aa 4dbc 4d20 ae3c
000003a0: 3e60 933b 3e59 f33b 6bcb d53c 88e0 903d
000003b0: 5670 843d 89bf a03e fe94 213e 4cf7 933c
000003c0: 0887 6c3b d6f1 ee3d b933 f63d 056b 32bc
000003d0: b0ce fe3b 6d59 75bd 10cc 3d3c 0c3f adbc
000003e0: ce99 803d ce3c 593d 2c43 fd3d 6513 333c
000003f0: a473 5b3d af16 293e c456 f43d 0a76 073d

bn1.running_mean f4 [256]
2.097932 3.3751035 0.9076011 0.87426525 6.051581 17.072363 1.4065378 2.56151
1.6791627 0.23286006 0.2455857 0.8503456 3.2280328 0.48589835 9.445514 0.3855062
0.54502463 0.76143587 2.5369043 1.4108006 3.0739782 1.9298128 0.866362 5.8074517
0.74082595 0.09447824 4.368069 5.8275676 0.77530766 0.5844966 0.24815872 0.54535234
2.3544216 0.9657021 2.4374053 5.3677654 5.506165 1.7643044 0.17166531 0.5554187
0.09829515 0.646035 0.42497385 3.7359543 0.13257815 0.48063534 14.912998 1.8701307
7.070509 5.471394 1.0917722 1.2090822 0.91458255 0.7289412 4.849284 1.9954393
0.5337544 0.1940628 0.6575712 8.419668 0.07630537 0.5662082 0.6059909 2.4543657
0.8608571 0.38862807 0.14506592 0.83774865 0.25843853 0.60549307 9.385365 14.208793
1.3848228 1.6052649 3.7188118 1.6403497 0.3875577 0.4158547 4.7928877 2.292795
0.39307684 0.1775174 2.8484447 0.1394165 0.46927488 0.4573012 1.0859219 0.4156898
4.938141 7.780287 0.41109267 1.8072499 2.2449968 7.7051587 0.42283055 1.9670024
0.8883353 0.84590006 6.305053 0.47072476 0.091928914 13.140467 3.3394475 1.4344907
1.578305 0.29838535 0.13926388 5.2060585 0.23532657 0.30789694 0.29626814 1.4504001
5.0513096 2.113601 5.0415606 6.378051 0.026726449 2.7686791 2.4566245 0.99000573
6.3391547 4.9455123 1.9913036 0.17798154 8.95847 0.4775839 9.638808 1.1248587
3.4912086 0.0940519 0.8825537 4.904292 2.5245135 8.482935 0.50955933 15.82312
3.7247496 0.35086718 1.099384 4.748289 7.1199684 0.49976978 5.4237585 0.10646937
1.4805444 2.9260557 1.0326793 1.3446716 5.3156815 1.4752367 2.033314 3.9985497
1.1928627 5.2635174 0.561183 0.28473973 1.1394047 1.8914857 1.4968901 5.993995
1.588782 0.5347655 1.8300798 0.1781119 0.09012298 6.6776395 9.581854 1.644455
1.4508591 1.883362 3.2593122 10.136779 0.41667584 0.94858253 0.42631373 0.644604
1.2427758 6.519995 0.43234608 0.98467976 0.15765867 3.5387237 0.63887554 0.7023867
1.7149086 3.3683183 1.9150671 0.18940267 0.43266112 0.23001644 0.2464685 5.059588
13.246693 0.19306691 0.10903292 0.91164654 4.0535336 7.027056 5.3430085 6.901438
3.5790944 15.67339 0.19065614 4.7520933 0.67965 1.613536 3.7957087 1.9344355
0.39799118 0.05043512 0.5401306 5.44587 0.37829578 1.8072689 6.4222264 6.271246
5.7029333 3.1621127 4.681725 13.130733 2.555218 0.355912 17.550644 1.1351537
1.2561738 2.6260598 3.4120638 0.5773561 0.2596151 0.63488084 3.4350653 1.4422553
3.4332745 3.6734886 0.82336926 0.7199107 1.5415214 0.49169728 7.4601283 1.9465008
6e-45 0.13139251 2.953918 1.5157784 1.1416199 8.057525 0.3980565 2.389551
0.6600946 0.115884215 3.7261016 1.3112991 1.398097 0.09530241 0.6916525 0.7063551
00000000: 8544 0640 b201 5840 8c58 683f d9cf 5f3f
00000010: 8da6 c140 3394 8841 6e09 b43f c8ef 2340
00000020: ceee d63f de72 6e3e d17a 7b3e 40b0 593f
00000030: 1798 4e40 abc7 f83e d320 1741 1261 c53e
00000040: bc86 0b3f 76ed 423f a45c 2240 1d95 b43f
00000050: 0fbc 4440 1b04 f73f e6c9 5d3f a5d6 b940
00000060: c5a6 3d3f cf7d c13d 39c7 8b40 6f7b ba40
00000070: 907a 463f 92a1 153f 521d 7e3e 369c 0b3f
00000080: d8ae 1640 4138 773f 73fe 1b40 bcc4 ab40
00000090: 8132 b040 bad4 e13f 08c9 2f3e ec2f 0e3f
000000a0: f84e c93d 8d62 253f 2c96 d93e e019 6f40
000000b0: 91c2 073e d615 f63e a49b 6e41 7160 ef3f
000000c0: 9c41 e240 a915 af40 31bf 8b3f 35c3 9a3f
000000d0: 1522 6a3f e49b 3a3f 562d 9b40 8e6a ff3f
000000e0: 21a4 083f 66b8 463e 9656 283f f6b6 0641
000000f0: fd45 9c3d 05f3 103f 3822 1b3f 5414 1d40
00000100: 2261 5c3f 42fa c63e 298c 143e b276 563f
00000110: 0e52 843e 9801 1b3f 742a 1641 3757 6341
00000120: e041 b13f 5279 cd3f 0301 6e40 fbf6 d13f
00000130: f66d c63e e8ea d43e 565f 9940 27bd 1240
00000140: 5e41 c93e 1fc7 353e eb4c 3640 33c3 0e3e
00000150: cc44 f03e 6223 ea3e 7dff 8a3f 4bd5 d43e
00000160: 4005 9e40 1cf8 f840 bd7a d23e f753 e73f
00000170: 07ae 0f40 a990 f640 3f7d d83e bcc6 fb3f
00000180: f169 633f e88c 583f ffc2 c940 d602 f13e
00000190: 3a45 bc3d 5a3f 5241 82b9 5540 649d b73f
000001a0: e605 ca3f f7c5 983e 319b 0e3e 0898 a640
000001b0: 73f9 703e aba4 9d3e 75b0 973e b6a6 b93f
000001c0: 54a4 a140 3d45 0740 7754 a140 fe18 cc40
000001d0: 6df1 da3c 0a32 3140 5639 1d40 0471 7d3f
000001e0: 5bda ca40 a341 9e40 09e3 fe3f cb40 363e
000001f0: e555 0f41 e085 f43e 8f38 1a41 5ffb 8f3f
00000200: f66f 5f40 489e c03d 0aef 613f f6ef 9c40
00000210: a191 2140 1aba 0741 7b72 023f 802b 7d41
00000220: 4c62 6e40 dda4 b33e 9db8 8c3f fcf1 9740
00000230: c8d6 e340 d3e1 ff3e 6e8f ad40 9d0c da3d
00000240: 7b82 bd3f 7f44 3b40 d62e 843f 331e ac3f
00000250: 101a aa40 8ed4 bc3f d121 0240 3de8 7f40
00000260: baaf 983f bc6e a840 b0a9 0f3f 68c9 913e
00000270: 03d8 913f 341c f23f 189a bf3f cfce bf40
00000280: 355d cb3f 64e6 083f 0e40 ea3f f762 363e
00000290: 6692 b83d 39af d540 464f 1941 807d d23f
000002a0: c0b5 b93f 0212 f13f 9298 5040 3f30 2241
000002b0: 8956 d53e 4ed6 723f cb45 da3e c504 253f
000002c0: 4713 9f3f cda3 d040 775c dd3e f913 7c3f
000002d0: 4671 213e 737a 6240 598d 233f 9dcf 333f
000002e0: 2082 db3f 8792 5740 eb20 f53f c6f2 413e
000002f0: c285 dd3e 6e89 6b3e 3d62 7c3e 25e8 a140
00000300: 74f2 5341 55b3 453e a74c df3d ab61 693f
00000310: 8cb6 8140 a5dd e040 edf9 aa40 95d8 dc40
00000320: e20f 6540 35c6 7a41 5d3b 433e 2611 9840
00000330: 8bfd 2d3f 5988 ce3f e4ec 7240 959b f73f
00000340: 80c5 cb3e 0e95 4e3d 0046 0a3f 9144 ae40
00000350: fcaf c13e 9654 e73f e182 cd40 0cae c840
00000360: 6e7e b640 0e60 4a40 b1d0 9540 7b17 5241
00000370: b188 2340 193a b63e b867 8c41 b74c 913f
00000380: 4eca a03f 5d11 2840 415f 5a40 9ccd 133f
00000390: 45ec 843e 8d87 223f 1cd8 5b40 d29b b83f
000003a0: c5ba 5b40 701a 6b40 54c8 523f 114c 383f
000003b0: 9350 c53f bfbf fb3e 5fb9 ee40 f026 f93f
000003c0: 0400 0000 c28b 063e fe0c 3d40 0705 c23f
000003d0: 9a20 923f 9feb 0041 10ce cb3e 67ee 1840
000003e0: f6fb 283f b454 ed3d 7378 6e40 a6d8 a73f
000003f0: d8f4 b23f e92d c33d 2310 313f b0d3 343f

bn1.running_var f4 [256]
13.484852 46.50135 9.2895355 11.031945 125.24431 33.13072 13.278648 30.346636
10.986068 1.419969 1.4449404 7.7398267 22.66421 3.5608377 29.76079 2.959396
2.975858 7.3875003 24.584536 10.906483 33.721893 14.103133 7.4952765 65.9351
4.9929457 0.6414701 67.09197 34.106747 5.378543 1.9751543 1.3722742 3.698119
23.359573 11.341349 42.615734 42.12816 36.435585 15.383028 1.2640585 3.0849583
0.64122385 2.8187752 2.9422798 55.6609 0.7915201 3.2297745 93.592545 14.303861
52.54214 64.83737 13.2841835 11.00272 9.684344 8.854101 81.22621 17.599907
3.213234 1.649192 5.0904613 89.19502 0.44837156 4.8743734 3.149104 2.0433204
2.090504 2.2216237 0.858044 6.0332527 0.90842205 5.412923 56.26261 332.75403
13.528429 5.1298122 37.113712 11.5903425 2.9053335 3.0153537 50.134018 22.05055
1.7334011 1.1549405 10.445253 0.74112004 3.6032393 4.057111 4.8683667 4.1207156
64.05767 44.05139 3.6940088 16.37595 21.757925 56.22031 2.916437 14.636752
1.3694394 5.737953 75.13526 3.2339363 0.50032693 160.58298 12.473547 4.28189
8.463895 1.5534598 1.0347232 55.152496 1.3244455 2.6122007 2.1528406 13.163672
58.42247 24.471771 50.53826 47.728523 0.06749597 23.295685 33.16482 11.081717
72.70851 48.080093 20.246088 0.22870272 117.71326 3.3253715 124.41538 11.009701
33.944565 0.69528437 8.601515 46.728207 20.261204 58.441772 5.170219 406.7547
33.75342 1.3433673 11.101515 23.698864 84.18904 3.2322319 28.700607 0.38436905
7.150105 40.70352 11.111274 9.197182 44.553833 8.258938 15.78123 70.46573
8.743427 45.733246 2.5099535 2.293508 3.2127554 11.168162 16.59213 45.08759
16.578983 3.6408422 14.298194 1.0619498 0.5475491 105.834465 54.473457 23.66104
9.669814 21.650623 27.2838 47.075447 2.9650438 6.8083634 4.3967295 5.7041926
8.203015 47.49765 4.3673406 7.233454 0.85742086 30.657196 1.7739564 7.774746
8.800391 20.796745 12.874993 1.0610373 3.182844 1.9303544 1.9335922 67.372314
85.532036 1.4152983 0.79252243 4.672295 71.71831 70.13009 63.83173 107.796326
36.267532 79.1515 1.4780883 20.329199 6.686368 18.046803 35.67781 18.598637
3.2592661 0.1878384 4.208496 61.615974 2.070295 6.4640965 23.048471 63.12366
61.34816 9.549762 30.36027 57.25213 21.868425 1.5907475 472.47318 11.568253
8.948375 15.260879 27.196833 1.8348936 2.0786655 4.3488436 26.971056 11.587302
50.14937 24.17747 7.32159 5.5077744 18.058258 1.8318644 68.634895 23.917658
6e-45 0.7359056 27.810085 12.780669 12.382675 122.108116 3.2794514 26.653202
4.9870625 0.8086253 31.603228 10.399978 18.434837 0.2536172 4.0114913 3.9397871
00000000: f4c1 5741 6201 3a42 f0a1 1441 d982 3041
00000010: 167d fa42 db85 0442 5875 5441 e9c5 f241
00000020: efc6 2f41 8bc1 b53f cff3 b83f a9ac f740
00000030: 4d50 b541 c4e4 6340 1916 ee41 be66 3d40
00000040: 7574 3e40 6766 ec40 21ad c441 f480 2e41
00000050: 38e3 0642 6fa6 6141 4ed9 ef40 c5de 8342
00000060: 36c6 9f40 6237 243f 172f 8642 4f6d 0842
00000070: 061d ac40 dbd1 fc3f aea6 af3f fbad 6c40
00000080: 68e0 ba41 2a76 3541 8376 2a42 3c83 2842
00000090: 0abe 1142 e220 7641 abcc a13f f56f 4540
000000a0: 3f27 243f d066 3440 504e 3c40 c3a4 5e42
000000b0: 10a1 4a3f a0b4 4e40 622f bb42 9ddc 6441
000000c0: 272b 5242 bcac 8142 048c 5441 240b 3041
000000d0: 13f3 1a41 66aa 0d41 d273 a242 9ccc 8c41
000000e0: a0a5 4d40 b918 d33f 0fe5 a240 da63 b242
000000f0: f590 e53e defa 9b40 ec8a 4940 c3c5 0240
00000100: d1ca 0540 152f 0e40 c6a8 5b3f 6810 c140
00000110: 598e 683f aa36 ad40 ea0c 6142 8460 a643
00000120: 7274 5841 6c27 a440 7174 1442 0b72 3941
00000130: fcf0 3940 8efb 4040 3c89 4842 8767 b041
00000140: 16e0 dd3f 17d5 933f c21f 2741 0bba 3d3f
00000150: 799b 6640 dad3 8140 a9c9 9b40 e7dc 8340
00000160: 871d 8042 a034 3042 a46a 6c40 f201 8341
00000170: 3b10 ae41 99e1 6042 e7a6 3a40 2330 6a41
00000180: ca49 af3f 509d b740 4145 9642 d0f8 4e40
00000190: 6d15 003f 3e95 2043 a693 4741 3e05 8940
000001a0: 1d6c 0741 c5d7 c63f cf71 843f 289c 5c42
000001b0: 6e87 a93f 4c2e 2740 24c8 0940 679e 5241
000001c0: 9cb0 6942 30c6 c341 2e27 4a42 02ea 3e42
000001d0: 543b 8a3d 905d ba41 c7a8 0442 b64e 3141
000001e0: c26a 9142 0452 4042 fdf7 a141 0c31 6a3e
000001f0: 306d eb42 e3d2 5440 add4 f842 bc27 3041
00000200: 3cc7 0742 28fe 313f ce9f 0941 afe9 3a42
00000210: f216 a241 60c4 6942 6f72 a540 9a60 cb43
00000220: 8103 0742 76f3 ab3f ce9f 3141 4697 bd41
00000230: ca60 a842 e3dc 4e40 d89a e541 05cc c43e
00000240: a9cd e440 68d0 2242 c7c7 3141 a827 1341
00000250: 2037 3242 9c24 0441 eb7f 7c41 74ee 8c42
00000260: 14e5 0b41 d8ee 3642 14a3 2040 d6c8 1240
00000270: c99d 4d40 cbb0 3241 afbc 8441 b159 3442
00000280: c2a1 8441 8f03 6940 67c5 6441 f9ed 873f
00000290: 2e2c 0c3f 3fab d342 d2e4 5942 cf49 bd41
000002a0: 8fb7 1a41 7a34 ad41 3945 da41 424d 3c42
000002b0: 47c3 3d40 1dde d940 02b2 8c40 bf88 b640
000002c0: 8d3f 0341 98fd 3d42 41c1 8b40 7578 e740
000002d0: ef7f 5b3f f041 f541 0111 e33f b8ca f840
000002e0: 67ce 0c41 bc5f a641 f9ff 4d41 12d0 873f
000002f0: b7b3 4b40 da15 f73f f37f f73f a0be 8642
00000300: 6710 ab42 7f28 b53f c0e2 4a3f 7183 9540
00000310: c66f 8f42 9b42 8c42 b153 7f42 b897 d742
00000320: f411 1142 914d 9e42 ff31 bd3f 33a2 a241
00000330: baf6 d540 da5f 9041 14b6 0e42 02ca 9441
00000340: d197 5040 b658 403e 00ac 8640 c276 7642
00000350: b77f 0440 e1d9 ce40 4563 b841 a17e 7c42
00000360: 8464 7542 d3cb 1841 d5e1 f241 2e02 6542
00000370: 89f2 ae41 9d9d cb3f 913c ec43 9017 3941
00000380: 8b2c 0f41 8f2c 7441 1d93 d941 cbdd ea3f
00000390: db08 0540 ba29 8b40 b9c4 d741 9765 3941
000003a0: f498 4842 756b c141 774a ea40 b03f b040
000003b0: 5077 9041 887a ea3f 1145 8942 5d57 bf41
000003c0: 0400 0000 4f64 3c3f 0e7b de41 9f7d 4c41
000003d0: 701f 4641 5b37 f442 88e2 5140 c239 d541
000003e0: 0496 9f40 1102 4f3f 69d3 fc41 4f66 2641
000003f0: 8c7a 9341 1dda 813e 235e 8040 7925 7c40

fc2.weight f4 [128, 258]
-0.2781642 -0.056438364 0.059423603 -0.4656709 -0.04106761 -0.14608862 -0.032522894 0.07341314
0.022595713 0.20500506 0.24240072 0.047503814 0.053990673 -0.035970785 -0.0122791035 0.3138429
-0.009892723 -0.29386908 -0.11580415 -0.07465118 0.23180681 -0.023067072 0.37162253 -0.050001476
7.612611e-05 -0.18523322 0.035244558 0.10736401 -0.2446253 -0.29953706 -0.08139094 -0.28313985
-0.42938992 -0.11422084 0.03446191 -0.111784086 -0.032660473 -0.40787923 0.262738 -0.10032519
0.17432755 0.06489393 0.24288017 -0.37872624 -0.636635 -0.06507698 0.019969884 0.06228422
-0.007433219 0.007140643 -0.016755147 -0.3262284 -0.28347898 -0.21994787 0.1818127 -0.11303866
0.40882105 -0.44941065 -0.62826663 -0.057285745 0.11019888 0.1967981 -0.7161318 -0.106889784
0.2908971 -0.33590996 0.17792784 0.056923166 0.18003476 0.322681 0.021428548 -0.12195737
-0.3044352 -0.15090668 -0.45866752 -0.17447993 0.009523997 -0.13019474 0.28532043 0.07474569
0.19765574 0.061310288 -0.1592298 0.040956646 -0.19373402 -0.098978 0.5336345 -0.08079986
0.05348998 0.0089931935 0.0048886915 0.28574353 0.14065221 -0.54439515 -0.00040965938 -0.06622199
-0.18405837 -0.108332895 -0.72768325 0.22697501 -0.026920145 -0.09454089 -1.3998125 0.116081014
0.102450006 -0.13833058 0.3754853 -0.10063438 -0.029994657 -0.019988593 0.06900431 -0.05604493
-0.13878459 0.014257667 -0.009687958 0.024763502 0.015666492 -0.034180325 -0.23406507 0.01437445
0.035698704 -0.018786391 0.14208889 0.013878136 0.18194908 0.11024857 -0.061076615 -0.011590835
-0.024355076 0.19440605 -0.007931107 0.058079932 0.4769555 -0.2688164 -0.4548419 -0.19028567
0.36236688 -0.4595595 0.0057858033 -0.052756898 -0.29331502 0.124083675 0.21527113 -0.24985802
-0.39905104 0.29411715 0.22390369 -0.07398732 -0.0045194374 0.012854285 -0.0074887583 -0.02275218
-0.03893737 -0.18891595 0.070569344 0.010853154 -0.26352012 -0.37327635 -0.08546708 -0.13562769
0.0037915818 -0.12505898 0.0059044254 -0.01920671 0.07965174 0.19712892 -0.027806284 0.015916005
0.14488757 0.07251297 -0.012141056 0.08568853 0.20684953 -0.26013455 -0.031518094 -0.034424696
0.12995805 0.14846839 -0.40976036 -0.7945647 -0.056338623 -0.32268402 0.073485255 -0.42004645
0.045104124 -0.90545446 0.023882493 0.21285635 -0.5528665 -0.10247748 -0.22965789 -0.052278515
-0.3199404 0.3204989 0.13859245 -0.28950965 -0.057120595 0.009280829 0.14321719 -0.027531886
0.15150934 0.010334566 -0.07695965 -0.16767891 0.13844346 0.26139832 0.21828586 -0.15541203
-0.427649 -0.008179306 -0.966873 -0.45767304 -0.517582 0.015095812 -0.25127167 0.25731596
-0.29486766 -0.15711613 -0.48822877 -0.021923019 0.18920252 0.1870995 0.22895235 0.108652234
-0.039368182 0.34913203 -0.04994657 -0.015630849 0.1251157 -0.71751404 0.14204091 -0.12035982
0.2818797 -0.095785804 -0.07153306 -0.11391965 -0.3365065 -0.8337108 -0.19740912 -0.75260514
-0.01555178 -0.28833616 0.18763115 0.034177285 -0.11557886 -0.017978407 0.22712229 -0.11534711
-0.077547126 -0.4875534 0.11898489 -0.59741795 -0.24014921 -0.032406613 0.6390717 -0.26997867
00000000: 8a6b 8ebe ea2b 67bd 2a66 733d 6b6c eebe
00000010: 8336 28bd 4198 15be ba36 05bd a159 963d
00000020: a51a b93c d9ec 513e e537 783e 5c93 423d
00000030: 5325 5d3d 1a56 13bd 4b2e 49bc 04b0 a03e
00000040: 1615 22bc 0276 96be ba2a edbd b8e2 98bd
00000050: c45e 6d3e 28f7 bcbc 4f45 be3e 59ce 4cbd
00000060: e5a5 9f38 c7ad 3dbe 995c 103d a9e1 db3d
00000070: 0e7f 7abe ec5c 99be 4bb0 a6bd b5f7 90be
00000080: ffd8 dbbe 9eec e9bd ef27 0d3d 0eef e4bd
00000090: fdc6 05bd 8cd5 d0be 9885 863e 4b77 cdbd
000000a0: ec82 323e 1ce7 843d 94b5 783e 68e8 c1be
000000b0: 83fa 22bf 1447 85bd e297 a33c bd1d 7f3d
000000c0: 5c92 f3bb 0efc e93b 1742 89bc 6907 a7be
000000d0: 2824 91be 043a 61be 1c2d 3a3e d080 e7bd
000000e0: fe50 d13e 2719 e6be 15d6 20bf 75a4 6abd
000000f0: f3af e13d 7185 493e 6a54 37bf 08e9 dabd
00000100: 77f0 943e 64fc abbe b732 363e 4428 693d
00000110: 085b 383e 7236 a53e ec8a af3c c9c4 f9bd
00000120: eede 9bbe 4887 1abe 78d6 eabe deaa 32be
00000130: 8a0a 1c3c c551 05be 8515 923e 4514 993d
00000140: 4466 4a3e 7f20 7b3d 230d 23be 28c2 273d
00000150: 3662 46be fab4 cabd 459c 083f 667a a5bd
00000160: 4f18 5b3d 3058 133c 5131 a03b fa4c 923e
00000170: 2207 103e 7b5d 0bbf 8dc7 d6b9 659f 87bd
00000180: cc79 3cbe a3dd ddbd 7349 3abf 236c 683e
00000190: a387 dcbc a79e c1bd 0e2d b3bf e2bb ed3d
000001a0: 4fd1 d13d 88a6 0dbe 9c3f c03e 6619 cebd
000001b0: 5bb7 f5bc 1ebf a3bc 2252 8d3d 5e8f 65bd
000001c0: 8c1d 0ebe fd98 693c 3eba 1ebc d4dc ca3c
000001d0: 0457 803c ab00 0cbd c1ae 6fbe d082 6b3c
000001e0: ce38 123d ebe5 99bc c07f 113e 1f61 633c
000001f0: dc50 3a3e 01ca e13d 792b 7abd 7ce7 3dbc
00000200: 4c84 c7bc 6112 473e 79f1 01bc 39e5 6d3d
00000210: 8333 f43e 4ea2 89be 0ae1 e8be 3fda 42be
00000220: 2788 b93e 624b ebbe d696 bd3b 9e17 58bd
00000230: 632d 96be 951f fe3d 0970 5c3e c8da 7fbe
00000240: 6b50 ccbe 8696 963e 0247 653e aa86 97bd
00000250: ca17 94bb c79a 523c 4264 f5bb c862 babc
00000260: cb7c 1fbd 2f73 41be a986 903d 6dd1 313c
00000270: 1cec 86be 141e bfbe 5d09 afbd fce1 0abe
00000280: 307c 783b 760f 00be e979 c13b 6457 9dbc
00000290: 7420 a33d 2adc 493e 01ca e3bc 4862 823c
000002a0: 685d 143e ae81 943d 48eb 46bc 787d af3d
000002b0: 5dd0 533e 5b30 85be 1e19 01bd e900 0dbd
000002c0: b913 053e 1908 183e 1ccc d1be 9868 4bbf
000002d0: 54c3 66bd d736 a5be 707f 963d 5410 d7be
000002e0: 1abf 383d ddcb 67bf 38a5 c33c 04f7 593e
000002f0: a988 0dbf b7df d1bd 702b 6bbe ff21 56bd
00000300: 3acf a3be 6f18 a43e 2eeb 0d3e 9c3a 94be
00000310: 49f7 69bd 9e0e 183c 87a7 123e 8d8a e1bc
00000320: 4425 1b3e 5052 293c 059d 9dbd 05b4 2bbe
00000330: 1fc4 0d3e 00d6 853e 5486 5f3e 5524 1fbe
00000340: cff4 dabe 7f02 06bc fd84 77bf 1f54 eabe
00000350: 4180 04bf 6d54 773c aea6 80be ebbe 833e
00000360: e5f8 96be 0de3 20be 1ff9 f9be e797 b3bc
00000370: 4ebe 413e 0397 3f3e 7c72 6a3e 1085 de3d
00000380: 8840 21bd 6fc1 b23e c694 4cbd 440c 80bc
00000390: 541e 003e 00af 37bf 2c73 113e 367f f6bd
000003a0: 8952 903e 592b c4bd ed7f 92bd b54e e9bd
000003b0: 944a acbe 126e 55bf 9e25 4abe bbaa 40bf
000003c0: e5cc 7ebc cca0 93be 6122 403e 7bfd 0b3d
000003d0: 9cb4 ecbd 7447 93bc bf92 683e 1b3b ecbd
000003e0: 07d1 9ebd 99a0 f9be 5aae f33d 62f0 18bf
000003f0: ade9 75be ccbc 04bd 349a 233f a53a 8abe

fc2.bias f4 [128]
-0.13254514 -0.38946974 -0.22116101 -0.18775289 -0.3411069 -0.26278892 -0.27645096 -0.2810423
-0.24282557 -0.2739058 -0.09671538 -0.3117227 -0.32310244 -0.3177438 -0.24220173 -0.18820728
0.13529909 -0.2956869 -0.17609885 -0.41549802 -0.2014799 -0.35822064 -0.09152788 -0.2083341
-0.14464007 -0.10939607 -0.22860205 -0.23382571 -0.2799396 -0.12494813 -0.23863772 -0.19927926
-0.29146677 -0.34180143 -0.32422534 -0.2367448 -0.29429066 -0.1544934 -0.04821112 -0.20382519
-0.025538972 -0.424233 -0.2808774 -0.07295907 -0.2645182 -0.1607842 -0.17178763 -0.23098715
0.039518207 -0.15186574 -0.30980694 -0.25099358 -0.3205235 -0.23685613 -0.13407455 -0.17077641
-0.121703565 -0.045278363 -0.12482105 -0.16799207 -0.11046382 -0.32494137 -0.3551678 0.021751828
-0.39352024 -0.3003414 -0.21054377 -0.21572329 -0.12878445 -0.20432386 -0.3667378 -0.31580228
-0.24966443 -0.2010839 -0.3354155 -0.27402416 -0.24260607 0.076440394 0.039842673 -0.045473613
-0.19475989 -0.15634869 -0.22895123 -0.26222825 -0.42039 0.2184588 -0.40566638 -0.026836695
-0.3763714 -0.14980432 -0.24490084 -0.09022752 -0.23903999 -0.17267826 -0.3266536 -0.11668141
-0.3023886 -0.20921157 -0.4068761 -0.16357449 -0.18661451 0.06339316 -0.20592457 -0.1591704
-0.19726184 -0.26732552 -0.15696296 -0.14568874 -0.19718249 -0.17359379 -0.025298124 -0.16441755
-0.062689476 -0.17413077 -0.12034568 -0.36385208 -0.30890995 -0.2033398 -0.13928372 -0.11037576
-0.21928087 -0.22685902 -0.21370609 -0.21394566 -0.23463368 -0.25527608 -0.18694854 -0.13470154
00000000: eab9 07be 9468 c7be 0878 62be 4b42 40be
00000010: 90a5 aebe 458c 86be fb8a 8dbe c7e4 8fbe
00000020: 44a7 78be 623d 8cbe b712 c6bd 1e9a 9fbe
00000030: af6d a5be 51af a2be bb03 78be 69b9 40be
00000040: d88b 0a3e 4664 97be 4253 34be 28bc d4be
00000050: bf50 4ebe b268 b7be f872 bbbd 8955 55be
00000060: 871c 14be 0c0b e0bd a816 6abe 0270 6fbe
00000070: 3e54 8fbe cee4 ffbd 725d 74be dd0f 4cbe
00000080: 223b 95be 9900 afbe dd00 a6be 3b6d 72be
00000090: 44ad 96be 8533 1ebe 0679 45bd 8db7 50be
000000a0: 1b37 d1bc 1135 d9be 2acf 8fbe 916b 95bd
000000b0: ee6e 87be 9da4 24be 19e9 2fbe e587 6cbe
000000c0: d8dd 213d b182 1bbe 049f 9ebe 3b82 80be
000000d0: a81b a4be 6a8a 72be d74a 09be 03e0 2ebe
000000e0: b83f f9bd ce75 39bd 2ea2 ffbd 1d06 2cbe
000000f0: db3a e2bd b75e a6be 8ed8 b5be e430 b23c
00000100: 7c7b c9be 59c6 99be c998 57be 91e6 5cbe
00000110: 12e0 03be 463a 51be 0fc5 bbbe d6b0 a1be
00000120: 08a8 7fbe f0e8 4dbe 95bb abbe e54c 8cbe
00000130: ba6d 78be c88c 9c3d 1232 233d 8a42 3abd
00000140: 236f 47be df19 20be 3172 6abe c842 86be
00000150: 5c3d d7be aab3 5f3e 81b3 cfbe a1d8 dbbc
00000160: c1b3 c0be 4e66 19be 49c7 7abe 35c9 b8bd
00000170: e6c6 74be 92d2 30be 243f a7be aaf6 eebd
00000180: aed2 9abe 8f3b 56be 1052 d0be 1280 27be
00000190: e017 3fbe 46d4 813d e4dd 52be 91fd 22be
000001a0: 02ff 49be e4de 88be e6ba 20be 6e2f 15be
000001b0: 35ea 49be 92c2 31be 033e cfbc 135d 28be
000001c0: 5763 80bd 564f 32be cc77 f6bd d24a babe
000001d0: 7229 9ebe 4f38 50be 64a0 0ebe b00c e2bd
000001e0: 2a8b 60be bb4d 68be c5d5 5abe 9214 5bbe
000001f0: d043 70be 8cb3 82be 706f 3fbe 33ef 09be

fc3.weight f4 [1, 128]
0.05767041 0.044082157 0.05431345 0.03261308 0.10813888 -0.0029502686 -0.025624411 0.04478504
-0.07603017 -0.16247195 -0.02177887 -0.21518932 -0.066120416 0.08734626 -0.05913366 -0.120171756
0.030505758 -0.0350411 0.048273876 0.11449369 -0.071183585 -0.07655139 0.06512991 0.04220261
-0.06542536 -0.040281534 -0.06131771 0.038340192 0.036628783 -0.030046292 -0.06893991 -0.10842248
0.00020791845 -0.059972472 0.26687124 0.021667633 0.029275754 -0.035116814 -0.033630572 -0.084162585
0.035138078 0.02829293 -0.023615403 -0.041151717 0.07233367 0.04229179 0.06163318 -0.029058617
0.021303074 0.03789804 0.0024671725 -0.05741916 -0.0982046 0.0010610096 0.026371144 -0.024818435
0.029767131 -0.03902839 -0.0046174405 -0.030996611 -0.015879037 -0.14522739 0.078546904 0.03500557
-0.08591554 -0.14640595 0.011532171 -0.0516372 -0.00461627 0.034214854 -0.14187536 -0.09524384
0.025278151 0.028902126 -0.035046406 -0.2914367 -0.014772923 -0.030282114 0.03186424 0.031862155
-0.06806485 0.008150677 0.11961757 -0.11059014 0.08715185 0.049819317 -0.07234268 0.018110687
0.032165516 0.14972128 0.047367703 -0.0076972973 0.08259801 -0.0052141417 -0.06308241 0.017650349
0.063005485 -0.14201027 0.10506209 -0.0013875059 -0.02889955 0.042381134 0.12822102 0.022905832
-0.11829551 0.11299761 0.088266686 0.023391314 0.020666512 0.02098756 -0.07552615 0.13383126
0.023254009 -0.020205364 0.08149002 0.06187618 0.064142354 -0.14734885 -0.0019738963 0.03457083
-0.073776394 0.011475865 0.073314406 0.010727273 -0.14085731 -0.060197644 -0.008365416 -0.056447946
00000000: cf37 6c3d 7e8f 343d c877 5e3d 4b95 053d
00000010: eb77 dd3d 4b59 41bb 49ea d1bc 8570 373d
00000020: b5b5 9bbd 0c5f 26be 9a69 b2bc 975a 5cbe
00000030: 246a 87bd 99e2 b23d 2336 72bd 9c1c f6bd
00000040: 36e7 f93c 4287 0fbd d4ba 453d ab7b ea3d
00000050: b3c8 91bd fac6 9cbd d562 853d a5dc 2c3d
00000060: bbfd 85bd 40fe 24bd 4728 7bbd 9b0a 1d3d
00000070: 1008 163d a423 f6bc 5e30 8dbd 9b0c debd
00000080: af04 5a39 b2a5 75bd 59a3 883e 5280 b13c
00000090: b5d3 ef3c a6d6 0fbd 36c0 09bd 6f5d acbd
000000a0: f2ec 0f3d 93c6 e73c 1775 c1bc b48e 28bd
000000b0: ad23 943d 283a 2d3d 1373 7c3d 560c eebc
000000c0: c983 ae3c fa3a 1b3d 49b0 213b 5a30 6bbd
000000d0: 7e1f c9bd 9311 8b3a 4c08 d83c 0850 cbbc
000000e0: 33da f33c 3cdc 1fbd e64d 97bb 9bec fdbc
000000f0: c114 82bc 7db6 14be 33dd a03d 0062 0f3d
00000100: 7df4 afbd 71eb 15be 6ef1 3c3c 8781 53bd
00000110: 1444 97bb e024 0c3d c647 11be 340f c3bd
00000120: 2014 cf3c 27c4 ec3c d28c 0fbd 3137 95be
00000130: 210a 72bc 3212 f8bc 1484 023d e481 023d
00000140: 9665 8bbd 6b8a 053c 0efa f43d 157d e2bd
00000150: ab7c b23d 570f 4c3d 6628 94bd dd5c 943c
00000160: fdbf 033d 8950 193e a304 423d 9c39 fcbb
00000170: 2529 a93d 64db aabb 5a31 81bd 7797 903c
00000180: 0509 813d 246b 11be cb2a d73d f9dc b5ba
00000190: c0be ecbc d797 2d3d 5f4c 033e 03a5 bb3c
000001a0: eb44 f2bd 4a6b e73d 2ac5 b43d 249f bf3c
000001b0: d14c a93c 1aee ab3c 74ad 9abd 100b 093e
000001c0: 317f be3c b885 a5bc 3de4 a63d e171 7d3d
000001d0: 115d 833d 9ee2 16be 7c5c 01bb 259a 0d3d
000001e0: 1418 97bd 4405 3c3c dd25 963d 72c1 2f3c
000001f0: e63c 10be ce91 76bd 190f 09bc f635 67bd
