results/checkpoint_actor.pth (torch_old, 166234 bytes, 14 tensors)

fc1.weight f4 [256, 24]
-0.057366114 -0.13136716 0.049300063 0.17554305 -0.086970635 -0.19376872 -0.12059685 0.04300234
-0.023724291 -0.3338387 0.18119958 -0.0976547 0.2109641 0.051554304 -0.07651104 0.11475723
-0.095649496 -0.32007536 -0.0051061227 -0.16902259 -0.11409303 0.21666095 -0.11177338 0.1527859
-0.049451955 -0.15486695 -0.18088283 0.061449293 0.06947118 0.036441397 0.15537648 -0.05696057
0.13724965 0.14445196 -0.010515499 0.14616594 0.19324957 0.17990357 0.054348245 -0.033800066
0.15589908 -0.16240299 -0.012550604 0.19473869 0.2876228 0.047099262 -0.014780755 0.058349293
-0.080268785 -0.103288226 0.02472449 0.23105407 -0.085337386 -0.12724087 -0.10956409 0.25987253
-0.17817716 -0.007195461 0.18795411 -0.057471722 0.1953667 0.16186059 0.046214018 0.19093713
-0.08971914 -0.09240382 0.0018467031 -0.073346704 0.23567672 -0.014853809 0.05175578 -0.16947927
-0.15884505 0.4140599 0.0779311 0.063917525 0.17227869 -0.21061422 -0.07838385 0.025650581
0.13866118 0.26050386 -0.10088239 0.034736846 -0.065323114 -0.22238705 0.07824266 0.13408907
-0.0744666 0.047816664 0.121349335 -0.16722894 0.04219435 -0.18071401 -0.1352508 -0.16448592
-0.07532692 -0.016572848 -0.10544892 -0.14458078 -0.16281487 -0.116523415 -0.029892681 0.08947167
-0.06028782 -0.17041557 0.13396172 -0.03140981 -0.09652587 -0.12341855 0.02935959 0.03840746
0.15026219 0.07472324 0.09784595 0.072038546 -0.23532468 0.28701168 -0.0692173 -0.07458963
-0.21038513 0.061309367 0.11817842 -0.1141396 -0.13432781 -0.09326059 -0.054642033 -0.17957567
-0.03992787 0.07304614 0.06510372 0.075147584 0.13479428 0.0016299458 0.16944249 -0.15232861
-0.092042655 0.25675204 0.07281373 0.15905105 0.032345694 0.010370493 0.054967016 0.21823297
-0.1610608 0.14946362 -0.06311159 -0.13350761 0.13521615 -0.07311931 -0.07857914 -0.27048382
0.08382601 -0.060787376 -0.021255242 -0.24517143 -0.06271404 -0.10429677 -0.14194757 0.09248643
-0.22981042 -0.1586344 0.049929634 -0.19911814 0.07419849 0.17452613 -0.18602337 -0.17319258
0.1477517 -0.10993793 0.14679445 0.11775379 0.18078084 0.16780233 -0.13814573 0.14240544
0.05419023 -0.081733845 0.0056793564 0.055132788 0.01483612 -0.020363534 0.036737926 0.17669426
0.09588477 -0.07299457 0.14424108 0.027923722 0.057858605 -0.16666715 0.19222336 0.0738067
-0.13065147 0.11958096 -0.01648149 -0.112051934 0.16852534 0.19364978 0.008762945 0.10705223
0.088488124 0.2893164 0.13766553 0.1539474 0.11891279 0.09963956 -0.15762205 -0.200243
0.08750522 -0.018897967 0.08451459 -0.15906969 -0.29191068 0.031964276 -0.0901318 0.13948552
-0.10687122 -0.020243634 -0.008216835 -0.06254337 -0.29850325 -0.22812754 0.014581643 0.11175322
0.056355614 0.083541565 -0.035438217 -0.11580289 -0.01156752 -0.21716405 0.047120176 0.17406031
-0.11382789 -0.13597661 -0.13252814 0.01222894 0.15870605 -0.14846943 0.15907174 0.12038155
-0.004717771 -0.3035783 0.0036976254 -0.15173565 -0.06411112 -0.17329149 0.146274 -0.19267473
-0.05290495 -0.046445336 0.050145146 0.17904525 0.13577922 0.09034991 0.07645946 0.067898
00000000: bbf8 6abd 1d85 06be ddee 493d 8fc1 333e
00000010: a91d b2bd 4f6b 46be 7bfb f6bd 3923 303d
00000020: 7259 c2bc e8ec aabe 628c 393e 30ff c7bd
00000030: f906 583e 9b2a 533d d2b1 9cbd d705 eb3d
00000040: e2e3 c3bd ebe0 a3be 4351 a7bb 4214 2dbe
00000050: 9ba9 e9bd 5edc 5d3e 71e9 e4bd e873 1c3e
00000060: 228e 4abd 7195 1ebe 5939 39be 41b2 7b3d
00000070: e846 8e3d 9343 153d 031b 1f3e 7d4f 69bd
00000080: 2c8b 0c3e 37eb 133e 3349 2cbc 86ac 153e
00000090: 37e3 453e a438 383e 449c 5e3d f071 0abd
000000a0: 02a4 1f3e f84c 26be 0ca1 4dbc 9469 473e
000000b0: 4c43 933e 28eb 403d fb2a 72bc abff 6e3d
000000c0: f663 a4bd c788 d3bd 038b ca3c 7099 6c3e
000000d0: 5ec5 aebd 6e4b 02be 2363 e0bd 030e 853e
000000e0: 1374 36be e7c7 ebbb 0b77 403e 7867 6bbd
000000f0: 350e 483e c8be 253e e94a 3d3d 0685 433e
00000100: abbe b7bd 373e bdbd 130d f23a cc36 96bd
00000110: 3d55 713e 645d 73bc defd 533d f98b 2dbe
00000120: 47a8 22be a9ff d33e 579a 9f3d 31e7 823d
00000130: d369 303e 41ab 57be b687 a0bd 2b21 d23c
00000140: 32fd 0d3e c360 853e 6d9b cebd 3948 0e3d
00000150: 20c8 85bd 6eb9 63be b03d a03d a54e 093e
00000160: f281 98bd 68db 433d 0086 f83d 103e 2bbe
00000170: fcd3 2c3d 180d 39be 307f 0abe ff6e 28be
00000180: 0045 9abd c8c3 87bc 9af5 d7bd fc0c 14be
00000190: f1b8 26be d4a3 eebd 7fe1 f4bc ec3c b73d
000001a0: 5cf0 76bd 6b81 2ebe 432d 093e 93a7 00bd
000001b0: 5baf c5bd ddc2 fcbd 8683 f03c 2451 1d3d
000001c0: 55de 193e 8008 993d 7563 c83d f288 933d
000001d0: f4f8 70be 32f3 923e cdc1 8dbd 73c2 98bd
000001e0: 336f 57be 881f 7b3d 8707 f23d 06c2 e9bd
000001f0: 3b8d 09be 69ff bebd 53d0 5fbd afe2 37be
00000200: 688b 23bd 3799 953d 1955 853d fae6 993d
00000210: 8307 0a3e e8a3 d53a 5582 2d3e 08fc 1bbe
00000220: dc80 bcbd 0175 833e 5d1f 953d 47de 223e
00000230: eb7c 043d 00e9 293c 1825 613d 7778 5f3e
00000240: 1fed 24be fe0c 193e a640 81bd 38b6 08be
00000250: 1a76 0a3e 94bf 95bd 1aee a0bd db7c 8abe
00000260: f9ac ab3d 2ffc 78bd 791f aebc 380e 7bbe
00000270: 3870 80bd 8c99 d5bd b45a 11be 8769 bd3d
00000280: 6c53 6bbe 0e71 22be 0483 4c3d a0e5 4bbe
00000290: 61f5 973d fab6 323e e97c 3ebe 6559 31be
000002a0: 394c 173e 2327 e1bd 4951 163e e628 f13d
000002b0: 9d1e 393e 60d4 2b3e 1376 0dbe bbd2 113e
000002c0: 93f6 5d3d 1364 a7bd e519 ba3b ebd2 613d
000002d0: 3313 733c 6dd1 a6bc 827a 163d 57ef 343e
000002e0: 3c5f c43d 2d7e 95bd efb3 133e 4ac0 e43c
000002f0: 25fd 6c3d cbaa 2abe 33d6 443e f827 973d
00000300: 80c9 05be dde6 f43d 3104 87bc 7c7b e5bd
00000310: e891 2c3e 214c 463e 7592 0f3c 333e db3d
00000320: 4339 b53d 4721 943e 31f8 0c3e 63a4 1d3e
00000330: 8d88 f33d d30f cc3d ad67 21be 800c 4dbe
00000340: f035 b33d e9cf 9abc fc15 ad3d 2ae3 22be
00000350: 5175 95be f9ec 023d 0597 b8bd 4bd5 0e3e
00000360: 4cdf dabd fad5 a5bc e79f 06bc bd16 80bd
00000370: 6bd5 98be 449a 69be d8e7 6e3c dfde e43d
00000380: 25d5 663d d717 ab3d aa27 11bd 112a edbd
00000390: b285 3dbc 4160 5ebe 1601 413d de3c 323e
000003a0: 991e e9bd 743d 0bbe 75b5 07be e45b 483c
000003b0: d783 223e 5f08 18be b4e3 223e 9a8a f63d
000003c0: 8897 9abb 9d6e 9bbe dc53 723b 9760 1bbe
000003d0: b14c 83bd 5373 31be dac8 153e 864c 45be
000003e0: dcb2 58bd 773d 3ebd ff64 4d3d a357 373e
000003f0: b509 0b3e 6009 b93d c796 9c3d 1b0e 8b3d

fc1.bias f4 [256]
0.06265843 -0.29855755 0.09333083 -0.13531354 0.25843167 0.24630664 0.09762507 -0.14810681
-0.12111247 0.11962052 -0.21657477 0.1387274 -0.025772981 -0.08481822 -0.06194876 0.08333878
0.14042705 -0.26941442 0.00051970436 -0.10970038 -0.24769628 -0.07912976 -0.062087778 -0.10008574
0.17077067 0.09296907 0.084687226 0.13071406 -0.124151334 0.13547693 -0.23112433 -0.18142618
-0.03191355 0.22049177 0.12312908 -0.1789807 -0.18936138 0.123460785 0.15486717 -0.1694056
0.15746802 -0.025588114 -0.09364216 0.08046183 0.035862666 -0.058435835 -0.09213883 0.11423493
0.092781164 0.21367404 0.06302651 0.12683238 -0.04243086 -0.12477812 0.21026291 0.11350458
0.08930727 -0.09380008 -0.047392566 0.054767452 -0.18575047 0.08385607 -0.12542449 -0.23146906
0.07488627 -0.08818764 -0.18200497 0.2102877 -0.104354255 -0.061569422 -0.23446034 -0.16505542
-0.241114 -0.14041086 -0.13246197 -0.03714305 -0.0060766367 -0.06862472 -0.16575849 0.08143177
-0.12810946 0.13724132 -0.05405749 0.04143651 -0.004792839 0.037899245 -0.19432938 0.09127572
0.0965087 -0.010743565 0.15648815 0.14201625 -0.11948723 0.094508804 0.26044542 -0.041972283
-0.15880248 -0.12184535 -0.026162429 0.05643238 0.12858339 0.064830095 -0.22343552 0.03628736
0.07897782 0.1865605 -0.070695385 0.031060843 0.17392458 -0.21005106 -0.13344663 -0.114078924
-0.08352507 -0.1439717 -0.18790905 0.15764715 -0.00029929902 0.17375347 -0.09523354 -0.032879487
0.06764934 0.057617098 -0.12868589 0.1676329 -0.0043837125 0.048507754 0.1444598 -0.07255318
0.1186254 -0.05605797 0.18958731 -0.095779985 0.091687076 -0.22542946 0.23263624 0.015532532
-0.1813324 -0.09833455 0.07216359 0.01947286 -0.19258115 0.10996847 -0.12442559 0.13901621
-0.002184713 -0.255288 -0.0921973 -0.07131851 -0.05687089 -0.0981374 0.1736717 -0.073752545
0.12278055 -0.23254578 0.07574924 -0.077248596 -0.10758709 0.079969615 -0.14405489 0.21128163
0.039447214 0.21268572 -0.12787904 -0.07898719 -0.033571813 -0.17000808 0.1304787 -0.004949247
0.021581963 -0.24199381 0.085862055 0.19530122 -0.10849254 -0.24307111 -0.018169936 0.15548505
-0.16309315 -0.112209566 0.13521281 0.038546614 0.19427253 0.15109259 0.11542403 -0.0934607
0.11801655 0.09230341 0.14970718 -0.11340291 0.07306518 0.17984037 0.062257823 -0.013812265
-0.1340203 -0.045296025 0.10750877 -0.050043035 -0.24436595 -0.017485356 -0.24312104 -0.150682
0.14562456 -0.103451855 0.07306574 -0.017985372 -0.21080667 -0.07899449 0.03586373 0.019082807
0.047216825 0.019084368 -0.1777045 0.11703871 -0.004205216 -0.16212021 -0.010495478 0.04517528
-0.044187784 -0.1061332 0.119015455 0.0775398 0.09129629 -0.026535124 0.03053273 0.12127001
-0.06666335 0.011930052 -0.05086228 -0.20865947 -0.15440828 0.12810992 -0.00869932 0.14359011
0.09190559 0.105660565 -0.010782413 -0.04512731 -0.0031486198 -0.22113715 -0.04126917 0.21655639
-0.11608878 -0.066761896 -0.15419295 0.011329235 -0.11307855 0.13089527 0.093521476 0.029743044
-0.07030246 -0.049846202 -0.09590704 -0.053409997 0.091394976 -0.02055981 0.018178618 -0.14660214
00000000: 1053 803d 89dc 98be 3c24 bf3d a28f 0abe
00000010: 2851 843e cf37 7c3e a7ef c73d 50a9 17be
00000020: d109 f8bd 9afb f43d c7c5 5dbe 8e0e 0e3e
00000030: dc21 d3bc 2db5 adbd fcbd 7dbd 86ad aa3d
00000040: 1ccc 0f3e b0f0 89be c53c 083a 98aa e0bd
00000050: 18a4 7dbe c90e a2bd c14f 7ebd c1f9 ccbd
00000060: 82de 2e3e 9166 be3d 7f70 ad3d e8d9 053e
00000070: 0e43 febd 77ba 0a3e dbab 6cbe c9c7 39be
00000080: c8b7 02bd 98c8 613e 192b fc3d b746 37be
00000090: f3e7 41be 02d9 fc3d 8095 1e3e a978 2dbe
000000a0: 4c3f 213e 2a9e d1bc 76c7 bfbd 2cc9 a43d
000000b0: bbe4 123d 6a5a 6fbd 48b3 bcbd 01f4 e93d
000000c0: 0d04 be3d 5ecd 5a3e 0b14 813d 59e0 013e
000000d0: fbcb 2dbd ac8b ffbd 294f 573e 1775 e83d
000000e0: bbe6 b63d 421a c0bd b51e 42bd d653 603d
000000f0: 5f35 3ebe bbbc ab3d 476f 00be 3a06 6dbe
00000100: f95d 993d b99b b4bd 835f 3abe a955 573e
00000110: afb7 d5bd 3830 7cbd 5f16 70be 4a04 29be
00000120: 97e6 76be ddc7 0fbe 1ca4 07be 5023 18bd
00000130: 861e c7bb 1e8b 8cbd 98bc 29be b3c5 a63d
00000140: 202f 03be fd88 0c3e 636b 5dbd 54b9 293d
00000150: 3f0d 9dbb 3d3c 1b3d 48fe 46be c4ee ba3d
00000160: 5aa6 c53d c705 30bc 6e3e 203e b56c 113e
00000170: b9b5 f4bd d58d c13d 1a59 853e 21eb 2bbd
00000180: 1e9d 22be 0e8a f9bd 9752 d6bc a425 673d
00000190: 5dab 033e a4c5 843d 48cc 64be 0ea2 143d
000001a0: 20bf a13d b709 3f3e bec8 90bd 4f73 fe3c
000001b0: 4919 323e a017 57be 3ca6 08be 36a2 e9bd
000001c0: 310f abbd 516d 13be 3b6b 40be 416e 213e
000001d0: 3ceb 9cb9 6eec 313e cd09 c3bd a4ac 06bd
000001e0: bd8b 8a3d e8ff 6b3d 3cc6 03be f5a7 2b3e
000001f0: 3fa5 8fbb 11b0 463d 45ed 133e c396 94bd
00000200: e0f1 f23d 0b9d 65bd 2d23 423e 4c28 c4bd
00000210: 6fc6 bb3d fbd6 66be 3238 6e3e 297c 7e3c
00000220: 33af 39be a063 c9bd 81ca 933d 8c85 9f3c
00000230: fe33 45be 2637 e13d d8d2 febd 445a 0e3e
00000240: 672d 0fbb 1cb5 82be f0d1 bcbd 700f 92bd
00000250: 73f1 68bd 43fc c8bd fed6 313e 930b 97bd
00000260: 5e74 fb3d 7b20 6ebe 6b22 9b3d 8334 9ebd
00000270: 9f56 dcbd 1cc7 a33d 2083 13be 365a 583e
00000280: 6793 213d 49ca 593e b9f2 02be 09c4 a1bd
00000290: 9982 09bd 9916 2ebe 359c 053e 4b2d a2bb
000002a0: a8cc b03c 3acd 77be 72d8 af3d 0bfd 473e
000002b0: 5631 debd a2e7 78be 1ed9 94bc 7937 1f3e
000002c0: e401 27be 21ce e5bd 3a75 0a3e 0ee3 1d3d
000002d0: 61ef 463e 04b8 1a3e 6f63 ec3d 5368 bfbd
000002e0: a9b2 f13d 9209 bd3d d74c 193e c93f e8bd
000002f0: 32a3 953d 1328 383e 0f02 7f3d d74c 62bc
00000300: 9e3c 09be 5388 39bd 8f2d dc3d edf9 4cbd
00000310: 113b 7abe 733d 8fbc b9f4 78be 624c 1abe
00000320: 9b1e 153e 91de d3bd 7ea3 953d 0f56 93bc
00000330: b4dd 57be ddc7 a1bd d9e5 123d 8c53 9c3c
00000340: 6e66 413d d256 9c3c 2bf8 35be feb1 ef3d
00000350: e9cb 89bb d702 26be 3af5 2bbc b709 393d
00000360: 40fe 34bd 5d5c d9bd 60be f33d 30cd 9e3d
00000370: 8df9 ba3d 3060 d9bc c71f fa3c 695c f83d
00000380: cb86 88bd 4476 433c f754 50bd d4aa 55be
00000390: 341d 1ebe 3f2f 033e 9887 0ebc 4909 133e
000003a0: ff38 bc3d 9164 d83d b8a8 30bc 6ad7 38bd
000003b0: 1359 4ebb c771 62be dc09 29bd f5c0 5d3e
000003c0: f4bf edbd 76ba 88bd c2e4 1dbe 419e 393c
000003d0: ba95 e7bd 6909 063e 3088 bf3d afa7 f33c
000003e0: bcfa 8fbd 882b 4cbd e96a c4bd 71c4 5abd
000003f0: 4a2d bb3d 0c6d a8bc 53eb 943c df1e 16be

bn1.weight f4 [256]
0.66815567 0.3298885 0.67744094 0.80448526 0.6333224 0.7430153 0.39412144 0.6890583
0.9081307 0.48443168 0.14637432 0.88858944 0.66551965 0.5849854 0.44721073 0.26668605
0.5527783 0.22574791 0.5269585 0.707913 0.71367 0.8392099 0.12083202 0.07958846
0.10896522 0.08401151 0.09294515 0.35954714 0.21719207 0.626252 0.2902052 0.5276379
0.32031643 0.7180166 0.11162832 0.55777216 0.3007166 0.14299726 0.254511 0.87327105
0.43947875 0.7682295 0.776278 0.36817265 0.56206775 0.6189902 0.8138104 0.27168298
0.6273741 0.49452823 0.76773864 0.8150445 0.5132191 0.294805 0.39076927 0.4157218
0.2906095 0.4837236 0.71622056 0.69387114 0.28101617 0.10151467 0.5553817 0.13459769
0.43384582 0.32715243 0.359505 0.36340687 0.49076593 0.79435104 0.62658143 0.56353146
0.33029163 0.23064974 0.52776116 0.32033187 0.47406507 0.2741379 0.47605252 0.24833971
0.13520835 0.31722394 0.4209628 0.12822351 0.73405933 0.6148862 0.23283437 0.4001132
0.4979624 0.72470933 0.13664904 0.6051424 0.6530409 0.559734 0.432828 0.33443066
0.75150514 0.32176346 0.5898043 0.6254234 0.34993964 -0.19545938 0.84436446 0.46108225
0.8041612 0.019663123 0.38397428 0.19160502 0.859496 0.079476714 0.5691148 0.58437383
0.36110556 0.5821975 0.097908154 0.5702575 0.5608048 0.5591326 0.56091774 0.4790267
0.38321596 0.78540796 0.60926044 0.7769199 0.14040715 0.21326013 -0.013669671 0.2861164
0.7461834 0.53980976 0.58265877 0.36529285 0.40347376 0.8213437 0.23583205 0.18203072
0.5237576 0.62359583 0.65680486 0.40027314 0.2659126 0.4743962 0.4929893 0.61884075
0.7117771 0.72590804 0.56514007 0.18655148 0.6698585 0.44118068 0.04112799 0.33366817
0.5262242 0.5797122 0.18826902 0.25203168 0.35082212 0.37878186 0.46668333 0.68621594
0.63229966 0.62000793 0.73693323 0.35853824 0.27185252 0.019689849 0.36359873 0.8177891
0.26573566 0.38085535 0.751213 0.5366713 0.872621 0.47290534 0.34580576 0.58398855
1.0310378 0.64228266 0.4607364 0.867384 0.053368483 0.81797713 0.10459909 0.6677163
0.8444794 0.5434393 0.5417583 0.28632852 0.37773997 0.11535668 0.4758979 0.6747263
0.38653585 0.1704578 0.06744292 0.76569563 0.46955112 0.51211566 0.6534806 0.20047191
0.55967325 0.24039781 0.55369395 0.5893723 0.26713923 0.55636615 0.6686561 0.33220607
0.08503988 0.22103295 0.38190898 0.13483821 0.5291853 0.55971646 0.31592077 0.1416849
0.17776889 0.64243084 0.59974045 0.7341247 0.1804999 0.7300201 0.20061381 0.3420693
0.15238605 0.37633 0.47457474 0.45689258 0.7670645 0.7473408 0.6692485 0.753147
0.5466286 0.8466949 0.22174181 0.88187426 0.8511321 0.52614313 0.13711208 0.81666076
0.44989017 0.31887355 0.08613892 0.8101808 0.84139764 0.29242542 0.3081127 0.37012675
0.15456331 0.20835494 0.15849711 0.54974943 0.31137308 0.5948924 0.24306096 0.55909544
00000000: 400c 2b3f 25e7 a83e c56c 2d3f bff2 4d3f
00000010: 6b21 223f 4036 3e3f 49ca c93e 2066 303f
00000020: 417b 683f 6e07 f83e 26e3 153e 997a 633f
00000030: 7f5f 2a3f 9ac1 153f cef8 e43e 138b 883e
00000040: e182 0d3f 762a 673e c1e6 063f c939 353f
00000050: 14b3 363f 76d6 563f c776 f73d 46ff a23d
00000060: 2829 df3d 3a0e ac3d 075a be3d 9016 b83e
00000070: 9967 5e3e 0d52 203f c795 943e 4713 073f
00000080: 8400 a43e f0cf 373f 639d e43d 28ca 0e3f
00000090: 87f7 993e e06d 123e 444f 823e b18e 5f3f
000000a0: 5c03 e13e b0aa 443f 28ba 463f 2081 bc3e
000000b0: ace3 0f3f 2476 1e3f e155 503f 081a 8b3e
000000c0: 979b 203f ce32 fd3e 858a 443f c2a6 503f
000000d0: 5462 033f aef0 963e e912 c83e 7dd9 d43e
000000e0: c5ca 943e 9faa f73e 3b5a 373f 8aa1 313f
000000f0: 5ae1 8f3e ece6 cf3d 7f2d 0e3f fad3 093e
00000100: 0a21 de3e 8680 a73e 0a11 b83e 7710 ba3e
00000110: ac45 fb3e 975a 4b3f a467 203f 9943 103f
00000120: fc1b a93e 722f 6c3e 5b1b 073f 8a02 a43e
00000130: a8b8 f23e ce5b 8c3e 28bd f33e c44c 7e3e
00000140: 0f74 0a3e 2d6b a23e 7088 d73e 064d 033e
00000150: 50eb 3b3f 2f69 1d3f 226c 6e3e a3db cc3e
00000160: edf4 fe3e 8d86 393f baed 0b3e 9dea 1a3f
00000170: b02d 273f ba4a 0f3f a29b dd3e 7f3a ab3e
00000180: a462 403f 2ebe a43e 6afd 163f bf1b 203f
00000190: 4a2b b33e 8126 48be 4528 583f f912 ec3e
000001a0: 82dd 4d3f 8f14 a13c 4798 c43e 1b34 443e
000001b0: ee07 5c3f b0c4 a23d 82b1 113f 8699 153f
000001c0: d4e2 b83e e50a 153f 1284 c83d 65fc 113f
000001d0: e790 0f3f 5023 0f3f 4e98 0f3f fd42 f53e
000001e0: e234 c43e 7f10 493f 7ef8 1b3f 39e4 463f
000001f0: e4c6 0f3e dd60 5a3e c1f6 5fbc d97d 923e
00000200: e005 3f3f f930 0a3f 2029 153f aa07 bb3e
00000210: 1d94 ce3e 9543 523f f57d 713e 4366 3a3e
00000220: fa14 063f faa3 1f3f 5d24 283f 9af0 cc3e
00000230: b225 883e 0fe4 f23e 1869 fc3e 596c 1e3f
00000240: 0637 363f 1cd5 393f 05ad 103f 5a07 3f3e
00000250: d97b 2b3f 6fe2 e13e d375 283d 8ed6 aa3e
00000260: a1b6 063f 0568 143f 98c9 403e 4c0a 813e
00000270: f59e b33e b2ef c13e 1ef1 ee3e d9ab 2f3f
00000280: 64de 213f d7b8 1e3f a8a7 3c3f 5392 b73e
00000290: 4130 8b3e 9b4c a13c 9d29 ba3e a05a 513f
000002a0: 810e 883e 79ff c23e 7f4f 403f 4a63 093f
000002b0: 1764 5f3f a620 f23e 740d b13e 4680 153f
000002c0: 0cf9 833f a36c 243f a4e5 eb3e e10c 5e3f
000002d0: e998 5a3d f366 513f 0c38 d63d 75ef 2a3f
000002e0: cd2f 583f d71e 0b3f acb0 0a3f a799 923e
000002f0: 2267 c13e 1f40 ec3d e4a8 f33e ddba 2c3f
00000300: 07e8 c53e 7d8c 2e3e 831f 8a3d a104 443f
00000310: 0169 f03e 031a 033f 814a 273f 8248 4d3e
00000320: bf46 0f3f d82a 763e e3be 0d3f 1ae1 163f
00000330: 79c6 883e 036e 0e3f 0c2d 2b3f ea16 aa3e
00000340: 6329 ae3d 7656 623e 9389 c33e 0713 0a3e
00000350: b078 073f 9449 0f3f 5ec0 a13e d915 113e
00000360: 0c09 363e 5976 243f 9788 193f 99ef 3b3f
00000370: f7d4 383e 99e2 3a3f b56d 4d3e b523 af3e
00000380: 170b 1c3e 53ae c03e 76fb f23e d3ed e93e
00000390: 575e 443f ba51 3f3f df53 2b3f 3ece 403f
000003a0: daef 0b3f ffc0 583f 4910 633e 83c2 613f
000003b0: cbe3 593f 51b1 063f 1c67 0c3e ae10 513f
000003c0: 0158 e63e 6543 a33e 9a69 b03d 0268 4f3f
000003d0: d665 573f c9b8 953e f3c0 9d3e 4181 bd3e
000003e0: d845 1e3e ff5a 553e 114d 223e 61bc 0c3f
000003f0: 4b6c 9f3e de4a 183f f9e4 783e e120 0f3f

bn1.bias f4 [256]
0.17411593 0.07306879 0.18198779 0.1944882 0.09787641 -0.020860108 0.101582 0.033657957
0.11188145 0.106245585 0.22234401 -0.034656573 0.18032908 -0.057865206 0.0020684656 -0.03853099
0.14663509 -0.02147155 0.13429661 -0.15054168 -0.06366274 0.046693273 0.18477634 0.27658993
-0.19157994 0.31322634 -0.0130656855 0.06707339 -0.055506524 -0.07366479 -0.1440239 0.18346143
0.18810886 0.10498624 -0.09055454 0.11029909 0.15312184 -0.01630342 0.13505743 -0.110365234
-0.023415603 0.14366648 -0.11504358 0.0047627236 0.0806333 -0.035724122 0.11492053 0.11189011
0.0029894128 -0.10408583 0.16387694 0.11946494 0.0803509 0.046057485 -0.014025087 0.09716087
-0.063631214 0.09460683 -0.09220108 -0.21229613 0.16813354 0.291947 0.20204443 0.33321655
0.13104743 0.025756272 0.037922867 -0.06393138 -0.015253976 -0.08623073 0.06710659 -0.06559193
0.30705592 0.022158599 0.17400263 0.06804329 0.04936727 -0.10987073 0.1041723 0.16896944
0.080713786 0.03648638 0.048204977 0.09553746 -0.043346766 0.05956011 -0.069087304 -0.14982902
-0.016037699 -0.11294714 0.1016176 0.047632374 -0.009083237 0.05659625 -0.15076767 0.033611026
0.025087997 0.08324881 0.1286316 -0.0073942416 0.01327809 -0.34181648 0.12879114 0.14247954
-0.06477412 -0.30530658 0.1171774 0.12574184 -0.15542637 -0.1311129 -0.16418183 0.1442541
0.13649048 -0.03454402 0.076995485 0.14905153 0.041801415 0.030030932 0.12438698 -0.06500287
-0.2019408 -0.07505445 0.13214073 0.08290126 0.18334359 -0.26355156 0.2582645 0.11677064
-0.10241809 0.05381847 0.16403587 0.013543708 0.16783915 0.17782405 -0.12209809 -0.08308869
0.23343286 0.06946995 0.06761911 0.16747439 0.07082078 0.13908435 0.081999004 0.12426459
-0.011969879 0.020079732 0.05552606 0.1547388 0.15952331 -0.14144693 -0.28847614 0.121297084
0.101964414 0.17986818 0.015632587 -0.21313527 0.18507971 -0.08260493 0.15764423 0.00028282372
0.03921837 -0.0018151491 0.07246446 0.1553416 0.04702314 -0.19020826 0.17463173 -0.034612376
0.03278549 0.19377217 0.04625634 -0.012585 -0.043335102 0.12703933 -0.044902794 0.1120765
0.0020941012 0.013883543 -0.053287856 -0.12979315 -0.2695581 -0.06800883 0.0013572319 0.089580156
0.053244468 0.04767806 0.0070336103 0.101084664 0.19285688 0.27838182 0.03296484 0.16660579
0.13174272 -0.15649997 -0.092262596 0.121096976 0.1591937 -0.0037758453 -0.025433052 0.027275523
0.15848204 0.006261432 -0.00013922574 0.04750897 0.15129198 0.1431094 -0.1372049 0.10293423
0.2837785 -0.05140282 0.18479565 0.31494054 0.082134165 0.115787715 0.1737258 0.13800761
0.21331257 -0.19109182 0.17534108 0.14213209 -0.21940504 -0.03366158 0.124652065 0.14629067
-0.20130132 0.1937509 0.029805614 -0.02910007 0.20276016 0.077440254 0.039284743 -0.097410426
-0.036715303 0.08730429 0.16568327 0.010705323 0.18216124 -0.10122524 -0.049372893 -0.08810089
0.038936943 0.2146189 0.113294795 -0.0051573566 -0.1097734 0.15308583 0.08354718 0.01747949
0.0664028 -0.0013974376 -0.090383805 0.016225794 -0.020272704 0.060062118 -0.08501448 0.18345131
00000000: 724b 323e 17a5 953d 025b 3a3e ea27 473e
00000010: 6d73 c83d d1e2 aabc 390a d03d eddc 093d
00000020: 1a22 e53d 4997 d93d 26ae 633e 0df4 0dbd
00000030: 30a8 383e 1104 6dbd 188f 073b acd2 1dbd
00000040: 8227 163e 1be5 afbc 0d85 093e 9927 1abe
00000050: 9c61 82bd 7241 3f3d 0236 3d3e 329d 8d3e
00000060: 882d 44be 345f a03e 7511 56bc c65d 893d
00000070: cf5a 63bd 91dd 96bd 007b 13be 50dd 3b3e
00000080: 9c9f 403e 0703 d73d a974 b9bd 7de4 e13d
00000090: f9cb 1c3e c08e 85bc 7f4c 0a3e 2b07 e2bd
000000a0: 14d2 bfbc 4e1d 133e f89b ebbd 9f10 9c3b
000000b0: 1223 a53d 7553 12bd 745b eb3d a426 e53d
000000c0: 06ea 433b f42a d5bd 5bcf 273e 09aa f43d
000000d0: 038f a43d c6a6 3c3d 7ac9 65bc 47fc c63d
000000e0: 1551 82bd 3ac1 c13d ebd3 bcbd 2864 59be
000000f0: 332b 2c3e 147a 953e bce4 4e3e 5c9b aa3e
00000100: 4c31 063e d1fe d23c 0255 1b3d 75ee 82bd
00000110: d0eb 79bc bd99 b0bd 2e6f 893d 1055 86bd
00000120: 6f36 9d3e f385 b53c bf2d 323e 485a 8b3d
00000130: 5635 4a3d e803 e1bd 4958 d53d 5306 2d3e
00000140: 454d a53d be72 153d 9572 453d 25a9 c33d
00000150: 618c 31bd 4df5 733d a57d 8dbd c76c 19be
00000160: 7e61 83bc d550 e7bd e31c d03d 2a1a 433d
00000170: dbd1 14bc 78d1 673d d762 1abe b7ab 093d
00000180: 5885 cd3c 5a7e aa3d 01b8 033e 654b f2bb
00000190: 598c 593c 9202 afbe d3e1 033e 28e6 113e
000001a0: 4ba8 84bd 2551 9cbe b4fa ef3d 78c2 003e
000001b0: 1728 1fbe 7642 06be 481f 28be 59b7 133e
000001c0: 29c4 0b3e 087e 0dbd cfaf 9d3d f7a0 183e
000001d0: f637 2b3d 6e03 f63c 9abe fe3d 3a20 85bd
000001e0: 92c9 4ebe 26b6 99bd e64f 073e 23c8 a93d
000001f0: 6cbe 3b3e 3bf0 86be 3f3b 843e 7225 ef3d
00000200: 93c0 d1bd c270 5c3d 05f9 273e 6ee6 5d3c
00000210: 07de 2b3e 8217 363e 900e fabd 672a aabd
00000220: 0609 6f3e 4346 8e3d e37b 8a3d 687e 2b3e
00000230: 7c0a 913d 216c 0e3e 18ef a73d 6f7e fe3d
00000240: 501d 44bc 407e a43c 4b6f 633d d973 1e3e
00000250: 145a 233e 77d7 10be 25b3 93be 9b6a f83d
00000260: b8d2 d03d 5d2f 383e e90f 803c 2240 5abe
00000270: 8985 3d3e c62c a9bd 7d6d 213e f547 9439
00000280: 71a3 203d 4cea edba 3f68 943d de11 1f3e
00000290: 569b 403d f4c5 42be a9d2 323e b5c5 0dbd
000002a0: 144a 063d 366c 463e 4a77 3d3d 5131 4ebc
000002b0: 2680 31bd 9916 023e feeb 37bd 5d88 e53d
000002c0: 303d 093b cd77 633c 5e44 5abd 7fe8 04be
000002d0: 8503 8abe 3748 8bbd 25e5 b13a cd75 b73d
000002e0: df16 5a3d 124a 433d 337a e63b 7a05 cf3d
000002f0: 467c 453e 1088 8e3e 2406 073d b59a 2a3e
00000300: 90e7 063e 8741 20be 2cf4 bcbd b101 f83d
00000310: ac03 233e 2c74 77bb fa58 d0bc eb70 df3c
00000320: 1e49 223e b32c cd3b 20fd 11b9 c498 423d
00000330: 49ec 1a3e 458b 123e 717f 0cbe 2ecf d23d
00000340: 6a4b 913e c38b 52bd 123b 3d3e e33f a13e
00000350: f535 a83d 1c22 ed3d 2de5 313e de51 0d3e
00000360: 9c6e 5a3e 93ad 43be 9d8c 333e 138b 113e
00000370: b7ab 60be bae0 09bd 9549 ff3d 39cd 153e
00000380: ef21 4ebe a366 463e e72a f43c 4563 eebc
00000390: 5ca0 4f3e ff98 9e3d 0ae9 203d 1e7f c7bd
000003a0: c962 16bd 97cc b23d e0a8 293e 6165 2f3c
000003b0: 7a88 3a3e 2e4f cfbd 3b3b 4abd 3d6e b4bd
000003c0: 587c 1f3d 0fc5 5b3e 1a07 e83d 0bff a8bb
000003d0: e0d0 e0bd 88c2 1c3e c91a ab3d 2631 8f3c
000003e0: 31fe 873d 3a2a b7ba 251b b9bd f5eb 843c
000003f0: f112 a6bc b203 763d 121c aebd a9da 3b3e

bn1.running_mean f4 [256]
2.5789416 0.7833725 4.2605586 0.14316364 1.9769886 4.0681624 3.3611908 1.6572217
0.46561542 0.47930366 3.7558486 0.748201 0.7533334 1.7236112 2.893349 3.6371017
2.5998843 0.24411328 2.001015 0.40013123 1.5668826 0.67101943 1.7323642 1.9154927
2.7169578 3.5032709 0.08052632 4.0997667 3.4302332 3.934633 0.2761327 0.78894407
0.93347144 0.36341953 3.6075873 1.8516477 1.3236688 1.2695047 1.3284202 0.4983922
2.8468306 0.31430146 2.7202454 1.1074047 1.3579441 0.77279407 2.4031432 0.8614929
0.5949589 4.466582 2.7963176 0.5058951 3.5629866 0.35794395 3.9362786 4.1493464
0.9381664 0.9490041 2.57549 4.520115 2.1859684 4.034351 2.366685 0.8680894
2.2632425 3.6184528 0.26511684 2.1157045 1.2510071 2.486115 0.43200925 1.4526322
0.51823777 1.3620114 0.10206306 1.0381407 1.2183487 3.534338 0.95058924 0.36484283
0.20568955 1.8311435 0.22587857 2.4931173 0.26816267 2.0065172 0.3783989 0.066789344
3.0426571 1.9096892 3.3745785 3.4157624 1.7150265 1.1211587 2.7652755 0.4069699
1.4906285 1.8000102 2.001984 3.1093912 4.3163877 1.2606765 2.1586788 1.4614934
3.4869041 5.0221524 0.42022678 2.871575 3.0929546 0.20588744 0.95320004 1.8259151
0.9432428 2.7626503 0.9016432 3.751381 1.5634509 3.669316 1.3592356 1.1409762
6.307766 0.8966664 0.45046 0.7816049 0.8002107 1.3910215 5.91244 1.1896214
3.7996678 5.5715127 2.445094 3.051081 0.121557705 0.19528541 2.203608 2.2007284
0.18247478 0.35848364 1.1307745 0.4735029 0.12948197 2.0957983 4.4236298 1.6061177
5.6513696 0.6295262 1.3946447 1.1208024 0.7533744 0.010377467 4.199277 0.26330677
0.42368487 0.41840488 0.074477695 0.3623517 0.44697177 3.3655076 1.9199204 1.2861375
4.156679 3.6218457 1.1144247 0.52786875 0.9726984 5.231772 2.2522888 3.167724
0.35974643 0.49567148 3.580022 3.2889552 0.11672186 2.5724409 0.51527995 2.206207
0.10816019 0.86560625 3.1283436 2.2590034 3.4111776 3.4001725 1.2003329 1.9082559
2.036049 0.9434558 1.4021447 3.147829 1.828115 2.491293 2.4824429 0.58885974
1.8452489 5.0549397 1.2205151 1.8970826 0.94908744 2.7848265 1.4518708 4.7834277
0.27176148 2.0002456 0.35566697 6.6428623 2.4993172 0.12743406 0.2405712 0.44178647
1.5242467 3.392617 0.15729971 2.3445454 0.52188814 2.1817362 1.0519902 0.6196299
1.7594624 2.1847842 2.640859 2.9336874 0.09873523 2.2385335 0.98600996 2.323219
2.7130978 4.6625447 1.3041092 1.485924 0.9890239 0.32421175 3.2885954 4.5719185
4.7301283 1.0561851 0.6831971 0.35444137 4.1704955 0.30373803 0.33350328 2.6007705
0.92294407 0.603064 1.3319677 2.274951 0.9995787 0.30329865 0.5459229 1.111675
0.44649386 0.6926082 0.099618234 2.0817869 3.7457888 2.791374 0.15595967 0.80377674
00000000: 610d 2540 1a8b 483f 7f56 8840 7d99 123e
00000010: f60d fd3f 632e 8240 c01d 5740 d71f d43f
00000020: 2565 ee3e 4a67 f53e d35f 7040 1a8a 3f3f
00000030: 75da 403f 4b9f dc3f a12c 3940 46c6 6840
00000040: 8164 2640 d5f8 793e a110 0040 00de cc3e
00000050: 9c8f c83f eec7 2b3f 1cbe dd3f dd2e f53f
00000060: a3e2 2d40 9735 6040 fcea a43d 4a31 8340
00000070: f188 5b40 07d1 7b40 4461 8d3e 3df8 493f
00000080: fcf7 6e3f 2012 ba3e b6e2 6640 cb02 ed3f
00000090: fb6d a93f 217f a23f ac09 aa3f 432d ff3e
000000a0: 7932 3640 1fec a03e 8018 2e40 70bf 8d3f
000000b0: 1dd1 ad3f d5d5 453f 19cd 1940 cc8a 5c3f
000000c0: 3a4f 183f 3dee 8e40 def6 3240 5782 013f
000000d0: f907 6440 6e44 b73e fdeb 7b40 72c7 8440
000000e0: ac2b 703f eff1 723f d4d4 2440 c8a4 9040
000000f0: e8e6 0b40 6719 8140 c477 1740 1b3b 5e3f
00000100: f7d8 1040 bb94 6740 65bd 873e b467 0740
00000110: 0021 a03f 821c 1f40 5130 dd3e daef b93f
00000120: 3bab 043f 6456 ae3f 7006 d13d cbe1 843f
00000130: daf2 9b3f 9832 6240 d159 733f aecc ba3e
00000140: 48a0 523e e962 ea3f b64c 673e 3c8f 1f40
00000150: 9e4c 893e c76a 0040 80bd c13e dac8 883d
00000160: e5ba 4240 b270 f43f 18f9 5740 da9b 5a40
00000170: fd85 db3f 2182 8f3f 46fa 3040 5c5e d03e
00000180: eacc be3f bc66 e63f 8120 0040 4400 4740
00000190: d91f 8a40 d95d a13f cb27 0a40 3712 bb3f
000001a0: 7029 5f40 79b5 a040 f727 d73e e3c7 3740
000001b0: f8f2 4540 28d4 523e eb04 743f 96b7 e93f
000001c0: 5c78 713f 43cf 3040 17d2 663f a016 7040
000001d0: 291f c83f 13d6 6a40 6ffb ad3f 820b 923f
000001e0: 38d9 c940 ee8b 653f b1a2 e63e 4217 483f
000001f0: 9cda 4c3f fe0c b23f b532 bd40 8445 983f
00000200: c22d 7340 d549 b240 6c7c 1c40 e944 4340
00000210: 3ff3 f83d e6f8 473e ea07 0d40 bcd8 0c40
00000220: abda 3a3e 2b8b b73e 38bd 903f f96e f23e
00000230: ec96 043e 8f21 0640 608e 8d40 4495 cd3f
00000240: 05d8 b440 a128 213f b883 b23f 7476 8f3f
00000250: 25dd 403f 4006 2a3c 7a60 8640 25d0 863e
00000260: 39ed d83e 2a39 d63e c387 983d 2986 b93e
00000270: 7cd9 e43e 7a64 5740 f4bf f53f 27a0 a43f
00000280: 8403 8540 52cc 6740 78a5 8e3f 6822 073f
00000290: c302 793f ad6a a740 8025 1040 fdbb 4a40
000002a0: af30 b83e a7c8 fd3e 151f 6540 3e7e 5240
000002b0: df0b ef3d dfa2 2440 63e9 033f 7f32 0d40
000002c0: 1783 dd3d 5f98 5d3f c836 4840 8393 1040
000002d0: bc50 5a40 6d9c 5940 82a4 993f bb41 f43f
000002e0: a04e 0240 5286 713f 7a79 b33f 0876 4940
000002f0: acff e93f 5871 1f40 58e0 1e40 83bf 163f
00000300: 1e31 ec3f 11c2 a140 d739 9c3f 9ad3 f23f
00000310: 65f7 723f 993a 3240 e7d6 b93f d711 9940
00000320: 5224 8b3e 0604 0040 fb19 b63e 5492 d440
00000330: d0f4 1f40 137e 023e 4c58 763e d631 e23e
00000340: 841a c33f a320 5940 2d13 213e 080d 1640
00000350: 769a 053f 91a1 0b40 9da7 863f 11a0 1e3f
00000360: 1036 e13f 81d3 0b40 d503 2940 89c1 3b40
00000370: b235 ca3d 2244 0f40 266b 7c3f 9faf 1440
00000380: 65a3 2d40 9133 9540 0ded a63f c232 be3f
00000390: ac30 7d3f 15ff a53e 5978 5240 284d 9240
000003a0: 365d 9740 1331 873f 01e6 2e3f 5779 b53e
000003b0: b374 8540 8d83 9b3e f1c0 aa3e 0673 2640
000003c0: 1046 6c3f 6762 1a3f eb7d aa3f cc98 1140
000003d0: 64e4 7f3f f649 9b3e 9ac1 0b3f 5e4b 8e3f
000003e0: d89a e43e c54e 313f a504 cc3d ff3b 0540
000003f0: 01bb 6f40 dfa5 3240 e4b3 1f3e 50c4 4d3f

bn1.running_var f4 [256]
4.6433454 1.7855339 11.303079 0.2087457 7.460238 13.558199 14.038902 10.934701
0.2437093 0.7571627 9.947036 1.4432949 3.7821436 1.6391802 14.334216 11.964926
5.8796616 0.8636664 3.662917 0.6891307 0.7381236 1.365597 8.41836 9.315227
5.056404 13.489944 0.13611259 7.2897134 27.70258 38.96598 1.0791392 1.563069
4.5227895 0.755235 9.027829 8.251027 1.7244383 3.2879348 6.9267406 0.7349609
7.9258537 0.28625518 11.2607355 5.3229074 3.0525575 3.6393704 5.4230957 4.481077
1.9209466 12.298582 4.7706747 2.5067189 7.4595394 0.519632 10.420652 32.90429
2.4111524 2.655964 15.449393 12.4536295 10.447593 20.493057 16.333973 3.822212
2.312095 20.660984 0.84453595 17.305012 6.943061 8.445272 1.70694 5.171955
0.5056275 7.192799 0.10666163 2.311527 10.152549 18.788319 4.418543 0.5284221
0.40316042 6.469365 0.58988434 18.429287 0.3310363 19.984022 0.81215125 0.13416593
14.53443 0.9421383 29.896221 17.38476 7.226677 3.9872217 12.798687 1.4606079
4.874125 6.128418 17.105803 19.849844 3.685439 7.9634895 7.4772525 9.407452
16.895037 10.569666 1.1817765 5.992197 14.779065 0.43277183 6.0215216 10.0868435
1.7249326 20.3977 4.6688046 18.700783 2.6420143 6.535895 1.8217137 1.3556556
17.226934 5.561372 0.08748866 0.94167525 2.1560118 5.8604712 16.347881 4.779735
12.479897 12.21113 0.67201185 14.383244 0.17851034 0.27387878 14.708536 7.3413553
0.08536228 0.9029994 3.9340653 1.4414809 0.32773775 7.0722356 67.20969 0.49631527
23.37411 0.7865299 4.4145646 6.6877594 0.58598685 0.01452205 11.506043 0.6207815
0.8357206 0.6655796 0.12658969 0.9768433 1.1337954 16.787481 9.43697 8.421196
12.870833 8.107912 2.6403356 1.6408079 5.632308 10.579335 5.9454875 41.88175
0.74206054 0.83778137 22.87485 29.686064 0.19540161 23.442743 2.2066858 17.519989
0.14935032 4.4532886 8.689512 5.9921374 3.5805464 7.436175 5.436326 8.789982
7.736948 2.6751673 4.9988284 18.32342 5.2450676 14.085615 22.313782 1.1620147
10.617396 12.925572 3.7620234 3.4806788 2.2080235 10.892529 3.8887854 11.564676
0.51361334 3.8993337 0.84104717 7.7130075 7.1336412 0.18926783 0.61009294 0.72031254
7.000801 13.235883 0.2871411 6.0524335 1.521948 7.612903 1.8734777 1.8644673
9.676891 6.0116673 2.9613914 11.858964 0.18203448 13.914214 4.4675894 9.776602
15.565221 16.870247 2.1462684 10.075247 4.407296 0.9098332 13.416613 26.247213
36.228035 6.144847 3.039124 0.27792314 11.8264265 0.8457053 0.9087902 5.0150213
0.9052045 1.2267208 9.024064 10.670855 3.967928 0.41548908 2.2363522 1.3948274
1.3573632 3.0657082 0.16548586 2.5209358 19.629354 4.305387 0.345051 2.2732012
00000000: 4996 9440 608c e43f 69d9 3441 6fc1 553e
00000010: 45ba ee40 62ee 5841 589f 6041 89f4 2e41
00000020: ee8e 793e 6ad5 413f 0f27 1f41 e3bd b83f
00000030: a40e 7240 a8d0 d13f f358 6541 5670 3f41
00000040: 3026 bc40 3e19 5d3f 3b6d 6a40 df6a 303f
00000050: abf5 3c3f e2cb ae3f 9ab1 0641 2b0b 1541
00000060: 10ce a140 d0d6 5741 1961 0b3e 5545 e940
00000070: e29e dd41 2add 1b42 3c21 8a3f a512 c83f
00000080: b1ba 9040 1557 413f fd71 1041 3504 0441
00000090: 65ba dc3f 866d 5240 dca7 dd40 6626 3c3f
000000a0: 98a0 fd40 0a90 923e f92b 3441 4255 aa40
000000b0: 1a5d 4340 72eb 6840 008a ad40 fc64 8f40
000000c0: 94e1 f53f fec6 4441 5ea9 9840 156e 2040
000000d0: 8cb4 ee40 9a06 053f feba 2641 fe9d 0342
000000e0: 5250 1a40 50fb 2940 b730 7741 1142 4741
000000f0: 5729 2741 c8f1 a341 faab 8241 1f9f 7440
00000100: 5df9 1340 b249 a541 8233 583f aa70 8a41
00000110: 8e2d de40 d61f 0741 037d da3f a880 a540
00000120: ce70 013f 692b e640 6a71 da3d 0ff0 1340
00000130: d770 2241 7a4e 9641 b464 8d40 ac46 073f
00000140: 0b6b ce3e 0a05 cf40 a902 173f 2e6f 9341
00000150: 977d a93e 47df 9f41 25e9 4f3f cb62 093e
00000160: 068d 6841 fa2f 713f 762b ef41 fd13 8b41
00000170: f040 e740 a42e 7f40 6cc7 4c41 33f5 ba3f
00000180: d5f8 9b40 001c c440 afd8 8841 7bcc 9e41
00000190: 3cde 6b40 e8d4 fe40 a745 ef40 ec84 1641
000001a0: 0929 8741 5a1d 2941 7444 973f 14c0 bf40
000001b0: 0d77 6c41 4594 dd3e 4eb0 c040 b663 2141
000001c0: 97ca dc3f 7d2e a341 d966 9540 349b 9541
000001d0: c316 2940 0d26 d140 ea2d e93f 1f86 ad3f
000001e0: c3d0 8941 c2f6 b140 412d b33d a111 713f
000001f0: 19fc 0940 fb88 bb40 76c8 8241 97f3 9840
00000200: a8ad 4741 ca60 4341 f808 2c3f c421 6641
00000210: 6acb 363e d739 8c3e 2a56 6b41 62ec ea40
00000220: 6bd2 ae3d f82a 673f bac7 7b40 7282 b83f
00000230: 3ecd a73e c14f e240 5c6b 8642 091d fe3e
00000240: 2dfe ba41 065a 493f 1d44 8d40 2002 d640
00000250: 3c03 163f e4ed 6d3c c118 3841 89eb 1e3f
00000260: c9f1 553f 6d63 2a3f baa0 013e 6712 7a3f
00000270: 3520 913f c34c 8641 d4fd 1641 38bd 0641
00000280: efee 4d41 02ba 0141 42fb 2840 fe05 d23f
00000290: de3b b440 f544 2941 6f41 be40 e986 2742
000002a0: aef7 3d3f d778 563f b1ff b641 0f7d ed41
000002b0: 5c17 483e bd8a bb41 573a 0d40 f028 8c41
000002c0: 4aef 183e 5781 8e40 3e08 0b41 97bf bf40
000002d0: ac27 6540 25f5 ed40 62f6 ad40 c4a3 0c41
000002e0: 1495 f740 f135 2b40 67f6 9f40 5d96 9241
000002f0: 98d7 a740 ae5e 6141 a082 b241 e6bc 943f
00000300: dbe0 2941 25cf 4e41 fec4 7040 71c3 5e40
00000310: 4250 0d40 cc47 2e41 dce1 7840 ea08 3941
00000320: 2a7c 033f af8e 7940 de4e 573f f5d0 f640
00000330: ca46 e440 6dcf 413e 0d2f 1c3f 6766 383f
00000340: 9006 e040 2dc6 5341 2904 933e 89ad c140
00000350: 31cf c23f e79c f340 1ece ef3f dda6 ee3f
00000360: 8cd4 1a41 945f c040 7087 3d40 51be 3d41
00000370: 3f67 3a3e 9fa0 5e41 7ef6 8e40 f66c 1c41
00000380: 250b 7941 44f6 8641 765c 0940 3634 2141
00000390: 9208 8d40 d4ea 683f 72aa 5641 4bfa d141
000003a0: 82e9 1042 96a2 c440 0281 4240 f14b 8e3e
000003b0: 0b39 3d41 2480 583f 79a6 683f 0e7b a040
000003c0: 7bbb 673f 3005 9d3f 9162 1041 d2bb 2a41
000003d0: 88f2 7d40 fcba d43e 6520 0f40 b489 b23f
000003e0: 14be ad3f 9034 4440 2075 293e 0357 2140
000003f0: eb08 9d41 bbc5 8940 86aa b03e 217c 1140

fc2.weight f4 [128, 256]
-0.021163907 -0.11292056 -0.049232684 0.009857828 -0.07266874 0.066380374 0.038230494 0.053584024
0.15867291 -0.04009632 -0.06857522 -0.028765848 -0.015376654 0.03602943 0.08350417 -0.048614256
0.0026018212 -0.09045072 -0.06902603 -0.106971644 -0.12013554 0.04985141 -0.028612116 -0.0055361083
0.008783109 -0.096613124 0.063550636 0.014957145 0.019659402 0.026112491 0.031642064 -0.11766756
-0.015132332 0.009104347 0.0043719653 0.01405461 0.10196395 0.013095 -0.030877057 0.006136307
0.031102967 0.037675634 -0.043174423 -0.02723227 -0.08415084 -0.04937269 0.001172875 -0.13700706
0.020317836 -0.044036288 -0.060509376 0.02953874 0.015182855 0.04040363 0.037106365 -0.011441264
-0.044336524 -0.042726573 -0.018982805 0.01621645 -0.045986913 -0.0057609975 -0.07632836 -0.055581097
-0.09270625 -0.008412836 0.009207685 -0.033914723 0.054953713 -0.030369006 -0.00304698 -0.026731644
-0.07069128 -0.03544094 -0.1908405 0.026323132 0.03438986 0.022310225 -0.0060082404 -0.2592109
-0.11681936 -0.017810509 -0.004325653 -0.10213986 0.03485715 0.019727588 0.034508355 -0.018341983
-0.0072033624 -0.020277724 0.008079857 0.015348046 -0.012525953 0.003671425 -0.00048466577 -0.007913212
0.012132863 -0.020151878 0.054078292 0.039113097 -0.006135534 0.14426434 0.007291426 -0.0038633223
-0.06527283 0.114545815 -0.10444303 0.050774314 0.012796103 0.057550672 0.0137716085 -0.06594979
0.027514467 0.012334399 -0.09984427 -0.03366728 -0.09052249 0.05092122 -0.0071602017 0.016411243
-0.033952568 0.0019712693 -0.018509181 0.024308482 -0.033692963 -0.0039902013 -0.091877855 0.0422261
-0.0005542471 0.008084065 0.0035360293 -0.026851298 0.015440036 0.11323892 0.04888154 0.039316986
-0.16971168 0.061113514 -0.09901813 -0.02043612 0.023821458 0.0048822067 -0.041133914 -0.093119375
0.053489108 -0.04363665 -0.026925392 -0.04771647 -0.13480888 -0.00204918 0.12905084 0.09347576
0.13220218 -0.08727711 0.016763646 -0.016452858 0.06657514 0.06852901 0.0027071636 0.022571575
0.04933415 -0.0085439 -0.01789749 -0.0700563 0.054159164 0.13744211 0.043114364 -0.018160118
0.15530132 0.052918933 -0.03642396 -0.0017298153 0.07474996 0.03391919 0.025100017 0.025841076
0.04012098 0.038961835 -0.019373002 0.022657773 0.069524065 -0.004584206 0.0024586576 0.0074644443
0.055277202 -0.010336873 -0.010643872 0.038965166 -0.17804824 -0.013181226 -0.015955562 -0.10636515
-0.03649479 0.0080022095 0.06101879 0.014637308 0.011518496 -0.019973217 -0.044540234 0.044378567
0.06337822 0.06674436 -0.09679721 0.011735891 0.009069785 -0.03353436 0.027112642 -0.058428958
-0.061688073 0.027602548 -0.11690794 -0.03362667 -0.037994716 0.01103844 -0.0026903667 0.03320195
-0.08861221 0.06966575 0.008314838 -0.01766552 0.0031192454 0.04426106 0.030861856 -0.052445147
0.084216155 -0.05914387 -0.0026440637 0.0069639143 -0.022089032 -0.03012418 -0.033267204 0.062917225
-0.021989306 0.026979951 0.057904933 -0.0540611 0.07394116 -0.022204943 -0.03785336 0.04120987
-0.02260332 -0.20745674 -0.08315509 -0.037448317 0.03842882 0.09870957 -0.019045753 -0.023874475
0.005634658 -0.07546572 0.057406593 -0.001003151 0.024473472 0.064759515 -0.051436197 0.019305786
00000000: ee5f adbc e542 e7bd 36a8 49bd ba82 213c
00000010: 59d3 94bd 6ff2 873d 9497 1c3d ec7a 5b3d
00000020: 277b 223e 0a3c 24bd 2a71 8cbd 5ba6 ebbc
00000030: 5dee 7bbc 9893 133d 3c04 ab3d be1f 47bd
00000040: 5183 2a3b 3a3e b9bd 855d 8dbd f313 dbbd
00000050: 9f09 f6bd fe30 4c3d f563 eabc 3e68 b5bb
00000060: 07e7 0f3c 1add c5bd d626 823d d00e 753c
00000070: c10c a13c dde9 d53c 1c9b 013d b1fb f0bd
00000080: 9aed 77bc 662a 153c b442 8f3b 4f45 663c
00000090: 7ad2 d03d 698c 563c e2f1 fcbc 1313 c93b
000000a0: a6cb fe3c c451 1a3d aad7 30bd 3616 dfbc
000000b0: 4757 acbd 053b 4abd 28bb 993a 944b 0cbe
000000c0: 9771 a63c 655f 34bd aed8 77bd 3afb f13c
000000d0: 82c1 783c 477e 253d d8fc 173d 2474 3bbc
000000e0: 379a 35bd 0f02 2fbd d481 9bbc 5cd8 843c
000000f0: c65c 3cbd c0c6 bcbb 0b52 9cbd 01a9 63bd
00000100: c6dc bdbd fed5 09bc d4db 163c 2aea 0abd
00000110: 2517 613d 6cc8 f8bc d7af 47bb 52fc dabc
00000120: 97c6 90bd 852a 11bd b16b 43be 9ca3 d73c
00000130: 62dc 0c3d efc3 b63c c6e0 c4bb 4bb7 84be
00000140: fd3e efbd 58e7 91bc 35be 8dbb b42e d1bd
00000150: 5fc6 0e3d c09b a13c a258 0d3d ed41 96bc
00000160: 2f0a ecbb 781d a6bc 6061 043c 5f76 7b3c
00000170: a839 4dbc 4a9c 703b bd1a feb9 6ba6 01bc
00000180: eac8 463c 8d15 a5bc 3381 5d3d 0e35 203d
00000190: 970c c9bb 08ba 133e eaec ee3b cb2f 7dbb
000001a0: c3ad 85bd ff96 ea3d 3ae6 d5bd baf8 4f3d
000001b0: bfa6 513c 41ba 6b3d 50a2 613c af10 87bd
000001c0: 0566 e13c 3816 4a3c 277b ccbd b4e6 09bd
000001d0: db63 b9bd c592 503d 20a0 eabb df70 863c
000001e0: d911 0bbd 6930 013b 91a0 97bc 9522 c73c
000001f0: a201 0abd 3cc0 82bb 752a bcbd 46f5 2c3d
00000200: e54a 11ba 0773 043c babc 673b 41f7 dbbc
00000210: 34f8 7c3c cfe9 e73d 0238 483d d90a 213d
00000220: e6c8 2dbe 2a52 7a3d 04ca cabd a669 a7bc
00000230: 3825 c33c ebfa 9f3b 097c 28bd 5fb5 bebd
00000240: 6517 5b3d 58bc 32bd a492 dcbc 5872 43bd
00000250: 570b 0abe 894b 06bb e725 043e 3870 bf3d
00000260: 0260 073e 57be b2bd ea53 893c 25c8 86bc
00000270: 8c58 883d f058 8c3d ab6a 313b 06e8 b83c
00000280: 9b12 4a3d b7fb 0bbc c29d 92bc ad79 8fbd
00000290: 00d6 5d3d a0bd 0c3e b098 303d 87c4 94bc
000002a0: 4f07 1f3e 86c1 583d 4a31 15bd f8ba e2ba
000002b0: 8216 993d d9ee 0a3d 8d9e cd3c aab0 d33c
000002c0: e655 243d 7296 1f3d 21b4 9ebc cb9c b93c
000002d0: a262 8e3d 1b37 96bb 6e21 213b 4c98 f43b
000002e0: 596a 623d fd5b 29bc a363 2ebc f099 1f3d
000002f0: 4752 36be 12f6 57bc 3db5 82bc f9d5 d9bd
00000300: 907b 15bd b31b 033c d7ee 793d 52d1 6f3c
00000310: 13b8 3c3c df9e a3bc d26f 36bd 4dc6 353d
00000320: 71cc 813d 44b1 883d 9e3d c6bd e547 403c
00000330: 6f99 143c 535b 09bd 551b de3c 3453 6fbd
00000340: a2ac 7cbd bd1e e23c 6e6d efbd 1ebc 09bd
00000350: 59a0 1bbd 93da 343c dd50 30bb c5fe 073d
00000360: 517a b5bd ebac 8e3d f53a 083c 48b7 90bc
00000370: 416c 4c3b 164b 353d 01d2 fc3c b9d0 56bd
00000380: 8579 ac3d d840 72bd 0748 2dbb 8c31 e43b
00000390: 0ff4 b4bc fcc6 f6bc 3143 08bd bfda 803d
000003a0: eb22 b4bc 0f05 dd3c b92d 6d3d 2c6f 5dbd
000003b0: 776e 973d 24e7 b5bc 200c 1bbd aecb 283d
000003c0: 992a b9bc 8a6f 54be 374d aabd 6863 19bd
000003d0: 8a67 1d3d 3e28 ca3d d705 9cbc 6794 c3bc
000003e0: f0a2 b83b c58d 9abd 2d23 6b3d 297c 83ba
000003f0: 977c c83c a3a0 843d c3ae 52bd 2b27 9e3c

fc2.bias f4 [128]
-0.07001101 -0.09793178 -0.04212191 -0.024380796 0.08248384 -0.11019546 -0.12369622 0.013871729
-0.1305527 -0.067926295 -0.041099094 -0.037686534 0.08965259 -0.008738556 -0.075132325 -0.09586405
-0.05630863 -0.0055380436 -0.08063709 -0.040627655 -0.0705087 -0.056305595 -0.027934585 -0.10882986
0.15836406 -0.01662391 -0.0280811 0.05304079 -0.032331347 -0.028556896 -0.045476865 -0.08476385
-0.054694094 -0.06144909 -0.042007416 -0.068152025 -0.02247119 0.032170188 -0.08711987 0.078511566
-0.0012333153 -0.082102224 -0.027175743 -0.10795706 -0.08391044 -0.037163466 -0.027555672 -0.036770545
0.15940794 -0.054288737 -0.022400422 -0.06602318 -0.088105604 -0.045750875 -0.0071503627 -0.016526794
-0.03778182 -0.09649144 -0.021310575 -0.07598539 -0.061743993 -0.038239237 -0.045415424 -0.0553979
0.024036892 -0.10121406 -0.0874159 -0.020198567 -0.15113147 -0.04506529 -0.100590326 -0.010716246
-0.057281747 0.03977452 0.04897928 -0.050290406 -0.104403086 -0.08271731 -0.061606936 -0.0038777043
-0.09437002 -0.04183855 -0.064316995 -0.09580149 0.0053377706 -0.119727224 -0.065776505 -0.09572334
-0.028386313 -0.0611765 -0.050359294 -0.088291615 -0.1296712 0.031096555 -0.021377759 -0.12887189
-0.052057065 -0.021814927 0.00049157196 -0.09294089 -0.0878352 -0.07503365 -0.009425761 -0.10287856
-0.097660735 -0.07321883 0.068798654 -0.030249497 0.00030614765 -0.13498357 -0.044849895 -0.1103835
-0.053214155 -0.12750296 -0.13270101 0.042470578 -0.07495719 -0.0104107475 -0.012970326 -0.10178164
-0.020342808 -0.124385275 -0.03353305 -0.04074416 -0.051505245 -0.06615177 -0.092096284 -0.0939251
00000000: ef61 8fbd 7590 c8bd 0688 2cbd 3cba c7bc
00000010: 4aed a83d 28ae e1bd 7254 fdbd 4046 633c
00000020: 9baf 05be f11c 8bbd 8657 28bd 325d 1abd
00000030: c79b b73d 292c 0fbc fade 99bd 5f54 c4bd
00000040: e1a3 66bd 7a78 b5bb 0f25 a5bd 2f69 26bd
00000050: de66 90bd b2a0 66bd 12d7 e4bc 31e2 debd
00000060: 302a 223e de2e 88bc 560a e6bc 4d41 593d
00000070: e06d 04bd 27f0 e9bc f345 3abd ab98 adbd
00000080: ea06 60bd 0ab2 7bbd f80f 2cbd 4a93 8bbd
00000090: 8015 b8bc e3c4 033d e76b b2bd acca a03d
000000a0: 32a7 a1ba 3625 a8bd aa9f debc 9718 ddbd
000000b0: 3dd9 abbd b838 18bd 6fbc e1bc b69c 16bd
000000c0: d63b 233e de5d 5ebd 1781 b7bc 2937 87bd
000000d0: b670 b4bd 4565 3bbd 974d eabb 3363 87bc
000000e0: 1cc1 1abd 4e9d c5bd 8493 aebc 3a9e 9bbd
000000f0: 45e7 7cbd bfa0 1cbd 8605 3abd e9e8 62bd
00000100: 04e9 c43c 5149 cfbd 1b07 b3bd 7777 a5bc
00000110: 35c2 1abe 6296 38bd 4d02 cebd 3293 2fbc
00000120: 44a0 6abd 9bea 223d 7f9e 483d 50fd 4dbd
00000130: 49d1 d5bd b167 a9bd 8e57 7cbd 1521 7ebb
00000140: 1245 c1bd e65e 2bbd a1b8 83bd 9233 c4bd
00000150: 77e8 ae3b 8c33 f5bd d5b5 86bd 990a c4bd
00000160: 6a8a e8bc 3694 7abd 8c45 4ebd 3cd2 b4bd
00000170: 87c8 04be 34be fe3c 6920 afbc fef6 03be
00000180: ca39 55bd 38b5 b2bc d6dc 003a cb57 bebd
00000190: f1e2 b3bd 3eab 99bd 826e 1abc ffb1 d2bd
000001a0: 5a02 c8bd c1f3 95bd 4fe6 8c3d cbcd f7bc
000001b0: 7182 a039 2239 0abe 86b4 37bd bf10 e2bd
000001c0: 16f7 59bd 2390 02be c6e2 07be a1f5 2d3d
000001d0: 2883 99bd d791 2abc 7d81 54bc e472 d0bd
000001e0: f6a5 a6bc b5bd febd f459 09bd 59e3 26bd
000001f0: 2af7 52bd 947a 87bd fa9c bcbd ce5b c0bd

bn2.weight f4 [128]
1.1921226 0.8481769 1.0746741 1.1080674 0.92426467 0.6112179 0.5786965 0.8090311
0.69741976 1.3369393 1.2698936 1.0781623 0.84131235 0.56794566 1.3240951 0.83448464
1.0989465 0.7278771 0.77380246 1.3425363 0.6383116 0.8235086 0.6568213 1.0941079
0.7688001 1.4449176 0.7562394 0.5825864 0.8827617 1.2159731 1.1702069 1.0854243
1.0640405 0.9923615 0.49584162 0.51455194 0.8282558 0.79184127 0.71686125 1.1398435
1.1469715 1.1393557 1.219682 0.6721148 1.4369551 1.1432495 1.245385 1.4950749
0.84959394 0.51017296 1.0560309 0.84016675 1.009825 1.2641406 1.1315725 1.1033036
0.74036455 1.1830463 0.55529785 1.0069711 0.55964667 0.9560954 1.2847384 0.72796893
0.5096019 1.0225598 0.7752929 0.56681764 0.8787985 1.0785905 1.371495 0.8580605
1.3073432 0.86830544 1.1672758 1.5421201 1.0056205 1.1632619 1.4902722 0.7741684
0.7600039 1.3217987 0.84738 0.58860016 1.2788867 0.8142155 1.3061553 0.7447955
0.63441193 0.9058096 0.9337944 0.7734699 0.55893886 0.83994144 0.96338606 0.7018838
0.6170379 1.1313742 0.629677 0.9930313 1.3588043 0.64280707 0.7536149 0.7719887
0.914714 1.1108496 1.0032527 0.7977588 0.99663067 0.5227981 1.1612734 1.2186899
1.1365365 0.83031386 1.221878 1.2974374 0.7657133 0.77437335 0.59953505 0.9384062
0.9603568 0.5823256 1.1582776 1.0115263 0.59773874 0.92043865 0.7296291 0.5703193
00000000: 7997 983f 1f22 593f ec8e 893f 27d5 8d3f
00000010: 9c9c 6c3f c778 1c3f 7425 143f aa1c 4f3f
00000020: 1a8a 323f d420 ab3f e08b a23f 3901 8a3f
00000030: 3f60 573f e364 113f f37b a93f c9a0 553f
00000040: 47aa 8c3f 2756 3a3f eb17 463f 3bd8 ab3f
00000050: 6468 233f 76d1 523f 7125 283f ba0b 8c3f
00000060: 15d0 443f 0ff3 b83f e898 413f 6224 153f
00000070: acfc 613f 02a5 9b3f 57c9 953f 2fef 8a3f
00000080: 7b32 883f 670b 7e3f f4de fd3e adb9 033f
00000090: 9208 543f 1cb6 4a3f 3884 373f 64e6 913f
000000a0: f6cf 923f 68d6 913f 8a1e 9c3f b70f 2c3f
000000b0: 25ee b73f 0056 923f c768 9f3f 9d5e bf3f
000000c0: fd7e 593f b29a 023f 052c 873f 2b15 573f
000000d0: f241 813f 5ccf a13f 5ed7 903f 0d39 8d3f
000000e0: 8888 3d3f 106e 973f 0028 0e3f 6ee4 803f
000000f0: 0145 0f3f abc2 743f 4f72 a43f 2c5c 3a3f
00000100: 4575 023f 3de3 823f 9879 463f f61a 113f
00000110: f0f8 603f 410f 8a3f 268d af3f daa9 5b3f
00000120: 0657 a73f 4449 5e3f 4b69 953f 3164 c53f
00000130: 2cb8 803f c4e5 943f 3dc1 be3f e62f 463f
00000140: 9e8f 423f b330 a93f e5ed 583f 80ae 163f
00000150: 8fb2 a33f 6d70 503f 1930 a73f ebaa 3e3f
00000160: d268 223f 23e3 673f 260d 6f3f 2002 463f
00000170: 9e16 0f3f 6706 573f 78a0 763f a8ae 333f
00000180: 32f6 1d3f dfd0 903f 8332 213f 4d37 7e3f
00000190: 4ded ad3f 018f 243f e8ec 403f 0da1 453f
000001a0: b22a 6a3f 5230 8e3f 966a 803f ec39 4c3f
000001b0: 3023 7f3f 19d6 053f 9ba4 943f 08fe 9b3f
000001c0: 077a 913f 738f 543f 8066 9c3f 6e12 a63f
000001d0: c905 443f 553d 463f 217b 193f 643b 703f
000001e0: f1d9 753f 4a13 153f 7142 943f b279 813f
000001f0: 6805 193f dea1 6b3f f9c8 3a3f 7200 123f
