results/checkpoint.pth (torch_old, 426890 bytes, 23 tensors)

fc1.weight f4 [256, 24]
0	0xbd8ff1c7	-0.07028537
1	0x3d8fe837	0.07026713
2	0x3daf0c8a	0.085473135
3	0x3e57cd55	0.21074422
4	0xbe1cd636	-0.1531609
5	0x3d0cc77d	0.034369934
6	0xbdace6d5	-0.08442465
7	0x3da02811	0.07820142
8	0xbe152626	-0.14565334
9	0xbe25359d	-0.16133733
10	0x3de2abaa	0.110678986
11	0xbd5bdb69	-0.053676043
12	0x3e1e213f	0.1544237
13	0x3dd68cdc	0.104760855
14	0xbe168f48	-0.14703095
15	0x3e228c0d	0.15873738
16	0xbe645444	-0.2229777
17	0xbdf099f4	-0.11748114
18	0xbd587519	-0.052846048
19	0xbdd72ea3	-0.10506942
20	0xbe342fc2	-0.17596343
21	0x3d1c170b	0.038107913
22	0xbe235804	-0.15951544
23	0x3e5df0fd	0.21673961
24	0xbcee8087	-0.029114021
25	0xbd74dd51	-0.059781376
26	0xbe2fe883	-0.1717854
27	0x3d2c13ef	0.042011198
28	0x3de69c5f	0.11260294
29	0x3dcd0d55	0.100123085
30	0x3e286c0a	0.16447464
31	0xbd9c772b	-0.07639917
32	0x3e0166b3	0.12636833
33	0x3e619662	0.22030023
34	0xbd2983d1	-0.041385476
35	0x3dd33ada	0.103139594
36	0x3d50dfdf	0.05099475
37	0x3e9461eb	0.28980955
38	0x3cc053e1	0.023477497
39	0xbd9d5665	-0.07682494
40	0x3e34f23c	0.1767053
41	0xbe089389	-0.1333753
42	0xb984eef5	-0.0002535504
43	0xbb4773cd	-0.0030434013
44	0xbd61384d	-0.054985333
45	0x3e4b57d9	0.1985773
46	0xbb22c7b9	-0.0024838282
47	0xbe0ec76f	-0.13943265
48	0xbd8fb15f	-0.07016253
49	0xbe351f9c	-0.1768784
50	0x3d731829	0.059349213
51	0x3dca9ec2	0.09893562
52	0xbd3f3218	-0.046678632
53	0xbe9cc745	-0.3062078
54	0xbd9978f2	-0.074937716
55	0x3e02d203	0.12775426
56	0xbe19660b	-0.14980333
57	0xbd85879b	-0.06520005
58	0x3e265124	0.1624189
59	0xbd877b75	-0.066153444
60	0x3e631e96	0.22179636
61	0xbc2697fd	-0.010168073
62	0x3ca961d8	0.020676538
63	0x3e3aa153	0.18225603
64	0xbdb43410	-0.08798993
65	0xbdef2055	-0.11676089
66	0xbcfbacc0	-0.030722022
67	0x3d4fcd41	0.050732855
68	0x3e7eb862	0.24875024
69	0xbe82314c	-0.25428236
70	0x3c9d2e7e	0.019187208
71	0xbd39f3c0	-0.045398474
72	0xbe1f4903	-0.15555196
73	0x3ebf50c6	0.37366313
74	0x3da0b8a6	0.07847719
75	0x3de28563	0.11060598
76	0x3dc4d3fc	0.09610745
77	0xbe2df516	-0.16988024
78	0xbd9f6966	-0.07783775
79	0x3d942680	0.07233906
80	0x3dee8648	0.11646706
81	0x3e71e344	0.23621851
82	0xbdc2fa5b	-0.09520408
83	0x3da3972e	0.079878196
84	0xbe056533	-0.13026886
85	0xbe8f915f	-0.28040597
86	0x3dabde7c	0.08392045
87	0x3e378920	0.17923403
88	0xbd9ea693	-0.07746615
89	0x3d207f7c	0.03918408
90	0x3e05c105	0.13061912
91	0xbddec394	-0.10877147
92	0xbcc58092	-0.024109159
93	0xbe869e02	-0.26292425
94	0xbe0101c4	-0.1259833
95	0xbdd92511	-0.10602773
96	0xbc7ffecb	-0.015624712
97	0x3d03f591	0.032216612
98	0xbdaad809	-0.08341987
99	0xbe2ce66a	-0.16884771
100	0xbe1fe6d9	-0.15615405
101	0xbe6609b0	-0.22464633
102	0xbc00d22b	-0.007862608
103	0x3d858989	0.065203734
104	0xbc92ad68	-0.017904952
105	0xbddd6c54	-0.108116776
106	0x3ddd3577	0.10801213
107	0x3d5a4baf	0.053294834
108	0xbde2a6e8	-0.11066991
109	0xbe62bad2	-0.22141579
110	0x3b5f83bb	0.0034105617
111	0x3dfc21fb	0.12311169
112	0x3e2f407f	0.17114447
113	0x3e1958da	0.149753
114	0x3d860df4	0.0654563
115	0x3e091531	0.1338699
116	0xbe93da0b	-0.2887729
117	0x3e7d4b23	0.24735694
118	0xbdd0173e	-0.10160683
119	0xbc510558	-0.012757622
120	0xbe24f261	-0.16108085
121	0xbcc3842d	-0.023866737
122	0x3df0bf82	0.11755277
123	0xbdad53a3	-0.08463218
124	0xbe2698d6	-0.1626924
125	0xbe1f527f	-0.15558814
126	0xbd626026	-0.055267476
127	0xbe19ab98	-0.15006864
128	0xbca1458d	-0.019686485
129	0xbd8e3cbc	-0.06945178
130	0x3e102ead	0.14080305
131	0xbd260c6a	-0.040539183
132	0x3e0b72cf	0.13618015
133	0x3cfd932e	0.03095397
134	0x3e7b06de	0.24514338
135	0xbe89394a	-0.2680152
136	0xbd64b907	-0.05584052
137	0x3e02898f	0.12747787
138	0x3d3c9851	0.046043698
139	0x3b86e64c	0.004116809
140	0x3d0a1864	0.033714667
141	0x3d332c6d	0.04374354
142	0x3ce6fae8	0.028195813
143	0x3d81a2fb	0.06329914
144	0xbe80d71f	-0.25164124
145	0x3e5fa667	0.21840821
146	0xbcd9f3c2	-0.02660549
147	0xbd02a617	-0.031896677
148	0x3c343819	0.010999703
149	0xbd7140d9	-0.058899734
150	0xbd2c54ab	-0.042072933
151	0xbe2cec62	-0.16887048
152	0x3c8774c9	0.01653518
153	0x3d62312d	0.05522268
154	0xbd2282d9	-0.039675567
155	0xbe1e4cf0	-0.15459037
156	0xbe25680b	-0.1615297
157	0xbe427df2	-0.18993357
158	0xbe243731	-0.16036679
159	0x3e3b7600	0.18306732
160	0xbe9727ad	-0.29522458
161	0xbd2e56b0	-0.04256314
162	0x3df507db	0.11964389
163	0xbdf909c3	-0.12160065
164	0x3c8ce81c	0.017200522
165	0x3da43037	0.08017009
166	0xbdee3497	-0.116311245
167	0xbdc3f0b9	-0.095673986
168	0x3e18dee1	0.14928772
169	0xbe53af83	-0.20672421
170	0x3e0ecd00	0.13945389
171	0x3e0be054	0.13659793
172	0x3e6e5b62	0.23277047
173	0x3e88c2f8	0.2671125
174	0xbe14fa12	-0.14548519
175	0x3e251e98	0.16124952
176	0x3d55398b	0.05205683
177	0xbe665a87	-0.22495471
178	0x3d143cbd	0.036190737
179	0xbdad6a8b	-0.08467587
180	0x3d49b5ae	0.04924553
181	0x3e0fbb1a	0.14036217
182	0x3d89ba58	0.067249954
183	0x3d17134c	0.036883637
184	0x3dc2d24e	0.09512769
185	0xbe6e37d4	-0.23263484
186	0x3d780261	0.060549144
187	0xbbc7028e	-0.0060733026
188	0x3df8d97e	0.12150858
189	0xbd7464bd	-0.059666384
190	0x3dde452e	0.10853039
191	0x3d230eea	0.039809145
192	0xbe10ce5e	-0.14141223
193	0x3e412873	0.18863086
194	0xbc04b309	-0.008099326
195	0xbe11329c	-0.14179462
196	0x3dfb081f	0.12257408
197	0x3d02aa6a	0.0319008
198	0x3c8c7741	0.017146708
199	0x3d9e54f8	0.0773105
200	0x3d8e1710	0.069379926
201	0x3eb0501a	0.34436113
202	0x3e0c2c1b	0.136887
203	0x3e108640	0.14113712
204	0x3e033cba	0.12816134
205	0xbd558887	-0.052132156
206	0xbe2233a0	-0.15840006
207	0xbe5a2acd	-0.2130539
208	0x3da609b3	0.08107319
209	0x3c73518b	0.014850984
210	0x3dc6b3d5	0.09702269
211	0xbe91c520	-0.28470707
212	0xbe868d7a	-0.26279813
213	0xbe0defb8	-0.13860977
214	0xbd9ef8c2	-0.077622905
215	0x3c62d782	0.013845326
216	0xbdbdf648	-0.0927549
217	0x3d29d24b	0.041460317
218	0xbc32b256	-0.010906776
219	0xbdca1fe3	-0.09869363
220	0xbe4cf2e4	-0.2001453
221	0xbe23b359	-0.15986384
222	0x3c42d48a	0.011891494
223	0x3d9ad5e7	0.0756033
224	0x3db251f4	0.087070376
225	0x3de9eb9c	0.11421892
226	0xbd3ea621	-0.04654515
227	0xbe0f498f	-0.13992904
228	0x3e27aa3e	0.16373536
229	0xbe2489b6	-0.16068158
230	0x3d1382b6	0.036013328
231	0x3e1987fa	0.14993277
232	0xbd70c39a	-0.05878029
233	0xbdcba771	-0.09944046
234	0xbe0f7f2f	-0.1401336
235	0xbd795579	-0.06087253
236	0x3eabbe4a	0.33543617
237	0xbcbe9b6f	-0.023267476
238	0x3e1b1a08	0.15146649
239	0x3d41a902	0.04728032
240	0xbcfb8386	-0.030702364
241	0xbe634c64	-0.2219711
242	0xbc037470	-0.008023366
243	0xbe0a0dbd	-0.13481803
244	0xbdfb7ac7	-0.12279277
245	0xbe757b6b	-0.23972861
246	0x3e09c7fe	0.13455197
247	0xbe33fa22	-0.17575887
248	0xbd9977c8	-0.074935496
249	0x3d600687	0.054693725
250	0xbd40cff2	-0.047073312
251	0x3e66e0b0	0.22546649
252	0x3e04835c	0.12940735
253	0x3cb318b3	0.021862363
254	0xbcaa111c	-0.020760112
255	0x3dea2106	0.1143208

fc1.bias f4 [256]
0	0x3dd9cccb	0.10634764
1	0xbe8b2b59	-0.2718151
2	0x3e1571ff	0.14594267
3	0xbe113fb7	-0.14184462
4	0x3e159122	0.14606145
5	0x3e3d0f8d	0.18462963
6	0x3dca4225	0.09875897
7	0xbd9aa6cb	-0.075513445
8	0xbd818c94	-0.06325641
9	0x3de8f573	0.11374941
10	0xbe32accc	-0.1744873
11	0x3e624ed8	0.22100389
12	0x3c2d103e	0.0105629545
13	0xbdf698a5	-0.120408334
14	0xbd09c843	-0.03363825
15	0x3c9ca013	0.019119298
16	0x3de31bd6	0.11089294
17	0xbe169410	-0.14704919
18	0xbddeb425	-0.108742036
19	0x3ab60391	0.0013886561
20	0x3de4983e	0.111618504
21	0xbdd9e0ee	-0.10638605
22	0xbe06a0c0	-0.13147259
23	0xbd5f7cba	-0.054562308
24	0x3d05e98a	0.032693423
25	0x3e05ebcb	0.13078229
26	0x3dfde06a	0.12396319
27	0x3e1b5339	0.15168466
28	0xbe4fd973	-0.20297794
29	0x3dc183fe	0.09449004
30	0xbe44d509	-0.19221891
31	0xbe072db3	-0.13201027
32	0xbe196402	-0.14979556
33	0x3e80b3f9	0.25137308
34	0x3d3878a1	0.045036916
35	0xbe0d6fba	-0.13812152
36	0xbeba7081	-0.3641396
37	0x3dc0c928	0.094133675
38	0x3e4f0d96	0.20220026
39	0xbdd81cb2	-0.10552348
40	0x3dcfd9a1	0.10148931
41	0x3d97ae51	0.07406295
42	0xbdbe24bf	-0.092843525
43	0x3cb1050a	0.021608848
44	0xbd2fa220	-0.042879224
45	0xbd7153f5	-0.05891796
46	0xbdc27788	-0.09495455
47	0x3e0e7db7	0.13915144
48	0x3df3d9e4	0.11906794
49	0x3e2f1cb8	0.17100799
50	0xbd1e76cf	-0.038687523
51	0x3e397afa	0.18113318
52	0xbd96c2ab	-0.07361349
53	0xbd27117a	-0.04078815
54	0x3e510a1f	0.20414017
55	0x3d4f239e	0.050571077
56	0xbca97d33	-0.020689582
57	0xbd58f084	-0.05296375
58	0xbc79a950	-0.015238121
59	0x3c921054	0.017830051
60	0xbe2a2706	-0.16616449
61	0x3d5e1f86	0.05422928
62	0xbdc4bf19	-0.096067615
63	0xbe4d95b3	-0.20076637
64	0x3d3684b4	0.04456015
65	0xbe626097	-0.22107159
66	0xbe3c493c	-0.18387312
67	0x3d4ef65c	0.050527915
68	0xbcc108d5	-0.023563782
69	0xbda36523	-0.07978275
70	0xbe43a9fe	-0.19107816
71	0xbdc9fd4b	-0.09862765
72	0xbe5ceead	-0.21575423
73	0xbe3419e6	-0.17588004
74	0xbe5d5ecd	-0.21618195
75	0xb9f151ab	-0.0004602795
76	0x3daf62b4	0.08563748
77	0xbe69bdf0	-0.22826362
78	0xbe4ffa6e	-0.20310375
79	0x3d7a09d8	0.061044544
80	0xbe66c450	-0.22535825
81	0x3d4c3ccf	0.04986268
82	0x3dad0f95	0.08450238
83	0xbd80dac2	-0.06291725
84	0xbcf92f5f	-0.030418096
85	0xbcd71eb8	-0.026259765
86	0xbe52a481	-0.20570566
87	0x3bc2fbe1	0.0059504365
88	0x3d4a9572	0.04945893
89	0x3c458a3e	0.012056885
90	0x3e4638fd	0.19357677
91	0x3e76780c	0.24069232
92	0xbd1c7305	-0.03819563
93	0x3d6ce42f	0.0578348
94	0x3e88c55f	0.26713082
95	0xbddd1116	-0.107942745
96	0xbe4b1e55	-0.1983579
97	0xbcbaa1b8	-0.022782192
98	0xbbb91ca0	-0.0056491643
99	0x37dc0cfb	2.6232088e-05
100	0x3d9c4831	0.07630957
101	0x3e3df45d	0.18550248
102	0xbd92edb0	-0.071742415
103	0x3ceef604	0.029170044
104	0x3d3b4018	0.04571542
105	0x3e2ed714	0.17074233
106	0xbe713d1d	-0.23558469
107	0x3d984823	0.07435634
108	0x3ddde392	0.10834421
109	0xbe74a357	-0.23890434
110	0xbd80c9c1	-0.062884815
111	0xbd93b8a7	-0.07212954
112	0xbc9aecea	-0.018911798
113	0xbdc30ec3	-0.095243
114	0xbeafcf1a	-0.34337693
115	0x3e493401	0.19648744
116	0x3dccd146	0.10000853
117	0x3d35c657	0.044378605
118	0xbe2eb3e7	-0.17060815
119	0x3c8897a9	0.01667388
120	0x3d62531b	0.055255037
121	0x3e458794	0.1929
122	0xbe0cf2e3	-0.13764529
123	0x3e2bd4c8	0.16780388
124	0x3d4733b0	0.048633277
125	0xbb3fe4d8	-0.0029280689
126	0x3dac735b	0.0842044
127	0x3c4c3c1f	0.012465506
128	0x3e126f1f	0.14300202
129	0x3d8a2d0b	0.067468725
130	0x3dd74ee2	0.105130926
131	0xbe47fca9	-0.19529976
132	0x3e08832e	0.13331291
133	0xbe2b454c	-0.16725653
134	0x3e256713	0.16152601
135	0x3dc645b4	0.096812636
136	0xbe09fd77	-0.13475595
137	0xbdd84516	-0.10560052
138	0x3c6271a6	0.013821041
139	0xbc531018	-0.012882255
140	0xbe7339df	-0.23752545
141	0x3e050204	0.1298905
142	0xbe121998	-0.14267576
143	0x3d9eaddb	0.07748004
144	0x3ccf6c41	0.025320174
145	0xbe3c0d1c	-0.18364376
146	0x3d9161a4	0.070987016
147	0xbdf24530	-0.11829603
148	0x3da40f90	0.08010781
149	0xbd3f3258	-0.04667887
150	0x3e46834d	0.19386025
151	0xbe3b0c2e	-0.18266365
152	0x3e2bb3f4	0.16767865
153	0xbe9bc26a	-0.30421764
154	0x3e4b5c93	0.19859533
155	0xbe267827	-0.16256772
156	0x3d11d03b	0.035598975
157	0xbde9350c	-0.11387071
158	0xbe62b62b	-0.22139804
159	0x3e65cf85	0.22442444
160	0x3d59c39e	0.05316507
161	0x3e2a17df	0.16610669
162	0x3d8ace1e	0.06777595
163	0xbce9a297	-0.028519912
164	0xbdcde41d	-0.10053275
165	0xbe45d6ab	-0.1932017
166	0xbbd94167	-0.006630111
167	0x3e2d708f	0.16937469
168	0xbd8d0ff9	-0.06887812
169	0xbe527ff9	-0.2055663
170	0x3d70daf4	0.05880256
171	0x3e662ad5	0.22477277
172	0x3daa4dfe	0.08315657
173	0xbe035789	-0.12826361
174	0x3e749551	0.23885085
175	0x3e74d324	0.23908669
176	0xbc937106	-0.01799823
177	0x3cb0fba7	0.021604372
178	0xbc1f55d1	-0.00972505
179	0x3e0623db	0.13099615
180	0x3e406d4f	0.18791698
181	0x3e5b7435	0.21431048
182	0x3e084ee6	0.13311347
183	0xbe426e67	-0.18987428
184	0x3e3de337	0.18543707
185	0x3a99c0a9	0.0011730391
186	0x3e87645e	0.26443762
187	0x3d681049	0.056656156
188	0xbe16fdf1	-0.14745308
189	0x3bf905b3	0.0075995564
190	0x3e2b27b5	0.16714366
191	0x3d89d2f5	0.0672969
192	0xbd8fc563	-0.070200704
193	0xbd11dd96	-0.03561171
194	0x3d0023e0	0.031284213
195	0xbe04e2d2	-0.1297715
196	0xbe915bdf	-0.28390405
197	0xbd37da99	-0.044886205
198	0xbe7a3b81	-0.24436761
199	0xbe152f00	-0.1456871
200	0x3e246e1c	0.16057628
201	0xbe173a13	-0.14768247
202	0x3e19a503	0.15004353
203	0xbdbe2235	-0.09283868
204	0xbe897139	-0.26844195
205	0x3d8ec303	0.06970789
206	0x3d4adcdf	0.049527045
207	0x3bacdcd1	0.005275347
208	0x3e43e781	0.1913128
209	0x3d59dfdd	0.05319201
210	0xbe1c852e	-0.15285179
211	0x38a1a5dc	7.707972e-05
212	0x3d59e601	0.053197864
213	0xbe1158ff	-0.14194106
214	0x3ccfc792	0.025363717
215	0x3de6b214	0.112644345
216	0xbe0717f2	-0.13192728
217	0xbb8ce0d5	-0.004299263
218	0x3d848e37	0.06472438
219	0x3cabefa9	0.020988302
220	0x3d59cee7	0.053175833
221	0x3d62ac13	0.055339884
222	0xbc97a4fb	-0.018511286
223	0x3d3e3aa6	0.04644265
224	0xbddae8c0	-0.10688925
225	0xbcde2340	-0.027116418
226	0xbd8c3206	-0.06845479
227	0xbdb6d6c8	-0.08927685
228	0xbe3c966c	-0.18416756
229	0x3e86b6b4	0.26311266
230	0xbd4a1ce7	-0.04934397
231	0x3e77e1b5	0.24207194
232	0x3e127721	0.14303257
233	0x3e1cca27	0.1531149
234	0xbcdb53f4	-0.02677343
235	0xbc5d47ff	-0.013505935
236	0xbda0b1b7	-0.078463964
237	0xbe72b5d2	-0.23702171
238	0xbae8ca22	-0.0017760436
239	0x3e314081	0.17309763
240	0xbe03847f	-0.12843512
241	0xbdbf6d36	-0.09347002
242	0xbe914bac	-0.28378046
243	0xbcd2d69e	-0.025737103
244	0xbda2bf07	-0.07946592
245	0x3e94ab06	0.2903673
246	0x3da18976	0.07887547
247	0xbd61f0ff	-0.055161472
248	0xbc7fbc6c	-0.015608888
249	0xbd26dbf0	-0.040737092
250	0xbd9d285b	-0.07673713
251	0xbdc49fa3	-0.09600761
252	0x3d262fde	0.040572993
253	0xbc9b23b0	-0.018937916
254	0x3d3ef290	0.046618044
255	0xbe5632bd	-0.20917793

bn1.weight f4 [256]
0	0x3f0db570	0.55354977
1	0x3e6ddb8d	0.23228283
2	0x3f2e8db4	0.6818497
3	0x3f5425a6	0.82869947
4	0x3f1d10d4	0.613538
5	0x3f393f7b	0.7236249
6	0x3eb6affb	0.35681137
7	0x3f2e5b91	0.6810847
8	0x3f201e32	0.62546074
9	0x3f1491ac	0.5803478
10	0x3e171489	0.14753927
11	0x3f3fc97e	0.7491683
12	0x3f252ca2	0.6452123
13	0x3f3ade39	0.72995335
14	0x3eeb180a	0.45916778
15	0x3e97891e	0.295968
16	0x3f255fb3	0.6459915
17	0x3e59ea50	0.2128079
18	0x3f12cc66	0.5734314
19	0x3f098d19	0.5373092
20	0x3edff3ea	0.4374078
21	0x3f5936ae	0.8484906
22	0x3e4199d0	0.18906331
23	0x3daf62a5	0.08563737
24	0x3d92d245	0.07169012
25	0x3c5d471e	0.013505725
26	0x3eb1414f	0.3462014
27	0x3eb366d5	0.35039392
28	0x3e9a55ff	0.30143735
29	0x3f287d0c	0.65815806
30	0x3eb87f3a	0.36034566
31	0x3ecbab98	0.39779353
32	0x3e5109af	0.2041385
33	0x3f66193b	0.8988225
34	0x3e09c100	0.1345253
35	0x3f175a57	0.5912222
36	0x3ee7741b	0.4520577
37	0x3e70ac47	0.23503219
38	0x3e6cf9ea	0.2314221
39	0x3f6d92a4	0.9280188
40	0x3ec7b218	0.39003062
41	0x3f4031c6	0.7507595
42	0x3f66f24b	0.9021346
43	0x3edffdcf	0.43748328
44	0x3f347a56	0.7049917
45	0x3f20b9e9	0.62783676
46	0x3f52cfd4	0.8234837
47	0x3e7c4f48	0.24639618
48	0x3f18692a	0.5953547
49	0x3eeb19ec	0.45918214
50	0x3f76d0a4	0.9641211
51	0x3f3d80b6	0.7402452
52	0x3f014044	0.50488687
53	0x3eacfecf	0.33788154
54	0x3ecd5e0c	0.40110815
55	0x3eb2828c	0.34865224
56	0x3e9b0b06	0.30281848
57	0x3ead9890	0.33905458
58	0x3f26da4a	0.6517683
59	0x3f2f04cd	0.683667
60	0x3e6229da	0.22086278
61	0x3d31c6b5	0.043402392
62	0x3f0a2dc8	0.53976107
63	0x3d94a697	0.07258337
64	0x3ed9f1a5	0.42567173
65	0x3eeb39a6	0.4594242
66	0x3e76222f	0.24036478
67	0x3eb9b149	0.3626807
68	0x3f00d6e4	0.503279
69	0x3f4b92c6	0.79520833
70	0x3f15c3a5	0.58501655
71	0x3f2628b4	0.6490586
72	0x3e5391e3	0.2066112
73	0x3e2d7f8e	0.1694319
74	0x3f18ccdd	0.59687597
75	0x3de2e956	0.110796615
76	0x3ef6cc49	0.48202732
77	0x3e932553	0.28739414
78	0x3f2e8e73	0.6818611
79	0x3e5170e1	0.20453216
80	0x3d1af70a	0.03783325
81	0x3f307a7a	0.68936884
82	0x3edbc7ab	0.42925772
83	0x3e4d32e9	0.20038952
84	0x3f17fabb	0.5936696
85	0x3f1b7524	0.6072562
86	0x3e54f597	0.2079681
87	0x3f255cac	0.6459453
88	0x3ef47733	0.47747192
89	0x3f57b82d	0.84265405
90	0x3df584dd	0.11988232
91	0x3f06be07	0.5263371
92	0x3f22e0a9	0.63624054
93	0x3f2b8cc1	0.6701165
94	0x3ec67bb0	0.3876624
95	0x3e9efdb4	0.31052935
96	0x3f3c89dc	0.73647857
97	0x3e96b8bc	0.29437816
98	0x3f02847c	0.50983405
99	0x3f1d9c25	0.6156638
100	0x3e861da7	0.26194498
101	0x3d439376	0.04774805
102	0x3f5cc856	0.8624319
103	0x3f0643f1	0.5244742
104	0x3f3eb43c	0.74493766
105	0x3d61c765	0.055121798
106	0x3f0f136e	0.5588902
107	0x3e2fe49a	0.17177048
108	0x3f5ae673	0.8550789
109	0xbce15fc7	-0.02751149
110	0x3f045c0a	0.5170294
111	0x3f1a934d	0.60381013
112	0x3e88e633	0.26738128
113	0x3f243d95	0.64156467
114	0x3e8676ef	0.26262614
115	0x3f1a9354	0.60381055
116	0x3ef60c0b	0.48056063
117	0x3f0e53cb	0.5559661
118	0x3f19239a	0.5981995
119	0x3ebe6c1f	0.37191865
120	0x3eb2b714	0.34905303
121	0x3f49190b	0.7855384
122	0x3ec22365	0.3791763
123	0x3f50e2fe	0.8159636
124	0x3d6c0beb	0.057628553
125	0x3de8dae3	0.11369874
126	0xbceaeb95	-0.028676787
127	0x3e6ecda3	0.23320632
128	0x3f401f6f	0.75047964
129	0x3ed296aa	0.41130573
130	0x3ece61dc	0.40309036
131	0x3eda1d28	0.4260037
132	0x3eb9d710	0.36296892
133	0x3ef85034	0.4849869
134	0x3e751426	0.23933467
135	0x3e591ead	0.21203108
136	0x3e84a015	0.25903383
137	0x3f03ff1e	0.5156115
138	0x3f215e91	0.6303492
139	0x3e9fcc07	0.31210348
140	0x3e5518c6	0.20810232
141	0x3ed97a0d	0.4247593
142	0x3f020569	0.50789505
143	0x3f1df336	0.61699235
144	0x3f38c536	0.7217592
145	0x3ef9e4df	0.48807427
146	0x3f0c028a	0.54691374
147	0x3e45242e	0.19252083
148	0x3f116598	0.56795645
149	0x3eee0cbc	0.4649409
150	0xbc4ccad4	-0.01249953
151	0x3e9fea69	0.31233528
152	0x3eced2bc	0.40395153
153	0x3ed5a247	0.4172537
154	0x3dc7fa13	0.09764495
155	0x3e49f142	0.19720939
156	0x3ee4278f	0.4456143
157	0x3eddc395	0.4331328
158	0x3ed04f5d	0.4068555
159	0x3f2e46a2	0.6807653
160	0x3f1e2fcc	0.6179168
161	0x3f300699	0.6876007
162	0x3f3cfb14	0.73820615
163	0x3e91fea3	0.28514585
164	0x3f1d41b7	0.614284
165	0x3bc005af	0.0058600525
166	0x3ebc56b8	0.3678491
167	0x3f52215a	0.8208214
168	0x3e8277e9	0.2548211
169	0x3ea209cb	0.31648096
170	0x3f4808e4	0.78138566
171	0x3f0f4cf3	0.5597679
172	0x3f5a37dc	0.85241485
173	0x3ef4768d	0.47746697
174	0x3ec9616b	0.39332137
175	0x3f1f3ef7	0.6220545
176	0x3f76f02a	0.9646021
177	0x3f2bccc2	0.6710931
178	0x3ec894af	0.39175937
179	0x3f54fd4c	0.83199
180	0x3dfa1c34	0.122124106
181	0x3f5044a3	0.8135473
182	0x3ea3e942	0.320139
183	0x3f276db3	0.6540176
184	0x3f78da8f	0.97208494
185	0x3f15f357	0.5857443
186	0x3f0fefa6	0.5622505
187	0x3e8144b4	0.2524773
188	0x3f100097	0.562509
189	0x3e105adf	0.14097165
190	0x3eeb9ec6	0.46019572
191	0x3f371f93	0.71532553
192	0x3ec7be18	0.39012218
193	0x3e119868	0.14218295
194	0x3e5cd97c	0.21567339
195	0x3f0b629a	0.5444733
196	0x3ec071be	0.37586778
197	0x3ee0f91d	0.43940058
198	0x3f44b8e6	0.7684463
199	0x3e81475a	0.2524975
200	0x3f080d77	0.53145546
201	0x3e9adc9a	0.3024643
202	0x3eefe2e4	0.4685279
203	0x3f0dc69a	0.55381167
204	0x3e76d3f6	0.24104294
205	0x3edab4d9	0.427161
206	0x3f725ceb	0.9467303
207	0x3ecf3c32	0.40475613
208	0x3dd2ef77	0.102995805
209	0x3e2f8d7d	0.17143817
210	0x3e201aee	0.15635273
211	0x3d21e564	0.039525405
212	0x3eff633b	0.49880394
213	0x3f1c70a7	0.61109394
214	0x3e88f6d2	0.2675081
215	0x3db925aa	0.09040387
216	0x3e92372c	0.28557718
217	0x3f520eb8	0.8205371
218	0x3f28a323	0.65873927
219	0x3f0c8873	0.54895705
220	0x3e7dfba0	0.24803019
221	0x3f3457df	0.7044658
222	0x3ea10c4e	0.314547
223	0x3efff1c7	0.4998915
224	0x3e4a63c4	0.1976462
225	0x3ea4d036	0.32190102
226	0x3ef2bd38	0.47409987
227	0x3f01b798	0.50670767
228	0x3f4f2a25	0.8092368
229	0x3f268a2b	0.6505458
230	0x3f248833	0.64270324
231	0x3f417a24	0.75576997
232	0x3f00d627	0.5032677
233	0x3f55eeb7	0.83567375
234	0x3e282980	0.16422081
235	0x3f20665a	0.62656176
236	0x3f410425	0.7539695
237	0x3f03dbf2	0.51507485
238	0x3d9e1d18	0.07720393
239	0x3f5c081e	0.85949886
240	0x3ef5a2ed	0.47975865
241	0x3ebed076	0.37268418
242	0x3e2c7c62	0.16844323
243	0x3f4cd570	0.8001318
244	0x3f41c91e	0.75697505
245	0x3e91a93a	0.28449422
246	0x3ec0e5c8	0.3767531
247	0x3e940a41	0.28914073
248	0x3df02e60	0.11727595
249	0x3e3c25b4	0.18373758
250	0x3e21282a	0.15737978
251	0x3f09cde7	0.5382981
252	0x3eb138bb	0.34613594
253	0x3f1c1670	0.60971737
254	0x3e6bb068	0.23016512
255	0x3f43e38b	0.7651908

bn1.bias f4 [256]
0	0xbd828e1c	-0.063747615
1	0xbdafd40d	-0.08585367
2	0xbda7782c	-0.08177218
3	0x3e08eef9	0.13372411
4	0x3e407052	0.18792847
5	0x3e245ada	0.16050282
6	0xbde7774f	-0.11302053
7	0x3d6e5c46	0.058193468
8	0xbc5cc645	-0.0134750055
9	0x3e492ae0	0.19645262
10	0x3c983641	0.018580558
11	0xbd14c1d4	-0.03631766
12	0x3db4c06e	0.088257656
13	0x3d9574c2	0.072976604
14	0x3d30d98f	0.04317623
15	0xbd102110	-0.03518778
16	0x3e2c1423	0.16804557
17	0x3c02bbc8	0.007979341
18	0x3dd81046	0.10549979
19	0x3e26cab1	0.16288258
20	0xbdfcb179	-0.12338538
21	0x3bf174db	0.0073686666
22	0x3dd7b2fb	0.10532185
23	0x3e94093c	0.28913295
24	0xbe2e1562	-0.17000344
25	0xbe83637d	-0.2566184
26	0x3e671981	0.22568323
27	0x3d596cff	0.053082462
28	0xbcbf9c3e	-0.023389932
29	0x3d2c8e24	0.042127743
30	0x3e31b443	0.1735392
31	0x3db4b4a6	0.088235185
32	0xbe44d534	-0.19221956
33	0x3d5eb547	0.0543721
34	0x3e6599ee	0.22422001
35	0xbe3c3124	-0.1837812
36	0x3dad66a9	0.084668465
37	0x3e6b41f6	0.22974381
38	0x3e303039	0.17205895
39	0xbd066e6b	-0.032820147
40	0xbe3f83f2	-0.18702677
41	0xbdd20021	-0.10253931
42	0x3baae70f	0.0052155326
43	0x3de9c67e	0.114148125
44	0x3e3d3db9	0.18480577
45	0x3d8c6b0a	0.068563536
46	0x3c2d16fa	0.01056456
47	0xbde5ff2e	-0.11230312
48	0x3cc2fd1c	0.023802333
49	0xbdf7b5dd	-0.120952345
50	0x3db1969c	0.086713046
51	0x3e1a295e	0.15054843
52	0xbe05cb6c	-0.1306588
53	0x3e450066	0.19238433
54	0xbc8e10c4	-0.017341979
55	0xbd540873	-0.05176587
56	0xbcbff935	-0.02343426
57	0xbd68b921	-0.056817178
58	0xbdaf517e	-0.08560465
59	0x3cb2f126	0.021843504
60	0x3d88be77	0.06676953
61	0x3d959b0f	0.07304966
62	0xbcb7959b	-0.022410205
63	0x3ea1752a	0.31534702
64	0x3deed281	0.11661244
65	0x3d8a8d1b	0.06765195
66	0x3e34a32e	0.17640373
67	0xbd0f8c81	-0.035046104
68	0xbd0e6240	-0.034761667
69	0xbdeaff7b	-0.1147451
70	0x3da8f721	0.08250261
71	0x3e52b4c4	0.20576769
72	0xbc5651dc	-0.01308104
73	0xbc8966a9	-0.016772585
74	0x3d99a71e	0.07502578
75	0xbe4c3c0b	-0.1994478
76	0x3dc72170	0.097231746
77	0xbe5df75e	-0.21676394
78	0x3c59199e	0.0132507365
79	0x3e2ce540	0.16884327
80	0xbdf36afb	-0.11885639
81	0xbb24d0ee	-0.0025148946
82	0xbb0d70ef	-0.0021582206
83	0x3e1c1ebc	0.15246099
84	0x3da047b2	0.07826175
85	0xbd4615cb	-0.048360627
86	0x3d855522	0.065103784
87	0x3d099895	0.03359278
88	0x3e038b3c	0.12846082
89	0xbe4bc4f3	-0.19899349
90	0xbcdbaf16	-0.026816886
91	0xbdd589ea	-0.10426696
92	0xbe02de69	-0.12780155
93	0x3dd1f0d5	0.10251013
94	0xbd7251c8	-0.059160024
95	0x3d64f0fa	0.055893876
96	0x3dfa3fb0	0.12219179
97	0x3e7eb53a	0.2487382
98	0x3e3c486c	0.18387002
99	0xbdd75d29	-0.10515816
100	0x3de9e608	0.11420828
101	0xbe539c8a	-0.20665184
102	0x3e3d937c	0.18513292
103	0x3e1357d2	0.1438897
104	0xbcb22fd8	-0.02175133
105	0x3e85ad73	0.26108894
106	0x3e840970	0.2578845
107	0xbe4d756d	-0.20064326
108	0xbe07cdc0	-0.13262081
109	0x3e85befa	0.26122266
110	0xbd15cf91	-0.036574904
111	0x3e48ba3d	0.19602294
112	0x3cc9c3ff	0.024629591
113	0x3d788ca3	0.060680997
114	0x3e2cd673	0.16878681
115	0xbe1233a3	-0.1427751
116	0xbd901e0b	-0.0703698
117	0x3d9474c9	0.072488375
118	0x3d6dd86f	0.058067735
119	0xbd867936	-0.06566088
120	0x3dba9c28	0.09111816
121	0x3de42821	0.111404665
122	0xbe152b00	-0.14567184
123	0x3dc324db	0.09528514
124	0xbea85dab	-0.32883963
125	0xbe3a6f10	-0.1820643
126	0x3ea8e5c2	0.3298779
127	0xbe66f4b2	-0.22554281
128	0x3de21968	0.11040002
129	0xbdf7e89c	-0.121049136
130	0xbdb72fa3	-0.08944633
131	0xbce0862e	-0.027407732
132	0x3e1a66c6	0.15078267
133	0x3bc56b24	0.006024735
134	0x3d7dc3f3	0.06195445
135	0xbcc94e3b	-0.024573436
136	0xbe060c43	-0.13090615
137	0x3da68f71	0.08132828
138	0x3dac968f	0.08427154
139	0x3ca9eff2	0.020744298
140	0x3e2c4003	0.16821294
141	0x3d825ba2	0.06365134
142	0x3e22f810	0.15914941
143	0x3d66147e	0.056171887
144	0x3a4abe0e	0.0007734009
145	0x3c87978f	0.016551761
146	0x3d78c40d	0.060733844
147	0x3c5d507b	0.013507958
148	0x3d30edbb	0.043195467
149	0x3e3f547a	0.18684569
150	0xbe72187c	-0.23642153
151	0xbde61914	-0.11235252
152	0x3d710789	0.058845077
153	0x3e0eac4d	0.13932915
154	0x3e0e2837	0.13882528
155	0x3d92dd1d	0.0717108
156	0xbe2b4cea	-0.16728559
157	0xbcff4b84	-0.031163938
158	0xbc492197	-0.012276075
159	0x3bd514cd	0.006502724
160	0x3d603b8b	0.054744285
161	0xbdf6b5ed	-0.12046418
162	0x3caa5f25	0.020797322
163	0xbc8fe243	-0.017563945
164	0x3cddfa1e	0.027096804
165	0x3e9a7cf0	0.30173445
166	0x3dd3342d	0.10312686
167	0x3b7ed1d4	0.0038882392
168	0x3e072473	0.13197498
169	0x3e329697	0.17440258
170	0x3b0d0cbb	0.002152248
171	0xbdea4435	-0.11438791
172	0x3d2d08ec	0.042244837
173	0xbd9527d6	-0.07282989
174	0xbdbc2bc8	-0.09188038
175	0x3e2d0ab6	0.16898617
176	0x3dd25896	0.10270803
177	0x3e6e94ba	0.23298922
178	0x3d32eba7	0.043681767
179	0x3d1b512a	0.0379192
180	0xbe480662	-0.19533685
181	0xbba4db6e	-0.005031041
182	0xbc2052be	-0.009785352
183	0xbdc1d89c	-0.09465143
184	0x3e0942e4	0.13404423
185	0x3cc64233	0.024201488
186	0x3db1c88c	0.086808294
187	0xbbd7f775	-0.0065907785
188	0x3d91f912	0.071275845
189	0xbe1e5a01	-0.15464021
190	0x3e01effd	0.12689205
191	0x3dd508ba	0.10402055
192	0x3def5199	0.116854854
193	0xbe02d790	-0.12777543
194	0xbdd422af	-0.10358178
195	0xbd35cef8	-0.044386834
196	0x3deb3b18	0.114858806
197	0xbd272653	-0.040808033
198	0x3d0599f1	0.032617513
199	0xbe0c13bb	-0.13679402
200	0x3e6dd6d0	0.23226476
201	0x3e2ae7d2	0.16689995
202	0xbd6a2dda	-0.057172634
203	0xbe4302fe	-0.1904411
204	0x3e0918bc	0.13388342
205	0x3c954640	0.018221974
206	0x3d35fdf2	0.044431634
207	0x3d342e59	0.043989513
208	0x3e66a247	0.22522841
209	0x3ce4275d	0.027850801
210	0xbe242fe4	-0.16033894
211	0x3eb6499c	0.35603034
212	0x3d985093	0.07437243
213	0x3d6cd774	0.05782266
214	0x3e248c80	0.16069221
215	0x3eaa5f35	0.33275762
216	0x3e537d1e	0.20653197
217	0x3e4ed961	0.20200111
218	0x3e19549b	0.1497368
219	0xbde35961	-0.11101032
220	0x3b8632a6	0.0040953932
221	0xbda9db88	-0.082938254
222	0x3d5d1db5	0.05398341
223	0x3e8fa9d7	0.28059265
224	0xbd8d6c1b	-0.06905385
225	0x3e1125fe	0.14174649
226	0x3d858569	0.065195866
227	0x3d8e5467	0.06949692
228	0x3c1c64ff	0.009545564
229	0xbda87c5b	-0.08226844
230	0x3daa00ad	0.0830091
231	0x3cc301db	0.023804596
232	0x3d24364c	0.040090844
233	0x3e1701f1	0.14746834
234	0x3d709acd	0.05874138
235	0xbc077abc	-0.008269008
236	0x3d4d9272	0.05018849
237	0x3b956c47	0.004560027
238	0xbe6e5f2a	-0.2327849
239	0x3dc58ed1	0.09646381
240	0x3e15b871	0.1462114
241	0x3e98384d	0.29730454
242	0x3e8946e4	0.26811898
243	0xbd17aee3	-0.03703202
244	0xbd55d31d	-0.052203286
245	0x3e0108e5	0.12601049
246	0x3e32bbe3	0.17454486
247	0xbe003f6e	-0.12524197
248	0x3d1577bd	0.036491144
249	0xbe008903	-0.12552266
250	0xbd21e42e	-0.03952425
251	0xbd864200	-0.06555557
252	0x3de44932	0.111467734
253	0x3ce026ea	0.027362306
254	0x3cc2c151	0.023773821
255	0xbc272d5d	-0.010203687

bn1.running_mean f4 [256]
0	0x408a6aff	4.325561
1	0x3ea53f4d	0.32274857
2	0x4013efa9	2.3115027
3	0x3e4c03fb	0.19923393
4	0x3f6c3897	0.9227385
5	0x40875d98	4.230175
6	0x4075b391	3.8390849
7	0x3fc2c21c	1.5215487
8	0x3ea76fa9	0.32702377
9	0x3f27be8a	0.65525115
10	0x404628f1	3.0962489
11	0x3f5792a3	0.84208125
12	0x3f818214	1.0117822
13	0x3f23c8eb	0.6397845
14	0x400e29d3	2.2213027
15	0x3fad94f7	1.3561085
16	0x3f97517b	1.1821741
17	0x3f9d83b6	1.230582
18	0x3e1b7c99	0.15184249
19	0x3ef91151	0.48646024
20	0x3fb4f010	1.4135761
21	0x3f2ce606	0.6753849
22	0x3f613a35	0.8797944
23	0x40540732	3.3129392
24	0x3f109090	0.56470585
25	0x404215df	3.032585
26	0x3d4d8e1e	0.05018436
27	0x4053b744	3.3080606
28	0x3f8df401	1.1090089
29	0x3fd98f40	1.6996841
30	0x3ee3d15e	0.44495672
31	0x3f185204	0.59500146
32	0x3ea9c03c	0.33154476
33	0x3e7f1cc8	0.24913323
34	0x3fb1aff7	1.3881825
35	0x3f4a03da	0.78912127
36	0x3f869c11	1.0516378
37	0x3f811e7a	1.0087426
38	0x3ff76cd3	1.9330086
39	0x3ec38429	0.38186768
40	0x3f56a21f	0.8384113
41	0x3f37ed67	0.7184662
42	0x404f6641	3.240616
43	0x3f6a6f27	0.91575855
44	0x3f155cd6	0.5834478
45	0x3f197626	0.59945905
46	0x401b42b5	2.4259465
47	0x3fc1d08e	1.5141771
48	0x3fa2dcbf	1.2723616
49	0x4070cc7e	3.7624812
50	0x3ed6d5ab	0.4195989
51	0x3ffd2901	1.9778138
52	0x4039b0d8	2.9014187
53	0x3ebb3bff	0.3656921
54	0x400faa9a	2.2447877
55	0x406f42ac	3.7384443
56	0x3e903c16	0.28170842
57	0x3fda34f9	1.7047416
58	0x40187ae7	2.3825014
59	0x407d3cf6	3.9568458
60	0x400b1f63	2.1737907
61	0x40369120	2.8526077
62	0x40508e0d	3.25867
63	0x40004da4	2.0047388
64	0x3f8f591e	1.1199071
65	0x3f7e0765	0.99230033
66	0x3f4331f3	0.7624809
67	0x3fae6951	1.362589
68	0x3fde3c54	1.7362161
69	0x3fb69b91	1.4266225
70	0x3ff3dc0b	1.9051527
71	0x3ff03c65	1.8768431
72	0x3fbc7f7e	1.4726408
73	0x3fadf317	1.358981
74	0x3d9d82f9	0.07690997
75	0x3f27ff15	0.656236
76	0x403824b3	2.87724
77	0x3edb0d24	0.42783463
78	0x3e5d9afc	0.21641153
79	0x3faa2cf3	1.3294967
80	0x3d091831	0.033470336
81	0x3f403552	0.7508136
82	0x3f4b60a9	0.79444367
83	0x3f9a1636	1.2038028
84	0x401d345c	2.4563208
85	0x3fddbfff	1.7324218
86	0x3ec1d0c1	0.3785458
87	0x3e5d7ca7	0.21629582
88	0x4004ece2	2.0769582
89	0x3f0b7123	0.5446951
90	0x4015a4ba	2.338179
91	0x40a1dbec	5.058096
92	0x404e15ce	3.2200809
93	0x3f3d29c7	0.7389187
94	0x4019b064	2.401391
95	0x3ecb71ef	0.39735362
96	0x3f9b9748	1.2155542
97	0x40475e7e	3.1151423
98	0x40171fb8	2.361311
99	0x4000742e	2.007091
100	0x40616bde	3.5222087
101	0x3feff912	1.8747885
102	0x4075e57a	3.8421311
103	0x3fd275f2	1.6442244
104	0x4010907d	2.2588189
105	0x40378c23	2.8679283
106	0x3de7f83c	0.11326644
107	0x400460ae	2.0684009
108	0x3fd013c0	1.6256027
109	0x3dda127e	0.10648058
110	0x4015b1b4	2.3389711
111	0x3fb1a29f	1.3877753
112	0x3fa59bc5	1.2938162
113	0x4056cb8c	3.3561735
114	0x3e44c4ba	0.1921567
115	0x40afcf7e	5.4940786
116	0x3f4c56ad	0.79819757
117	0x4000d0df	2.0127485
118	0x3ea91ec4	0.33031285
119	0x3f6aaa4c	0.916661
120	0x405d77e6	3.460443
121	0x3ff78ca2	1.9339793
122	0x3eff3320	0.49843693
123	0x3f4b695a	0.7945763
124	0x3f84e7d3	1.0383247
125	0x3e8247ff	0.25445554
126	0x408392c3	4.1116652
127	0x4084fdb2	4.1559687
128	0x406825cc	3.627307
129	0x40c25433	6.072778
130	0x3fac6145	1.3467184
131	0x3e80cd11	0.25156453
132	0x3f8eea8a	1.1165326
133	0x3f49ee2f	0.78879064
134	0x3fe131ca	1.759332
135	0x3f6cff6e	0.92577255
136	0x3c8b4935	0.017002681
137	0x3f0e3875	0.55554897
138	0x3fa68ad9	1.3011123
139	0x3f788ea8	0.97092676
140	0x3fad3339	1.3531257
141	0x4020cdfc	2.5125723
142	0x407ea0c5	3.9785626
143	0x3e7b661c	0.2455067
144	0x40902675	4.5046945
145	0x3f4b3f52	0.79393494
146	0x4091f169	4.560719
147	0x3eb30d97	0.34971306
148	0x3fe0bedd	1.7558247
149	0x3d7d0f17	0.06178197
150	0x40766f5a	3.8505464
151	0x3cb605cc	0.022219561
152	0x3eb5eea7	0.3553364
153	0x3f161af0	0.58634853
154	0x3fdf54c0	1.7447739
155	0x3f20f52e	0.62874115
156	0x3f0f58f3	0.559951
157	0x3faa3cb5	1.3299776
158	0x3ea67127	0.32508203
159	0x402c7b16	2.6950126
160	0x404dda13	3.2164352
161	0x3fdacf77	1.7094563
162	0x3efea63e	0.49736208
163	0x3f7f3cdd	0.99702245
164	0x3d58dcb3	0.05294485
165	0x403f6b7f	2.990936
166	0x3f73af04	0.9518893
167	0x40a2b2ea	5.08434
168	0x3d87cea0	0.066312075
169	0x3f020828	0.50793695
170	0x406d1142	3.7041783
171	0x409ebdf3	4.960687
172	0x3f546a2c	0.82974505
173	0x40754105	3.8320935
174	0x40a30765	5.0946527
175	0x40232834	2.5493288
176	0x3e82c9c3	0.25544557
177	0x40465eef	3.0995443
178	0x401eddf5	2.4822972
179	0x40116f59	2.2724211
180	0x3fad4a7e	1.3538358
181	0x409c422f	4.883079
182	0x3f38c21b	0.7217118
183	0x3f90e9a4	1.1321301
184	0x40168d57	2.3523767
185	0x3e43499d	0.1907105
186	0x4005611a	2.0840516
187	0x4041d4bc	3.0286093
188	0x3ee44c3f	0.4458942
189	0x3e9a6223	0.30152997
190	0x406a5104	3.6611948
191	0x3fc7d170	1.561079
192	0x407fa428	3.9943943
193	0x40915653	4.5417876
194	0x3e52f87f	0.20602606
195	0x3fb1c1be	1.388725
196	0x3f28f534	0.6599915
197	0x4005af63	2.0888298
198	0x3fab071a	1.3361542
199	0x4080d48e	4.0259466
200	0x3fe40d97	1.7816647
201	0x3e8079d9	0.25092962
202	0x4067197b	3.6109302
203	0x405e184d	3.4702332
204	0x3facb3ee	1.349241
205	0x3f0b09f9	0.5431209
206	0x3e6e8c16	0.23295626
207	0x3eccc5b3	0.39994583
208	0x4023e8ad	2.5610764
209	0x4043c28f	3.05875
210	0x3e31e0ad	0.17370863
211	0x3f6de585	0.92928344
212	0x40272fb2	2.612286
213	0x40068e5d	2.1024392
214	0x3f802e71	1.0014173
215	0x3fe333e0	1.7750206
216	0x3f72a325	0.9478019
217	0x400c3562	2.1907582
218	0x3f915dfe	1.1356809
219	0x3f4a4845	0.79016525
220	0x3f83d67c	1.029983
221	0x406cc788	3.6996784
222	0x3e830375	0.25588575
223	0x4033a7fe	2.8071284
224	0x3fb9baf9	1.4510185
225	0x405759c7	3.3648546
226	0x3f62b255	0.88553363
227	0x3fe5bc29	1.7948047
228	0x3f59ed46	0.85127676
229	0x3db75e23	0.08953502
230	0x3fc37b46	1.5271995
231	0x40979ec9	4.738133
232	0x4091c098	4.55476
233	0x3f669103	0.9006502
234	0x3eb3e898	0.35138392
235	0x3ea7e29f	0.32790086
236	0x40059916	2.0874686
237	0x3f1591e8	0.5842576
238	0x3ee760a3	0.45190915
239	0x3f2ab3a7	0.6668038
240	0x3ee9c93c	0.45661342
241	0x3dcb1a81	0.099171646
242	0x3efe5cbc	0.49680126
243	0x3fb94ae9	1.4475986
244	0x3f83d780	1.030014
245	0x3fdfba56	1.747874
246	0x3f9490e8	1.1606722
247	0x3e7c1644	0.24617869
248	0x3f99c554	1.2013345
249	0x3f86b042	1.052254
250	0x3ddcbd14	0.10778251
251	0x3fd05cab	1.627828
252	0x403c9b09	2.9469626
253	0x402918b1	2.642132
254	0x3f4a9472	0.7913276
255	0x402228d2	2.5337415

bn1.running_var f4 [256]
0	0x41375f2a	11.460733
1	0x3ed1f6ae	0.41008514
2	0x40d0ecc3	6.5289016
3	0x3e904fef	0.28185984
4	0x40219383	2.5246284
5	0x41b887aa	23.066242
6	0x411793a3	9.473544
7	0x40e812f3	7.252313
8	0x3ed88cc2	0.4229489
9	0x3f859afd	1.0437924
10	0x4096c24e	4.711219
11	0x3fffbe04	1.9979863
12	0x40b3325d	5.599898
13	0x3f032b7f	0.51238245
14	0x411dee14	9.870625
15	0x408e229b	4.4417243
16	0x4001ddd9	2.0291655
17	0x4095cd44	4.681307
18	0x3eb04d25	0.34433857
19	0x3fb13111	1.3843099
20	0x4026efdd	2.60839
21	0x3f9ea3e9	1.2393771
22	0x3fe4b6a2	1.7868235
23	0x412aba80	10.670532
24	0x3ff5c990	1.9202137
25	0x41589bb6	13.538015
26	0x3d9b28e7	0.07576161
27	0x41150429	9.313516
28	0x400ce254	2.201314
29	0x41485372	12.520372
30	0x3f68a311	0.9087382
31	0x3fbc9deb	1.4735693
32	0x3fa49185	1.2856909
33	0x3ea5008c	0.3222698
34	0x4109641d	8.586942
35	0x3f8cccc5	1.0999991
36	0x3f93e54e	1.1554353
37	0x4083fb9a	4.124463
38	0x41479ca7	12.475745
39	0x3ee288d0	0.44245005
40	0x4041018b	3.0157192
41	0x3e856634	0.26054537
42	0x401a7439	2.4133437
43	0x4049d9d7	3.153921
44	0x3f4a3ad9	0.78996044
45	0x4020b467	2.511011
46	0x408a6c25	4.325701
47	0x40dd807f	6.9219356
48	0x40ad48fa	5.4151583
49	0x419e7d69	19.811235
50	0x3ebd69d7	0.36994812
51	0x416e85c2	14.907656
52	0x40e2c260	7.0862274
53	0x3f648632	0.89267266
54	0x408613f5	4.189936
55	0x42223752	40.554024
56	0x3f375569	0.716147
57	0x4114f07f	9.308715
58	0x413a6903	11.650638
59	0x418e1323	17.759344
60	0x4147dff8	12.49218
61	0x4127c883	10.486453
62	0x4165278a	14.322153
63	0x4186e705	16.862803
64	0x3fdb8557	1.7150067
65	0x4028208e	2.626987
66	0x3ffb1dd7	1.9618481
67	0x41152648	9.321846
68	0x40eb7919	7.3585324
69	0x4085dfe3	4.18358
70	0x40aa7989	5.327336
71	0x40a6fca4	5.21834
72	0x3fd441ff	1.658264
73	0x40da6c36	6.8257093
74	0x3da725ed	0.08161531
75	0x40422d29	3.0340064
76	0x41269ffd	10.41406
77	0x3fd16435	1.6358706
78	0x3ed31a9a	0.41231233
79	0x4032c5cb	2.7933223
80	0x3d452815	0.04813393
81	0x3f88b0b0	1.0678921
82	0x400f93a6	2.2433867
83	0x40e26816	7.075206
84	0x416503ee	14.313459
85	0x41046e77	8.276969
86	0x3f17c96d	0.59291726
87	0x3e177c32	0.1479347
88	0x416156ce	14.083693
89	0x3e2c4bbd	0.16825767
90	0x4188c092	17.094028
91	0x41b81376	23.009502
92	0x41a7565e	20.917171
93	0x3fc25e0d	1.5184952
94	0x41163985	9.389043
95	0x3fa0e9f9	1.2571403
96	0x40c5b7a5	6.1786675
97	0x412c7ae7	10.780005
98	0x4154e07a	13.304804
99	0x4199d61e	19.22955
100	0x41921828	18.261795
101	0x410d6139	8.836236
102	0x40cd49c0	6.4152527
103	0x4112d532	9.17705
104	0x41864c57	16.787275
105	0x40f3ee32	7.6228266
106	0x3e32ab91	0.1744826
107	0x40908b1a	4.51698
108	0x4129c75d	10.611173
109	0x3eb2a223	0.34889325
110	0x415626ea	13.3845005
111	0x40807f5d	4.0155473
112	0x403a7adb	2.9137485
113	0x410ce270	8.805283
114	0x3f09e9b4	0.5387223
115	0x418f0213	17.876013
116	0x3f846bfb	1.0345453
117	0x40a60e96	5.1892805
118	0x3f1f6972	0.6227027
119	0x40237cff	2.5545042
120	0x41623489	14.137826
121	0x411804e8	9.501198
122	0x3de1a427	0.11017638
123	0x3f5e0dea	0.8673998
124	0x4072c072	3.792996
125	0x3f1eb896	0.62000406
126	0x4161adcb	14.10493
127	0x41134b04	9.205814
128	0x41152f86	9.324102
129	0x41573153	13.449542
130	0x4078d4df	3.8879926
131	0x3f552a67	0.83267826
132	0x40515c1e	3.2712474
133	0x3fcbc5c3	1.5919727
134	0x416d73fa	14.840815
135	0x40657750	3.5854073
136	0x3c903643	0.017603999
137	0x3fb17d0d	1.3866287
138	0x40d60d84	6.68915
139	0x3f87b710	1.0602741
140	0x4086a62b	4.207784
141	0x40fc4d44	7.884432
142	0x422cf8a5	43.242817
143	0x3e9825e9	0.29716423
144	0x417c4896	15.767721
145	0x4008327a	2.1280808
146	0x4138b46e	11.54405
147	0x3fa05fcc	1.2529235
148	0x3f4a552a	0.790362
149	0x3e1fc83c	0.15603727
150	0x4190eec9	18.116594
151	0x3c9c75a6	0.019099068
152	0x3f5e85a0	0.86922646
153	0x3f81a842	1.0129473
154	0x40a89ff8	5.2695274
155	0x3fe4ba33	1.7869323
156	0x3e7f72bf	0.24946116
157	0x40bd3993	5.913278
158	0x3f88ed89	1.069749
159	0x414a59c9	12.64692
160	0x4127e772	10.494005
161	0x409f9f88	4.988224
162	0x3f3bad68	0.7331147
163	0x404e2a86	3.2213454
164	0x3db27afa	0.08714862
165	0x41655d82	14.335329
166	0x400a8ae9	2.1647284
167	0x42492a43	50.29127
168	0x3dcfd7cb	0.10148581
169	0x3f8a00f5	1.0781542
170	0x41843b0c	16.528831
171	0x41bcb23e	23.587032
172	0x3fa973a7	1.3238419
173	0x417dd462	15.864351
174	0x406fdc2e	3.7478137
175	0x412fffb4	10.9999275
176	0x3e9e3f70	0.30907774
177	0x41054353	8.328937
178	0x41658fee	14.347639
179	0x4092c6a6	4.586749
180	0x40574419	3.3635314
181	0x40630998	3.5474606
182	0x3f9e50e5	1.2368437
183	0x40c6fd83	6.2184463
184	0x40c9764e	6.2956915
185	0x3ec2e720	0.3806696
186	0x40c44642	6.1335764
187	0x40b97f7f	5.7968135
188	0x3f3557a1	0.70836836
189	0x3f68e98b	0.9098136
190	0x4174e49f	15.305816
191	0x401c61c5	2.4434674
192	0x41a0688d	20.05105
193	0x41831604	16.38575
194	0x3f04a425	0.51812965
195	0x40ebbc32	7.366723
196	0x3f9f9b6f	1.246931
197	0x41354123	11.3284025
198	0x3f87ece1	1.0619165
199	0x40cf207a	6.4727144
200	0x40a112c7	5.033542
201	0x3f367751	0.7127581
202	0x40c725f5	6.2233834
203	0x40f8661e	7.7624655
204	0x40831d59	4.0973325
205	0x3f59e98e	0.85122
206	0x3dd9c379	0.106329866
207	0x3f1c609d	0.6108492
208	0x40a9b912	5.3038416
209	0x413d1a92	11.818987
210	0x3ecdf16e	0.4022326
211	0x404be0b4	3.1855898
212	0x40c03d23	6.007463
213	0x40c70449	6.219273
214	0x4012b5d2	2.2923474
215	0x40a264b8	5.074795
216	0x40431e73	3.0487335
217	0x40e7543c	7.2290325
218	0x3fd1a356	1.6377971
219	0x400f695f	2.2408063
220	0x3fe90a0b	1.820619
221	0x415f03e7	13.938453
222	0x3ecbeb04	0.3982774
223	0x41450df8	12.31591
224	0x40de663f	6.949981
225	0x417d0ce6	15.815649
226	0x3ff71ede	1.9306295
227	0x40f3f3a9	7.6234937
228	0x3f86d027	1.0532273
229	0x3e22690f	0.15860389
230	0x40c209b2	6.0636835
231	0x4195ae63	18.71015
232	0x41ce1b04	25.763191
233	0x4073597c	3.8023367
234	0x3f7345bc	0.9502828
235	0x3ef63873	0.48089942
236	0x40c959e5	6.2922235
237	0x3fe6faef	1.8045329
238	0x3f90ada0	1.1302986
239	0x3fb97036	1.4487369
240	0x3f31a672	0.693946
241	0x3e0a9e4c	0.13536948
242	0x3f923170	1.1421337
243	0x413b222c	11.695843
244	0x40422fdd	3.0341713
245	0x4094fdea	4.6559954
246	0x40a3ceb5	5.118983
247	0x3eec6ec9	0.46178272
248	0x40a35b42	5.10489
249	0x4062bf35	3.5429204
250	0x3e506cc6	0.20353994
251	0x410f37b5	8.9511
252	0x4181fa26	16.247143
253	0x40711111	3.7666667
254	0x3fc17e29	1.5116626
255	0x40015377	2.0207193

fc2.weight f4 [128, 256]
0	0x3d0720d6	0.0329903
1	0x3dc125f9	0.09431071
2	0xbd12670e	-0.03574281
3	0xbdadc017	-0.08483904
4	0xbd0f88c8	-0.035042554
5	0x3cefebaa	0.029287178
6	0x3dd53354	0.10410181
7	0x3d50cbaf	0.050975498
8	0xbabe6926	-0.0014527186
9	0xbdd965dc	-0.10615131
10	0x3c66f54b	0.014096568
11	0xbb06f704	-0.002059401
12	0xbd46079f	-0.04834711
13	0x3d3e8544	0.04651381
14	0x3cbb9aec	0.022901021
15	0x3bf6ae4e	0.007528103
16	0xbcb78c61	-0.022405805
17	0xbb9758c1	-0.0046187346
18	0x3df93c16	0.121696636
19	0xbd09662f	-0.033544715
20	0xbd2e3e78	-0.042540044
21	0x3d106088	0.03524831
22	0xbb8466a6	-0.004040557
23	0xbd4e075a	-0.05029998
24	0x3d95dcb6	0.07317488
25	0x3d7bd043	0.06147791
26	0xbdc182ec	-0.094487995
27	0xbd824dcd	-0.063624956
28	0x3b5aac24	0.0033366764
29	0x3bb17818	0.0054159276
30	0xbd92cb12	-0.07167639
31	0xbd28a210	-0.04117018
32	0x3d420fbd	0.04737829
33	0x3d8577f8	0.06517023
34	0xbdd59b88	-0.10430056
35	0x3d0ec469	0.03485528
36	0x3dd77856	0.10520999
37	0xbe11ac67	-0.14225923
38	0xbcd2edb9	-0.02574812
39	0x3d242536	0.04007455
40	0x3ab045af	0.0013448502
41	0x3d8ac041	0.06774951
42	0x3c82e056	0.015976112
43	0x3cab3dfa	0.020903576
44	0xbcf438d1	-0.029812248
45	0xbc01d431	-0.0079241255
46	0x3bec838c	0.00721783
47	0xbcb222c6	-0.021745097
48	0x3d1bfc44	0.038082376
49	0xbc6e5c66	-0.014548397
50	0xbcf3c5a3	-0.029757326
51	0x3d0f9968	0.03505841
52	0xbbcf2673	-0.006321722
53	0xbd540e6e	-0.051771574
54	0x3cf7bf34	0.03024254
55	0x3c37e7e1	0.011224718
56	0xbd32b984	-0.043633953
57	0xbc32a642	-0.010903897
58	0x3c5040ad	0.012710732
59	0x3cb97433	0.022638416
60	0xbd5e3cfc	-0.054257378
61	0x3c964369	0.01834269
62	0x3cd57b91	0.026059898
63	0xbdc81ffe	-0.09771727
64	0x3c4ddabb	0.012564356
65	0xbb9815f1	-0.0046412875
66	0xbcdafef1	-0.026732894
67	0xbceadb10	-0.02866891
68	0x3d08bd1d	0.033383477
69	0xbbc14402	-0.0058979997
70	0xbd761945	-0.060082693
71	0x3ccc1955	0.024914423
72	0xb9375f6d	-0.00017487789
73	0xbcf8ee1f	-0.030386982
74	0xbd31db0f	-0.0434218
75	0x3cd88367	0.026429845
76	0xbc612ec8	-0.013744064
77	0x3d1d2a05	0.03837015
78	0xbc5f45dd	-0.013627497
79	0xbe0f8dd3	-0.14018945
80	0x3daec247	0.08533149
81	0x3cbf36f1	0.023341628
82	0xbaa9754d	-0.0012928635
83	0xbe44e0b7	-0.19226347
84	0x3d422a56	0.047403656
85	0x3d80ebe0	0.062949896
86	0xbd60a648	-0.05484608
87	0x3ceb81c1	0.028748395
88	0xbdaf432f	-0.08557736
89	0xbdf4470d	-0.11927614
90	0x3c72a9a2	0.014810951
91	0x3d6273da	0.055286266
92	0x3d39074c	0.045172974
93	0xbc7d09ae	-0.015444202
94	0xbcfafdac	-0.030638538
95	0xbd13d6ad	-0.036093403
96	0xbc27c030	-0.010238692
97	0xbdb727aa	-0.08943112
98	0x3ccb2af8	0.024800763
99	0x3d630323	0.055422913
100	0xbd91e6de	-0.071241125
101	0x3e16bb6c	0.14719933
102	0xbc77d2d9	-0.015125954
103	0x3cc99936	0.02460919
104	0xbcf7570c	-0.030192874
105	0xbd6b5d69	-0.05746213
106	0xbcd29e05	-0.025710115
107	0x3dc9d49c	0.09855005
108	0xba8e2986	-0.0010846115
109	0xbd741bbb	-0.05959676
110	0x3bce67a7	0.0062989774
111	0xbca0b9c9	-0.01961984
112	0xbc9237a7	-0.017848803
113	0xbd1155e6	-0.03548231
114	0xbe207fc7	-0.15673743
115	0x3c733336	0.014843753
116	0xbdd1d95f	-0.10246538
117	0xb98bdfe2	-0.00026678952
118	0x3d8171a0	0.063205004
119	0xbc338357	-0.010956607
120	0xbdcd5964	-0.100268155
121	0xbd370e52	-0.04469139
122	0x3c88fee4	0.016723104
123	0x3c5d5879	0.013509863
124	0x3dbec805	0.093154944
125	0x3cb14689	0.02164008
126	0xbdec6e11	-0.11544431
127	0x3dfb0201	0.122562416
128	0xbcd7e4b9	-0.02635418
129	0x3d827407	0.06369787
130	0x3c670ef3	0.014102685
131	0x3bd56601	0.006512404
132	0x3d7e401c	0.06207286
133	0xbaf882ae	-0.0018959844
134	0xbd10ee1c	-0.03538333
135	0x3d73fc10	0.059566557
136	0x3b531859	0.0032210557
137	0xbce3cb35	-0.027806858
138	0xbd1693f2	-0.036762185
139	0xbd1aedcb	-0.037824433
140	0xbd1e1326	-0.03859248
141	0x3d251fdb	0.040313583
142	0xbd4876bf	-0.04894137
143	0xbd830403	-0.063972495
144	0x3d929816	0.07157914
145	0x3d80fa37	0.06297725
146	0xbb8a39c0	-0.00421831
147	0xbdb40fa8	-0.08792049
148	0x3dab36cf	0.08360063
149	0xbdac8b0a	-0.08424957
150	0x3e3ad628	0.18245757
151	0xbb597a20	-0.0033184364
152	0x3c2d5d93	0.010581392
153	0xbd22ad28	-0.039715916
154	0xbdb28afe	-0.08717917
155	0xbd8296c9	-0.06376416
156	0x3d2ed5b4	0.042684272
157	0x3d6b120d	0.05739026
158	0x3c537eda	0.012908662
159	0xbc963a50	-0.018338352
160	0xbc4b8059	-0.012420737
161	0x3d157f43	0.03649832
162	0x3d14127a	0.036150433
163	0xbd33f9ab	-0.043939274
164	0x3d7a6347	0.061129835
165	0xbd4e68f8	-0.050393075
166	0x3d9f74f4	0.07785979
167	0xbcff9325	-0.031198094
168	0x3cb339db	0.021878174
169	0x3d061266	0.03273239
170	0xbc55ebeb	-0.0130567355
171	0x3d1ef689	0.038809333
172	0xbd3ddfa3	-0.046355855
173	0x3d0bd46c	0.03413813
174	0x3a9c29ee	0.0011914351
175	0xbce3f0bf	-0.027824758
176	0xbd7669ec	-0.06015961
177	0x3d144f02	0.03620816
178	0x3b768f47	0.003762202
179	0x3ad5f44c	0.0016323416
180	0x3ba0b9c7	0.004904959
181	0x3aeeb635	0.0018212261
182	0xbd3803b8	-0.04492542
183	0x3d063eb9	0.03277466
184	0x3b550381	0.003250331
185	0x3cb3333d	0.021875018
186	0xbd12da25	-0.03585257
187	0x3d9f8ac7	0.077901416
188	0xba8d615e	-0.0010786464
189	0x3d90db87	0.070731215
190	0xbd271051	-0.040787045
191	0xbd36187e	-0.04445695
192	0xbda34507	-0.0797215
193	0x3d359d98	0.044339746
194	0x3df47dcf	0.119380586
195	0x3d0cba44	0.034357324
196	0xbb49d631	-0.0030797834
197	0x3b80450f	0.0039144824
198	0x3cea544c	0.028604649
199	0x3deae27f	0.11468982
200	0xbc2d357b	-0.010571833
201	0xbe1c57a2	-0.15267804
202	0x3d595269	0.053057108
203	0x3cd00239	0.025391685
204	0xbd01e962	-0.03171671
205	0xbd11830d	-0.03552537
206	0xbcbd2ac3	-0.02309168
207	0x3ccede84	0.025252588
208	0xbd889f18	-0.0667097
209	0x3cba1272	0.022713874
210	0x3e012953	0.1261342
211	0xbdf00931	-0.11720503
212	0xbd262a75	-0.040567834
213	0x3cbc16eb	0.022960147
214	0xbd61088f	-0.054939803
215	0xbdb31fc9	-0.08746297
216	0xbe26fccf	-0.16307376
217	0xbc9bfd40	-0.019041657
218	0xbb801839	-0.0039091376
219	0x3cac4e5f	0.021033464
220	0xbde40121	-0.11133028
221	0x3c8c6544	0.017138131
222	0x3d814c62	0.06313397
223	0xbd563d2a	-0.052304424
224	0x3d55d891	0.052208487
225	0xbb86d245	-0.0041144216
226	0xbbc8abf1	-0.0061240126
227	0x3c32be25	0.010909592
228	0x3c4dc5b9	0.012559348
229	0xbd6843a4	-0.056705132
230	0xbca39c51	-0.019971998
231	0x3c2a59a2	0.010397347
232	0x3d26811b	0.04065047
233	0x3ce5d304	0.028054722
234	0xbce4cfb2	-0.027931068
235	0xbbeaaeee	-0.0071619665
236	0x3d9344b8	0.071908414
237	0xbd134504	-0.03595449
238	0x3de42799	0.11140365
239	0xbd3f7604	-0.046743408
240	0x3c217559	0.009854638
241	0xbe95c7e0	-0.29254055
242	0xbe2685fc	-0.16262048
243	0x3a1f9b54	0.00060885143
244	0x3c998132	0.018738363
245	0xbd683c2b	-0.056698006
246	0xbde727dd	-0.112869
247	0x3cc88a16	0.024479907
248	0x3d6d1778	0.05788371
249	0x3c6ee3e6	0.014580702
250	0x3d04c650	0.032415688
251	0x3b3badcd	0.002863753
252	0x3ba4f516	0.0050340993
253	0x3d97cbe3	0.07411935
254	0xbd3230ac	-0.04350345
255	0x3d2c9a14	0.042139128

fc2.bias f4 [128]
0	0xbda2c6bb	-0.07948061
1	0xbdf462f3	-0.119329356
2	0xbd6a1d12	-0.05715663
3	0xbd48a1a9	-0.048982296
4	0xbd01db50	-0.031703293
5	0xbcc40fee	-0.023933377
6	0xbdb1598f	-0.0865966
7	0x3cf54ec0	0.029944777
8	0xbdca5e45	-0.09881262
9	0xbdbf2d40	-0.09334803
10	0xbc55011c	-0.013000753
11	0xbd625ecb	-0.055266183
12	0xbce0e6db	-0.02745383
13	0xbda0d1eb	-0.07852539
14	0xbd789bdd	-0.060695518
15	0xbd295c81	-0.041347984
16	0xbd595fd8	-0.05306992
17	0xbe30862a	-0.1723868
18	0xbe160138	-0.14648902
19	0xbdcf2f09	-0.10116393
20	0x3ba435c6	0.005011293
21	0x3b8361a4	0.0040094424
22	0xbd5039cf	-0.05083638
23	0xbcacb966	-0.021084499
24	0xbd110f64	-0.03541507
25	0xbced0acd	-0.028935814
26	0xbd508ef9	-0.0509176
27	0xbd53a67c	-0.051672444
28	0xbd95bff8	-0.07312006
29	0xbd40f1ff	-0.047105785
30	0xbda0c009	-0.07849128
31	0xbda29ba5	-0.07939843
32	0xbd87eb5b	-0.06636687
33	0x3d8b0925	0.067888536
34	0xbe1b1e92	-0.1514838
35	0xbd7a2712	-0.061072417
36	0xbdbc6fa7	-0.092009835
37	0x3b5667c7	0.0032715665
38	0xbe06cb1d	-0.13163419
39	0xbc8efcad	-0.01745447
40	0xbd864242	-0.065556064
41	0x3d83ab4a	0.06429155
42	0xbccedab8	-0.025250778
43	0xbdd27135	-0.10275499
44	0xbde4392e	-0.11143719
45	0xbe13cd82	-0.14433864
46	0x3c30ed08	0.0107987
47	0xbd0fb2d1	-0.035082642
48	0xbdbd3936	-0.09239428
49	0x3d035c1f	0.032070275
50	0xbdd9396c	-0.106066555
51	0xbd4d9a72	-0.05019612
52	0xbdfff168	-0.124972165
53	0xbcf229e9	-0.029561
54	0xbdf17251	-0.11789382
55	0x3c81fe5e	0.015868362
56	0xbdd12b37	-0.10213321
57	0xbdc998ad	-0.09843574
58	0xbd92a815	-0.07160965
59	0xbcfef2bd	-0.031121606
60	0xbd8cf60d	-0.06882868
61	0x3d76df32	0.06027145
62	0xbcbe45c7	-0.023226632
63	0xbd642a2d	-0.055704284
64	0xbd2990fc	-0.041398033
65	0xbdaaeee9	-0.0834635
66	0xbd9d1708	-0.076704085
67	0xbd08daa4	-0.033411637
68	0xbe0c24c6	-0.13685903
69	0xbd447702	-0.047965057
70	0xbda7e2c9	-0.08197553
71	0xbd59c5d6	-0.053167187
72	0xbd5c0c30	-0.05372256
73	0xbd24a723	-0.040198456
74	0xbce40786	-0.027835619
75	0xbc7237b2	-0.014783787
76	0xbdb142b2	-0.08655299
77	0xbd611bf1	-0.054958288
78	0xbd4c9281	-0.049944405
79	0xbcb4e11f	-0.022080002
80	0xbde24991	-0.11049188
81	0xbbf7760e	-0.007551915
82	0xbddbed96	-0.10738675
83	0xbe0fa99e	-0.14029548
84	0xbcc68a18	-0.02423577
85	0xbdc1fddd	-0.09472249
86	0xbd827e2a	-0.0637172
87	0xbdb74ef4	-0.08950606
88	0xbdf4473b	-0.11927649
89	0xbdc2ac36	-0.09505503
90	0xbdb6561e	-0.08903144
91	0xbe26d6a5	-0.16292818
92	0xbe2e4a49	-0.17020525
93	0x3cdf0210	0.027222663
94	0x3e01457a	0.1262416
95	0xbac629f3	-0.0015118703
96	0xbd83c7bf	-0.06434583
97	0xbcd8ea15	-0.026478807
98	0x3c17b2c9	0.009258934
99	0xbda141a8	-0.07873851
100	0xbc2a5dd2	-0.010398345
101	0xbdb4dfff	-0.08831786
102	0xbba25d18	-0.0049549453
103	0xbdc20216	-0.09473054
104	0xbdc95da9	-0.098323174
105	0xbe190b0e	-0.14945623
106	0xbcb74cd7	-0.022375507
107	0xbd36dd23	-0.044644486
108	0x3c10e36d	0.008843285
109	0xbe0ec91c	-0.13943905
110	0xbdbe74ff	-0.09299659
111	0xbdb7f0b8	-0.0898146
112	0xbe029595	-0.12752374
113	0xbdc3ee32	-0.095669165
114	0xbdd70807	-0.10499578
115	0xbddf4d38	-0.109034
116	0xbd304672	-0.043035932
117	0xbd2b149a	-0.041767694
118	0xbdada50f	-0.08478748
119	0xbdefe7c1	-0.117141254
120	0xbd51e0ba	-0.051239707
121	0xbe03954d	-0.12849922
122	0xbca9935a	-0.020700146
123	0x3c868626	0.016421389
124	0xbb29bb7c	-0.0025899103
125	0xbc6ff438	-0.014645629
126	0xbd245631	-0.04012126
127	0xbde629df	-0.11238455
